Classifier.ckpt (torch_old, 57726 bytes, 20 tensors)

layer1.0.weight f4 [8, 1, 5, 5]
-0.08726384 0.0458393 -0.013673407 0.08071586 0.08266253 0.095500015 -0.19301882 -0.09788917
-0.008612414 0.2850573 0.012995859 0.17553265 -0.29182014 -0.36393496 0.07282226 0.023384122
0.2656386 -0.019283637 -0.103002824 -0.005571578 -0.18095094 0.20420167 -0.006505382 -0.09624781
0.027660139 0.059386823 -0.037489373 0.112521894 0.06727032 -0.04852712 0.1653211 -0.11466824
-0.02657414 -0.22557706 -0.21663384 0.08985893 -0.01099653 -0.07285513 -0.05702322 -0.032499593
0.057964344 0.18539195 0.33133742 0.2037393 0.11974967 0.10037708 0.012938084 -0.1460068
0.085086435 0.25350702 0.19617155 0.13912505 0.103759505 -0.016914451 -0.049046434 -0.0108539425
0.26944074 0.100601576 0.045951072 -0.043728463 -0.2124926 -0.21308059 -0.077974774 0.09897414
0.1169602 -0.14074178 -0.22772199 -0.13884208 -0.04152663 -0.0074420683 -0.057879955 0.08283452
0.03112464 -0.05227505 -0.06991511 -0.018416444 -0.09572199 0.16106623 -0.05576506 0.023309052
-0.19712815 0.18534632 0.042832207 -0.006468958 -0.08958106 0.021129359 0.23151001 0.01499187
-0.1323078 -0.06828704 0.0634303 0.18843067 -0.20288458 -0.3584709 0.1377363 0.092773385
-0.14517847 -0.18620239 0.0693294 0.06689569 0.24801302 0.22647251 0.003772124 0.08135637
0.055826053 0.18363374 -0.011821297 -0.117153384 -0.20281596 0.01476897 0.024155412 0.23766534
0.0033094916 -0.1926738 -0.1650595 0.14964414 0.15405995 -0.12455441 -0.0846532 -0.1468355
0.0038216526 0.062084794 -0.22207156 -0.044710513 -0.27762526 -0.24926654 -0.043534413 -0.014116926
0.23096138 0.29705665 -0.061009217 0.019867135 0.057488676 0.18648037 -0.018411497 -0.013514879
-0.019348366 0.12573233 0.18561567 0.07449661 -0.04778631 -0.036688287 0.1444632 -0.034801707
-0.049744572 0.107928425 0.00014305371 -0.031895276 0.08815643 0.09851949 0.057717912 0.097486205
0.09295095 0.07665638 0.19148743 -0.1680256 -0.12236649 -0.13363545 -0.0043985792 -0.058295928
0.1300273 0.27037403 0.23770317 0.057826333 0.07715724 -0.044123445 -0.04455735 0.04146569
-0.17663851 -0.15364958 -0.22246662 -0.2975445 -0.2395277 -0.061814457 0.022116384 -0.10764765
-0.08066683 -0.26170543 -0.13337332 0.030642387 -0.16772035 0.15391065 0.11295464 0.191829
-0.014490819 0.12905169 0.061750907 0.11612493 -0.02816727 -0.06119992 0.14571749 -0.1831441
-0.2509537 0.119711995 0.0017245 0.11308372 0.07776999 -0.100907214 0.26847 0.0076370095
00000000: 62b7 b2bd fdc1 3b3d 6d06 60bc 5b4e a53d
00000010: f94a a93d 8395 c33d baa6 45be 1e7a c8bd
00000020: 151b 0dbc 08f3 913e 95ec 543c d5be 333e
00000030: 7369 95be af55 babe d623 953d 0f90 bf3c
00000040: c801 883e b8f8 9dbc 25f3 d2bd c991 b6bb
00000050: 344b 39be 3e1a 513e 192b d5bb 921d c5bd
00000060: 8497 e23c 993f 733d 758e 19bd e171 e63d
00000070: 06c5 893d 60c4 46bd ef49 293e 2fd7 eabd
00000080: 03b2 d9bc acfd 66be 43d5 5dbe f507 b83d
00000090: ca2a 34bc 1235 95bd 2e91 69bd 4b1e 05bd
000000a0: 056c 6d3d 63d7 3d3e 0fa5 a93e 09a1 503e
000000b0: 513f f53d 8092 cd3d 42fa 533c ce82 15be
000000c0: cc41 ae3d accb 813e 32e1 483e cc76 0e3e
000000d0: dd7f d43d 2d90 8abc eae4 48bd bcd4 31bc
000000e0: 23f4 893e 3308 ce3d 3137 3c3d 9e1c 33bd
000000f0: a997 59be cc31 5abe 3db1 9fbd f4b2 ca3d
00000100: d488 ef3d 9d1e 10be f42f 69be 9e2c 0ebe
00000110: d417 2abd 98dc f3bb 8813 6dbd 25a5 a93d
00000120: 1af9 fe3c 5d1e 56bd a72f 8fbd 15de 96bc
00000130: e409 c4bd 8cee 243e e769 64bd a0f2 be3c
00000140: f6db 49be 6dcb 3d3e d370 2f3d 8ef9 d3bb
00000150: 4676 b7bd 7a17 ad3c f610 6d3e 76a0 753c
00000160: b27b 07be 13da 8bbd bfe7 813d f8f3 403e
00000170: fac0 4fbe 7f89 b7be bf0a 0d3e f9ff bd3d
00000180: aaa9 14be d7ab 3ebe 93fc 8d3d 9c00 893d
00000190: 20f7 7d3e 69e8 673e bd35 773b 2b9e a63d
000001a0: dca9 643d 7c0a 3c3e 1dae 41bc 1dee efbd
000001b0: fdae 4fbe 8df9 713c 92e1 c53c 8b5e 733e
000001c0: 0ee4 583b 484c 45be 5c05 29be 503c 193e
000001d0: e4c1 1d3e 6216 ffbd a85e adbd 0c5c 16be
000001e0: b174 7a3b a04c 7e3d ba66 63be 5f22 37bd
000001f0: e624 8ebe ba3f 7fbe 2451 32bd ae4a 67bc
00000200: 2481 6c3e cf17 983e cde4 79bd 67c0 a23c
00000210: 3f79 6b3d b6f4 3e3e b5d3 96bc 836d 5dbc
00000220: 7780 9ebc fabf 003e 0912 3e3e ae91 983d
00000230: 94bb 43bd 7546 16bd 29ee 133e 3c8c 0ebd
00000240: f7c0 4bbd 9409 dd3d b000 1639 9fa4 02bd
00000250: 5c8b b43d 96c4 c93d 9e69 6c3d d9a6 c73d
00000260: 115d be3d 05fe 9c3d 4815 443e e70e 2cbe
00000270: 489b fabd bbd7 08be f521 90bb b6c7 6ebd
00000280: e025 053e 776e 8a3e 7668 733e 4edb 6c3d
00000290: 9d04 9e3d c9ba 34bd c581 36bd edd7 293d
000002a0: bae0 34be 5156 1dbe 4ace 63be c157 98be
000002b0: c046 75be 2831 7dbd 6b2d b53c 5f76 dcbd
000002c0: a734 a5bd 41fe 85be 0493 08be be05 fb3c
000002d0: e2be 2bbe c19a 1d3e c354 e73d d26e 443e
000002e0: e66a 6dbc 2026 043e 85ee 7c3d e8d2 ed3d
000002f0: 0cbf e6bc c4ac 7abd f736 153e 208a 3bbe
00000300: 017d 80be 902b f53d 9e08 e23a 7098 e73d
00000310: df45 9f3d 71a8 cebd e674 893e e13f fa3b

layer1.0.bias f4 [8]
-0.03595317 -0.17924787 -0.12669645 -0.005342874 0.081691585 0.16743372 0.18688692 0.014096726
00000000: a243 13bd c18c 37be b7bc 01be 4713 afbb
00000010: eb4d a73d bf73 2b3e 495f 3f3e f4f5 663c

layer1.1.weight f4 [8]
0.5625806 0.6595608 0.39199272 0.5675796 0.36524922 0.39977047 0.6725159 0.294827
00000000: 4805 103f fad8 283f 45b3 c83e e64c 113f
00000010: f201 bb3e b7ae cc3e 012a 2c3f 91f3 963e

layer1.1.bias f4 [8]
-0.14134781 0.09293207 -0.07759128 -0.102128506 -0.068640225 -0.16216211 0.077969074 0.05643278
00000000: 7bbd 10be 2b53 be3d 2de8 9ebd c028 d1bd
00000010: 3f93 8cbd d30d 26be 40ae 9f3d 0f26 673d

layer1.1.running_mean f4 [8]
-0.043991953 -0.026978906 -0.16485548 -0.044158287 0.054297224 0.34289825 0.11994192 0.04821351
00000000: e830 34bd de02 ddbc e0cf 28be 52df 34bd
00000010: c466 5e3d 5c90 af3e 1ca4 f53d 887b 453d

layer1.1.running_var f4 [8]
0.024677176 0.079585016 0.054867245 0.045909613 0.16409525 0.123039395 0.06616616 0.024336737
00000000: ca27 ca3c 78fd a23d 7abc 603d b80b 3c3d
00000010: 9608 283e 14fc fb3d 2082 873d d65d c73c

layer2.0.weight f4 [16, 8, 5, 5]
0.098554626 -0.067170165 -0.018793719 0.11446073 0.103305824 0.09799954 0.0059833513 0.012299542
0.036504563 0.024041882 0.026150368 -0.014998504 0.04378905 0.033232894 -0.057387136 0.07660357
0.1374163 0.07869233 -0.006089416 -0.0036232625 0.107523605 0.07525735 0.05670868 -0.08150755
-0.042350058 -0.017737359 0.045822203 -0.080018125 -0.11035596 0.013408352 0.026862774 -0.003383364
-0.04303701 -0.04309785 -0.018582704 0.06353811 -0.014416181 -0.095695 -0.033446755 -0.018401992
0.077778704 0.019236818 0.020629082 0.057560977 -0.026233308 0.032554667 0.10766528 0.113686316
0.041312687 -0.054302994 -0.009462822 -0.19783132 -0.17162862 -0.037486486 -0.0931735 -0.06710671
-0.095805824 -0.16261129 -0.11030327 0.068093546 -0.15084603 -0.16153213 -0.17999224 -0.14227822
-0.015350919 -0.069628544 -0.09508699 -0.2798832 -0.111160964 -0.09083098 0.14593811 0.18800409
0.14602056 0.120549135 0.09648486 0.07962742 0.07307265 0.108695515 0.16753867 0.05690639
0.09253211 0.0008722934 0.111720964 0.104779184 0.084261775 0.13074243 0.04245305 0.13139242
0.12789847 0.14453463 0.039462008 -0.05110169 0.029576464 0.06312623 0.076872386 -0.10078232
-0.07469641 -0.10963093 -0.0008315215 0.02878721 0.025191313 0.015128515 -0.029173475 0.008200934
0.0014233743 0.090069726 0.07445148 0.1457203 0.008746186 -0.048917815 0.13626797 0.100888364
0.04677977 -0.009660128 0.041262634 0.063734084 0.036026098 -0.15220253 -0.09795633 -0.044785265
-0.0744479 -0.09965264 -0.18726945 -0.08534919 -0.020065185 0.014713084 -0.09501974 -0.027095158
0.015595768 -0.055613432 0.09063705 0.0012733594 -0.060762826 -0.13902251 0.10575881 0.02004094
0.06549168 0.054219414 0.040043075 0.093397945 0.00090064935 0.008974182 0.006140088 -0.055051226
0.08252632 0.05314882 -0.068552725 0.009684509 -0.03353654 0.000277692 -0.073627576 -0.021949802
-0.07586596 0.0081621595 0.04123233 -0.064199656 -0.0066938163 0.071235985 0.018967872 0.0012879914
-0.08495469 -0.071296535 -0.09430266 -0.12762529 -0.010505782 0.053887174 0.05397013 -0.19707696
-0.14338124 0.06288276 0.012666503 0.036287174 0.09369703 0.062275697 0.1791156 0.07918864
0.13507116 0.004316727 -0.018699065 -0.0751333 -0.13101074 0.042042363 0.032503292 0.014972725
0.06158233 0.0040470017 0.026190143 0.025440052 0.059637003 0.1455228 0.06534993 -0.061553057
0.20201221 0.07112357 0.10792616 0.061084926 -0.02299261 -0.00059380307 0.16481537 0.043268632
-0.12659246 -0.11656165 0.13647495 0.092816 -0.04142882 0.12428262 0.1319161 0.034784317
-0.17365296 -0.14283085 -0.018940521 -0.08227449 0.013289565 -0.121505596 -0.013439109 0.04082148
-0.027622594 0.015219402 0.029389901 0.06705019 0.09164152 0.022959877 0.014774633 0.097194724
-0.10319117 0.0480058 0.08411375 0.00028392632 -0.079929255 -0.003787472 -0.017914662 0.015369744
0.06667024 0.03637974 -0.028235232 -0.056014847 0.027246814 -0.020061802 -0.024839597 -0.0057068123
-0.06666196 0.06603063 0.025075847 0.026496818 -0.063783996 0.060758922 -0.0070655365 0.032090336
-0.044062085 -0.061001975 0.06826083 0.09285063 0.22845925 0.20682332 0.22236045 0.031773772
00000000: 02d7 c93d 8390 89bd 49f5 99bc 636a ea3d
00000010: 0192 d33d fcb3 c83d fd0f c43b 0584 493c
00000020: cf85 153d 7bf3 c43c 4c39 d63c 49bc 75bc
00000030: 265c 333d 371f 083d c60e 6bbd 55e2 9c3d
00000040: dcb6 0c3e 7229 a13d b989 c7bb 4274 6dbb
00000050: 5635 dc3d 8720 9a3d 5c47 683d 6eed a6bd
00000060: 4177 2dbd f04d 91bc 10b0 3b3d 8be0 a3bd
00000070: 4e02 e2bd b4ae 5b3c 520f dc3c 6ebb 5dbb
00000080: 9347 30bd 5f87 30bd c13a 98bc 4520 823d
00000090: d831 6cbc bdfb c3bd 77ff 08bd c6bf 96bc
000000a0: 714a 9f3d 8896 9d3c 52fe a83c 0fc5 6b3d
000000b0: 3ce7 d6bc 0b58 053d 9d7f dc3d 5fd4 e83d
000000c0: 7e37 293d d16c 5ebd f409 1bbc 4b94 4abe
000000d0: 6abf 2fbe 6e8b 19bd bfd1 bebd 3e6f 89bd
000000e0: d835 c4bd 9383 26be aee6 e1bd a174 8b3d
000000f0: 6277 1abe ae68 25be e34f 38be 62b1 11be
00000100: 6c82 7bbc 6999 8ebd f8bc c2bd da4c 8fbe
00000110: 5ca8 e3bd 9805 babd cd70 153e 2584 403e
00000120: 6a86 153e 77e2 f63d db99 c53d b313 a33d
00000130: 1da7 953d c19b de3d 428f 2b3e ad16 693d
00000140: 7a81 bd3d 9faa 643a f6cd e43d 7896 d63d
00000150: 7091 ac3d 58e1 053e 40e3 2d3d bc8b 063e
00000160: d1f7 023e e300 143e eaa2 213d 0150 51bd
00000170: 574a f23c 5348 813d 456f 9d3d f666 cebd
00000180: 6efa 98bd 2e86 e0bd 77fa 59ba 28d3 eb3c
00000190: 035e ce3c 97dd 773c 36fd eebc 365d 063c
000001a0: 8490 ba3a 7a76 b83d 047a 983d b437 153e
000001b0: 2a4c 0f3c 0c5e 48bd d589 0b3e 8f9e ce3d
000001c0: 259c 3f3d 8345 1ebc 0203 293d 0487 823d
000001d0: 1a90 133d fbda 1bbe 549d c8bd c170 37bd
000001e0: 2478 98bd af16 ccbd 90c3 3fbe 8ecb aebd
000001f0: be5f a4bc 260f 713c b699 c2bd aaf6 ddbc
00000200: 6485 7f3c e9ca 63bd eb9f b93d dae6 a63a
00000210: 71e2 78bd eb5b 0ebe 1398 d83d e62c a43c
00000220: 8020 863d 2d15 5e3d 3504 243d 6c47 bf3d
00000230: 8e19 6c3a 7308 133c cb32 c93b 657d 61bd
00000240: 8f03 a93d 94b2 593d 5f65 8cbd c6ab 1e3c
00000250: 9c5d 09bd 3097 9139 0eca 96bd 12d0 b3bc
00000260: 9d5f 9bbd 94ba 053c 3be3 283d 1c7b 83bd
00000270: cd57 dbbb 2ce4 913d 8362 9b3c d2d1 a83a
00000280: b9fc adbd eb03 92bd c121 c1bd 34b0 02be
00000290: 7220 2cbc ccb8 5c3d c80f 5d3d 8bce 49be
000002a0: 88d2 12be adc8 803d 2a87 4f3c dca1 143d
000002b0: 3ae4 bf3d cd14 7f3d 146a 373e a72d a23d
000002c0: 1850 0a3e 5573 8d3b c82e 99bc 7ddf 99bd
000002d0: ae27 06be 9d34 2c3d 2c22 053d 2950 753c
000002e0: c13d 7c3d b69c 843b b68c d63c a867 d03c
000002f0: ee45 743d ee03 153e 2fd6 853d 0f1f 7cbd
00000300: 4adc 4e3e 3ca9 913d 6408 dd3d 3034 7a3d
00000310: ff5a bcbc 73a9 1bba 5cc5 283e 733a 313d
00000320: 74a1 01be e0b7 eebd 17c0 0b3e 5116 be3d
00000330: 44b1 29bd e387 fe3d 0415 073e 007a 0e3d
00000340: 15d2 31be 4042 12be 2729 9bbc 877f a8bd
00000350: 7abc 593c edd7 f8bd b52f 5cbc 6d34 273d
00000360: c748 e2bc cc5a 793c 17c3 f03c 9c51 893d
00000370: 8dae bb3d 5a16 bc3c 4d11 723c 070e c73d
00000380: e455 d3bd bba1 443d d443 ac3d f2db 9439
00000390: f3b1 a3bd 3c37 78bb c5c1 92bc 61d1 7b3c
000003a0: 688a 883d ec02 153d 934d e7bc d36f 65bd
000003b0: b634 df3c a658 a4bc 697c cbbc 3600 bbbb
000003c0: 1186 88bd 113b 873d dd6b cd3c db0f d93c
000003d0: 2fa1 82bd 59de 783d 0486 e7bb 2871 033d
000003e0: 727a 34bd 35dd 79bd 56cc 8b3d 7928 be3d
000003f0: 39f1 693e 7ec9 533e 75b2 633e 3725 023d

layer2.0.bias f4 [16]
0.061558865 -0.027304854 0.046457477 0.024974372 -0.00798254 -0.07903775 0.04392123 -0.06817606
0.0069789817 0.035503633 0.04058741 -0.028016333 -0.009282264 0.039981514 -0.06524015 -0.055714678
00000000: 2625 7c3d 6eae dfbc 324a 3e3d 0e97 cc3c
00000010: 33c9 02bc 8bde a1bd bfe6 333d e49f 8bbd
00000020: f1af e43b 426c 113d fc3e 263d 8282 e5bc
00000030: a314 18bc a8c3 233d a19c 85bd 1335 64bd

layer2.1.weight f4 [16]
0.46678916 0.2952201 0.48160148 0.5218689 0.66991556 0.504887 0.3737687 0.65904146
0.45426196 0.43457782 0.6321749 0.34479758 0.69328606 0.44128677 0.38385996 0.5989439
00000000: fdfe ee3e 1727 973e 7894 f63e 3399 053f
00000010: 967f 2b3f 4640 013f 9c5e bf3e f1b6 283f
00000020: 0695 e83e fc80 de3e 37d6 213f 4f89 b03e
00000030: 327b 313f 57f0 e13e 4b89 c43e 6354 193f

layer2.1.bias f4 [16]
-0.030265104 0.02390326 -0.1900859 -0.1071252 -0.16465873 -0.28571346 -0.15317924 -0.06438961
-0.09018946 -0.12409124 -0.13612413 0.024154235 -0.23236918 -0.032142673 -0.06978812 -0.051688433
00000000: 86ee f7bc c5d0 c33c e1a5 42be 7564 dbbd
00000010: 4c9c 28be 0949 92be 05db 1cbe b3de 83bd
00000020: 40b5 b8bd 8c23 febd 2064 0bbe 1adf c53c
00000030: 30f2 6dbe 09a8 03bd 13ed 8ebd 40b7 53bd

layer2.1.running_mean f4 [16]
0.6635555 0.551383 -0.6115651 0.21146563 -0.9791126 -0.18084967 -0.017260922 -0.23477189
-0.7896709 -0.30754334 -0.03264447 0.1729673 -0.57106256 0.03337318 0.0784189 -0.98892134
00000000: c6de 293f 7027 0d3f 888f 1cbf 728a 583e
00000010: 20a7 7abf a830 39be c766 8dbc 0b68 70be
00000020: df27 4abf 5276 9dbe 35b6 05bd 571e 313e
00000030: 2831 12bf 51b2 083d 179a a03d f329 7dbf

layer2.1.running_var f4 [16]
0.6276734 0.42405885 0.41926104 0.46791106 0.92234313 0.69618416 0.48038006 0.8335677
0.53662616 0.4781641 0.64318323 0.6949542 0.60923284 0.42152357 0.8205167 0.75197744
00000000: 34af 203f 3e1e d93e 62a9 d63e 0a92 ef3e
00000010: ae1e 6c3f 2039 323f 60f4 f53e b164 553f
00000020: 5560 093f edd1 f43e a8a7 243f 85e8 313f
00000030: aff6 1b3f f0d1 d73e 620d 523f 9881 403f

layer3.0.weight f4 [64, 16, 3, 3]
-0.08909119 -0.06626484 -0.04749492 0.081579804 0.045486722 -0.050685387 -0.0034260063 0.052189153
-0.18763049 -0.19089036 -0.16931331 0.0010510163 -0.20116419 0.10775758 0.03970066 0.0007650635
-0.028547037 -0.018490238 -0.03286692 -0.04552347 0.092131674 -0.16177393 -0.06269118 0.10829052
-0.10932463 0.018431049 0.17496975 0.048756152 0.1301807 0.055491913 0.10263813 0.009788342
-0.0012112046 0.0055685425 0.029584713 -0.069043554 -0.008370741 0.16356695 0.07042209 -0.008740439
-0.004824703 -0.08842132 -0.06539581 -0.11738811 -0.15838067 0.088174395 -0.017906269 0.17833538
-0.0959767 0.0045205373 0.045706507 -0.047638375 -0.010374728 -0.020347502 0.23051931 0.43953386
0.2021563 0.065793835 0.09567234 0.13037033 -0.12027312 -0.025357725 -0.14761116 -0.030935375
0.031839143 0.09835179 0.034283336 -0.072763704 0.04771569 0.058283083 0.063780084 0.024530845
-0.20318331 0.014319299 0.12653714 -0.0021991748 0.045796443 0.033707753 0.025178246 -0.0074436413
-0.01268864 -0.10773389 0.046350174 0.0711552 -0.08657523 -0.083973765 0.1966101 0.0042241234
-0.029766645 0.050971426 -0.050416715 0.04409777 -0.05739983 0.0741464 0.06764791 0.047296762
0.031979945 0.057551175 -0.035436478 -0.03692041 -0.008692056 0.14332914 -0.095612764 -0.011710323
0.030479034 -0.0004009459 -0.15977429 -0.15966366 -0.22551298 -0.11305942 -0.029560702 -0.08391871
0.028054662 -0.021682076 -0.039521277 0.026174564 -0.011861461 0.07344707 -0.007823346 -0.110438086
0.027801592 0.093064256 -0.08011755 0.10903639 0.04353251 -0.09486769 -0.054335073 0.09388472
0.10319659 -0.14724922 -0.056433607 -0.08035711 -0.016611347 0.02791236 -0.027955526 -0.04121191
-0.10147022 -0.039517164 -0.036240928 -0.040740974 -0.06767548 0.025898887 0.027657682 -0.04331716
0.02065817 -0.06013311 0.14531247 0.15727699 0.025162125 -0.12280022 0.09378724 0.11093077
0.06672055 -0.1336304 -0.0034969083 -0.10227175 -0.06282242 0.08008487 -0.025167974 -0.090596735
0.050929885 -0.09851204 -0.13558574 0.05404919 0.19974148 0.030440481 -0.04902431 0.020430861
-0.07846349 0.1655139 0.15412769 0.03132598 0.006112039 -0.09720658 0.10617029 0.020731198
0.17256594 -0.0524054 0.07254438 0.013285033 -0.040047854 -0.0015367622 -0.015734602 0.054285657
-0.038651645 -0.18370001 0.05306759 0.06103784 -0.06487072 -0.008966176 0.07750823 0.038253263
0.07278401 0.0505843 -0.1238434 0.057476066 0.06497003 0.13822044 0.045441356 -0.00097355153
0.09723378 0.008099139 -0.052729465 -0.08172893 -0.2145059 -0.20405789 -0.06095044 -0.08994288
0.020504298 -0.017850064 -0.0732829 -0.022059891 -0.092071645 0.19024655 0.14730434 0.08261896
-0.102995194 0.032596655 0.0022117298 0.13298929 0.10939485 -0.06514069 0.024814162 0.0205136
0.033975963 -0.16518976 0.023421118 -0.0105468035 -0.040882982 -0.041021265 0.03246738 0.047703464
0.029950846 -0.08334134 0.08034318 0.014872669 -0.072635956 -0.07467642 -0.0073746005 -0.055561297
0.10250066 -0.04659701 0.007019184 -0.13832885 -0.16855098 -0.0046939524 -0.025472695 -0.12777703
-0.054223098 0.011508114 0.13428012 0.045055468 0.0092105055 0.07341654 -0.030372078 -0.050494377
00000000: 7175 b6bd dcb5 87bd 098a 42bd 5013 a73d
00000010: 4950 3a3d 7b9b 4fbd d986 60bb 4bc4 553d
00000020: 3522 40be c378 43be 7860 2dbe 41c2 893a
00000030: fcfd 4dbe 02b0 dc3d 299d 223d 8b8e 483a
00000040: 7adb e9bc d778 97bc 779f 06bd d176 3abd
00000050: 88af bc3d 11a8 25be 3c64 80bd 6cc7 dd3d
00000060: 97e5 dfbd b6fc 963c 452b 333e 88b4 473d
00000070: 174e 053e 7d4b 633d f133 d23d 485f 203c
00000080: 48c1 9eba 5278 b63b a45b f23c b566 8dbd
00000090: 6f25 09bc 187e 273e 7539 903d 0f34 0fbc
000000a0: 8b18 9ebb 3d16 b5bd 3dee 85bd 2d69 f0bd
000000b0: 8b2e 22be c794 b43d 2bb0 92bc 8d9d 363e
000000c0: 6f8f c4bd 0421 943b bf36 3b3d 7520 43bd
000000d0: c3fa 29bc ceaf a6bc 410d 6c3e 950a e13e
000000e0: 1002 4f3e ebbe 863d dcef c33d cd7f 053e
000000f0: c151 f6bd 01bb cfbc 6127 17be 2f6c fdbc
00000100: c369 023d aa6c c93d af6c 0c3d 2305 95bd
00000110: 8771 433d 3eba 6e3d 229f 823d e9f4 c83c
00000120: 490f 50be 7e9b 6a3c f492 013e 0820 10bb
00000130: 0d95 3b3d 2411 0a3d 9c42 ce3c cae9 f3bb
00000140: 03e4 4fbc 96a3 dcbd aed9 3d3d d1b9 913d
00000150: 5b4e b1bd 70fa abbd 2854 493e 846a 8a3b
00000160: 2ed9 f3bc 6ac7 503d c281 4ebd dd9f 343d
00000170: 161c 6bbd 11da 973d fd8a 8a3d 40ba 413d
00000180: 67fd 023d c8ba 6b3d d725 11bd db39 17bd
00000190: 2069 0ebc e0c4 123e a0d0 c3bd a8dc 3fbc
000001a0: 2baf f93c 0c36 d2b9 df9b 23be df7e 23be
000001b0: e0ec 66be b28b e7bd 4929 f2bc 93dd abbd
000001c0: e4d2 e53c 9c9e b1bc 10e1 21bd 0a6c d63c
000001d0: 9356 42bc 6b6b 963d 7e2d 00bc 5d2d e2bd
000001e0: 2ac0 e33c 7998 be3d ac14 a4bd 794e df3d
000001f0: 254f 323d fe49 c2bd 748e 5ebd a246 c03d
00000200: bc58 d33d 80c8 16be ed26 67bd 4592 a4bd
00000210: 8514 88bc 76a8 e43c fd02 e5bc d2cd 28bd
00000220: 9ecf cfbd c0dc 21bd 5e71 14bd 02e0 26bd
00000230: 7199 8abd e729 d43c 5d92 e23c 566d 31bd
00000240: 533b a93c 234e 76bd cbcc 143e 380d 213e
00000250: cd20 ce3c af7e fbbd 8613 c03d ac2f e33d
00000260: c9a4 883d 68d6 08be 632c 65bb da73 d1bd
00000270: 0aa9 80bd 8903 a43d 112d cebc c88a b9bd
00000280: db9b 503d aec0 c9bd fdd6 0abe af62 5d3d
00000290: 0889 4c3e 515e f93c b7cd 48bd 9f5e a73c
000002a0: 77b1 a0bd 7a7c 293e a6d3 1d3e ac4f 003d
000002b0: 8047 c83b 3e14 c7bd cf6f d93d 79d4 a93c
000002c0: 20b5 303e 0ba7 56bd 2692 943d 78a9 593c
000002d0: 3809 24bd 2f6d c9ba dae5 80bc a35a 5e3d
000002e0: 3051 1ebd db1b 3cbe 675d 593d d002 7a3d
000002f0: f1da 84bd dee6 12bc a3bc 9e3d 74af 1c3d
00000300: c80f 953d 7c31 4f3d 9ca1 fdbd 066c 6b3d
00000310: 020f 853d a989 0d3e b720 3a3d f035 7fba
00000320: 8122 c73d 40b2 043c dafa 57bd 7f61 a7bd
00000330: 6fa7 5bbe 8df4 50be 2ba7 79bd f933 b8bd
00000340: a1f8 a73c 4c3a 92bc 5815 96bd f2b6 b4bc
00000350: 0f90 bcbd fecf 423e f3d6 163e 2134 a93d
00000360: 25ef d2bd 1284 053d abf2 103b 582e 083e
00000370: 680a e03d 7b68 85bd 1247 cb3c 230c a83c
00000380: 612a 0b3d 8127 29be a5dd bf3c 80cc 2cbc
00000390: ea74 27bd ea05 28bd 84fc 043d b564 433d
000003a0: 7a5b f53c ddae aabd f78a a43d 7fac 733c
000003b0: 29c2 94bd f3ef 98bd a2a6 f1bb 3e94 63bd
000003c0: deeb d13d 82dc 3ebd 2f01 e63b 14a6 0dbe
000003d0: a198 2cbe bacf 99bb 1dac d0bc fbd7 02be
000003e0: 0a19 5ebd 878c 3c3c ba80 093e 158c 383d
000003f0: a9e7 163c 695b 963d ddce f8bc 31d3 4ebd

layer3.0.bias f4 [64]
0.040564325 -0.018734701 -0.06647873 0.05960861 0.08465529 -0.007992513 -0.0043819332 -0.0231917
-0.053886704 -0.05757479 -0.03926631 -0.00037508935 0.032357793 -0.066498056 0.052915502 0.027557982
0.021776797 0.081284024 0.026343783 0.021390647 -0.04569848 0.027867502 0.049920335 -0.00082307507
-0.028388193 -0.039112426 0.034098547 0.059707373 0.014338336 0.05350471 -0.009579265 -0.019495895
0.07279889 0.060490705 -0.054136723 -0.031893093 -0.07910157 0.08414401 -0.061271995 0.038191233
-0.077017024 0.08987091 0.024497744 -0.06581966 0.004586266 0.056656845 0.029638704 0.027928814
-0.046167564 0.03720805 0.0804755 -0.058571048 0.031123841 0.08836054 -0.057549376 0.07567681
0.005629584 0.081999175 0.005001958 -0.038890462 -0.03727263 -0.076101474 -0.002147383 -0.08195134
00000000: c726 263d 8479 99bc 0026 88bd 2828 743d
00000010: c15f ad3d 07f3 02bc 5296 8fbb 85fc bdbc
00000020: 4eb8 5cbd 8bd3 6bbd b6d5 20bd a4a7 c4b9
00000030: 9b89 043d 2230 88bd edbd 583d 47c1 e13c
00000040: 4165 b23c 3d78 a63d ebce d73c 703b af3c
00000050: 542e 3bbd 634a e43c 4479 4c3d a2c3 57ba
00000060: 5b8e e8bc 5a34 20bd ebaa 0b3d b88f 743d
00000070: 57eb 6a3c c127 5b3d 59f2 1cbc dbb5 9fbc
00000080: 9617 953d 1ac5 773d 78be 5dbd 55a2 02bd
00000090: 0100 a2bd b253 ac3d 58f8 7abd 696e 1c3d
000000a0: 1abb 9dbd 3d0e b83d 7eaf c83c 75cc 86bd
000000b0: 6348 963b 0211 683d decc f23c f8ca e43c
000000c0: 331a 3dbd 7867 183d 57d0 a43d 32e8 6fbd
000000d0: 6df7 fe3c 5ff6 b43d e5b8 6bbd 72fc 9a3d
000000e0: 6078 b83b 2fef a73d 77e7 a33b 9b4b 1fbd
000000f0: 2fab 18bd 17db 9bbd 1cbb 0cbb 1bd6 a7bd

layer3.1.weight f4 [64]
1.5733016 1.0709172 0.9909682 1.0914226 1.1651944 0.8453567 0.8062641 1.0620933
1.1029705 1.4739264 1.2955275 1.4917637 1.0203222 1.3606318 0.9808516 1.5048692
1.3588173 1.4285802 0.8704925 0.755361 1.1477787 0.85078067 0.95574623 1.0856268
1.521496 -0.7687316 1.2761478 1.137625 1.1153584 0.78721154 1.2129829 0.71115917
1.5860049 0.77162343 0.80628043 0.8544221 1.2460437 -0.7356305 1.0408963 1.5293149
0.92121184 1.0517181 1.6211715 1.1905161 1.1566048 1.4259903 0.98205 0.9369925
1.2528741 1.2294182 1.0264348 1.3127582 1.2993684 0.8258946 1.3008257 1.0381997
0.6610467 1.5331753 1.2683644 1.1372619 1.2707642 1.317142 0.9763099 1.4152579
00000000: f261 c93f d113 893f 18b0 7d3f bcb3 8b3f
00000010: 1725 953f 4c69 583f 5367 4e3f acf2 873f
00000020: 232e 8d3f 9fa9 bc3f d8d3 a53f 1df2 be3f
00000030: eb99 823f 2f29 ae3f 1719 7b3f 8e9f c03f
00000040: baed ad3f b7db b63f 99d8 5e3f 575f 413f
00000050: 6aea 923f c3cc 593f c9ab 743f d2f5 8a3f
00000060: 62c0 c23f 98cb 44bf d058 a33f b29d 913f
00000070: 10c4 8e3f b286 493f 0643 9b3f 870e 363f
00000080: 3502 cb3f 1d89 453f 6568 4e3f 68bb 5a3f
00000090: 5c7e 9f3f 4852 3cbf 173c 853f 97c0 c33f
000000a0: 8ad4 6b3f b39e 863f 8c82 cf3f d562 983f
000000b0: a00b 943f da86 b63f a167 7b3f bede 6f3f
000000c0: 2e5e a03f 935d 9d3f 3762 833f 7608 a83f
000000d0: b451 a63f d46d 533f 7581 a63f bae3 843f
000000e0: 5b3a 293f 173f c43f c459 a23f cc91 913f
000000f0: 67a8 a23f 1c98 a83f 72ef 793f 2c27 b53f

layer3.1.bias f4 [64]
0.18908831 0.117827624 0.124045424 0.21751651 0.0680042 0.1494558 0.18564576 0.22681956
0.2359758 0.11750392 0.10767986 0.26783547 0.20639378 0.22732072 0.2247526 0.16705509
0.19248475 0.22727005 0.17684165 0.07338115 0.25465587 0.16973963 0.13813558 0.15061313
0.15488859 0.12151799 0.23595169 0.19615398 0.17607825 0.14933689 0.21783134 0.06359573
0.32764086 0.12970543 0.1876333 0.16126746 0.12627254 0.20971106 0.13533121 0.2756428
0.21361424 0.21812654 0.2534343 0.13814501 0.1787795 0.27175558 0.13690983 0.19376087
0.22371013 0.22718684 0.09346386 0.27466607 0.2046433 0.19047228 0.2130068 0.22580954
0.061831016 0.19520886 0.24947155 0.22491108 0.13903417 0.101913676 0.20409349 0.2135891
00000000: 5ea0 413e 9c4f f13d 870b fe3d a6bc 5e3e
00000010: c945 8b3d f10a 193e ec19 3e3e 6343 683e
00000020: a4a3 713e e5a5 f03d 4287 dc3d bb21 893e
00000030: e458 533e c3c6 683e 8c25 663e 7d10 2b3e
00000040: b91a 453e 7bb9 683e fa15 353e db48 963d
00000050: 4162 823e 3ad0 2d3e 6a73 0d3e 543a 1a3e
00000060: 1d9b 1e3e 6dde f83d 529d 713e 97dc 483e
00000070: db4d 343e c5eb 183e 2e0f 5f3e 7a3e 823d
00000080: 8bc0 a73e 80d1 043e f222 403e 4c23 253e
00000090: 974d 013e 7fbe 563e 4494 0a3e 0e21 8d3e
000000a0: b1bd 5a3e 905c 5f3e 24c2 813e e375 0d3e
000000b0: f911 373e 8c23 8b3e 1732 0c3e 4069 463e
000000c0: 4514 653e aba3 683e fb69 bf3d 08a1 8c3e
000000d0: 038e 513e 2a0b 433e 741e 5a3e 9e3a 673e
000000e0: 8542 7d3d d5e4 473e 7875 7f3e 174f 663e
000000f0: f95e 0e3e 1eb8 d03d e2fd 503e 1ab7 5a3e

layer3.1.running_mean f4 [64]
0.16491254 0.31688866 0.10420843 0.4574427 0.20551972 0.2348644 0.25620613 0.06055677
0.5638272 0.09861342 0.06191084 -0.48801214 -0.5226917 0.20395346 0.2019307 -0.08291096
-0.09961548 -0.13524655 0.10434461 -0.00836612 -0.03562962 0.14330873 0.67520475 -0.16801198
0.12584552 -0.25707844 -0.4349575 -0.5782775 -0.2848407 -0.47916433 -0.025878683 -0.70938563
-0.40426743 0.0017537962 -0.06826228 -0.513028 0.16301486 0.07687976 0.2723117 -0.07330852
-0.6750169 -0.13137695 0.30695805 -0.011443914 -0.12576038 -0.4555749 0.5424093 0.3686458
0.1908595 0.11007 -0.14135136 -0.31269586 0.4205539 -0.029493716 0.12638679 -0.26792628
0.52526605 -0.15003072 0.63240147 -0.0711039 0.10281395 0.16771796 -0.22998358 0.0023390627
00000000: d5de 283e 3b3f a23e 3b6b d53d ee35 ea3e
00000010: c373 523e 4b80 703e 732d 833e 600a 783d
00000020: fb56 103f d5f5 c93d 3996 7d3d badc f9be
00000030: 20cf 05bf 2dd9 503e ecc6 4e3e 39cd a9bd
00000040: 3303 ccbd 127e 0abe a0b2 d53d 0d12 09bc
00000050: 5df0 11bd 86bf 123e 38da 2c3f 550b 2cbe
00000060: a6dd 003e c99f 83be c0b2 debe ff09 14bf
00000070: a4d6 91be 0755 f5be 88ff d3bc 4c9a 35bf
00000080: 24fc cebe a3df e53a 18cd 8bbd ce55 03bf
00000090: 5eed 263e 2373 9d3d 706c 8b3e c722 96bd
000000a0: e8cd 2cbf ae87 06be 9b29 9d3e 417f 3bbc
000000b0: 54c7 00be 1d41 e9be 56db 0a3f 24bf bc3e
000000c0: ac70 433e 616c e13d 69be 10be ac19 a0be
000000d0: d752 d73e ce9c f1bc 8a6b 013e a22d 89be
000000e0: d677 063f a7a1 19be 10e5 213f ec9e 91bd
000000f0: 1f90 d23d 42be 2b3e d180 6bbe f64a 193b

layer3.1.running_var f4 [64]
0.25023293 0.16204539 0.1998043 0.1729368 0.12045896 0.14536281 0.18861142 0.16504917
0.16552112 0.107073255 0.11907164 0.1304027 0.17609055 0.24408492 0.26020482 0.16011627
0.13032818 0.15177476 0.16994078 0.18275979 0.16335888 0.15222728 0.15129986 0.14814828
0.13530754 0.195524 0.15353994 0.16774787 0.149292 0.1607696 0.16527514 0.1575868
0.22121099 0.16718675 0.14358997 0.16641669 0.23612753 0.19509968 0.18138309 0.15343694
0.1478628 0.1818389 0.18813412 0.16497552 0.1411948 0.18409349 0.1506431 0.19166312
0.21046494 0.21492076 0.11958935 0.20337838 0.1799457 0.18010469 0.18122552 0.15232235
0.20579231 0.12327401 0.20680328 0.17069311 0.17271851 0.123675585 0.27052447 0.17018415
00000000: 881e 803e 3aef 253e 8099 4c3e 5816 313e
00000010: 30b3 f63d fdd9 143e 5a23 413e a602 293e
00000020: 5e7e 293e 3949 db3d d5db f33d 4988 053e
00000030: 1551 343e 66f1 793e 9139 853e 85f5 233e
00000040: c074 053e d86a 1b3e f504 2e3e 6225 3b3e
00000050: 8d47 273e 78e1 1b3e 5aee 1a3e 2fb4 173e
00000060: 0f8e 0a3e 7237 483e 9339 1d3e 19c6 2b3e
00000070: 01e0 183e c9a0 243e e33d 293e 6f5e 213e
00000080: 2285 623e 0133 2b3e 4009 133e 2369 2a3e
00000090: 6acb 713e 36c8 473e 7dbc 393e 931e 1d3e
000000a0: 5969 173e fa33 3a3e 3ba6 403e 58ef 283e
000000b0: 5f95 103e 0183 3c3e 2f42 1a3e 5643 443e
000000c0: 1f84 573e 3014 5c3e 43eb f43d 6c42 503e
000000d0: b043 383e 5d6d 383e 2f93 393e 64fa 1b3e
000000e0: 38bb 523e 1677 fc3d 3dc4 533e 2dca 2e3e
000000f0: 1fdd 303e a049 fd3d 2f82 8a3e c144 2e3e

fc.weight f4 [10, 64]
0.33349782 0.47341245 -0.4473036 -0.03208014 -0.30165508 -0.45377967 -0.061678227 0.24615943
-0.69280756 -0.35382998 0.30741945 -0.47448948 0.2583418 -0.051282387 0.112188585 0.12547202
-0.11567569 -0.22154595 0.2947622 -0.46636713 0.24105318 -0.7616907 -0.24813437 0.08910437
0.3054893 -0.10155323 0.31085315 -0.50137687 0.4100819 0.27786008 0.31680477 0.4055422
-0.43222442 -0.16758943 0.2573469 0.18048675 0.11322395 -0.65781295 -0.10909324 0.27078852
0.39046994 0.058838446 -0.3420989 -0.29074994 -0.6474101 -0.5589205 -0.50410545 -0.38987577
0.18696524 -0.22008081 -0.24384359 -0.24616922 -0.45931146 0.05614908 -0.37861785 0.4473443
-0.3204864 -0.39727333 0.16113982 0.264026 0.27218154 -0.3771129 0.3115833 0.21456535
0.20193811 -0.42331687 -0.16702324 -0.2133483 -0.2046521 0.2517209 -0.4425589 0.371352
-0.30736914 -0.11255682 -0.1946899 0.3426887 -0.22018579 -0.3568502 -0.62854725 -0.23643516
0.053793482 0.50334436 -0.2041844 -0.28416762 0.4458824 -0.4320544 -0.36051062 -0.18951742
-0.44090298 -0.7185753 -0.20956199 0.3450412 -0.24110809 -0.20401876 -0.03886635 0.31268632
0.36516693 0.6236155 -0.57222724 -0.17409767 -0.21780439 0.2659383 -0.34438244 0.26498193
0.33022487 0.16225499 -0.30151066 -0.3399729 0.46927205 0.033605624 0.029454678 -0.36349228
-0.11667728 -0.5008145 0.32416213 0.35995406 -0.41848344 -0.46601632 -0.08620133 0.24336061
-0.522837 0.40618205 -0.13213933 0.15463507 -0.30745926 -0.2586685 -0.21051118 0.23851936
-0.43506238 0.17770155 -0.40001255 0.44071493 -0.088125974 -0.48832244 0.2177142 -0.413788
-0.5616816 0.18906467 -0.224447 -0.52929497 -0.26073912 0.1889723 -0.1810503 -0.3285463
-0.05817468 -0.19817829 0.16788465 -0.22018388 0.40985855 -0.32022312 0.2939393 -0.14941928
-0.26700014 -0.32094675 0.1283043 0.23079604 0.029636486 -0.45086706 0.06734479 -0.3798616
0.146549 -0.4846694 -0.45238367 -0.29403126 0.39668924 0.464267 0.23019847 -0.48355183
-0.81355613 0.041176725 0.36381033 0.18945277 0.32527503 -0.18279603 0.119117945 0.518953
0.3658299 -0.57724285 -0.2559248 -0.21328337 -0.026226168 0.0010467331 -0.15844238 0.41394272
-0.35337076 0.07833897 0.29313332 -0.243498 0.34226105 0.31098425 0.22436722 0.40520164
-0.37602407 -0.14724259 0.44849378 0.19957882 0.2733258 -0.3466194 -0.6563212 -0.5033417
0.3025578 -0.32308984 0.08142058 0.3855469 -0.38674298 0.31575182 0.5437304 -0.4896198
-0.38208163 0.07522893 0.473622 0.27111194 -0.3661382 0.6574845 0.16746858 0.028526457
0.16818269 -0.7158133 -0.11865516 0.2654028 0.28914082 0.26460057 0.3511319 -0.2296641
0.37604773 -0.2061336 0.41213444 -0.34433678 0.09673652 -0.68330956 -0.25575846 -0.2660141
0.18735051 0.40238973 0.18729836 -0.49726984 -0.35614827 0.0840317 0.4704705 0.092536494
-0.28734133 -0.060117356 -0.30998322 -0.32554263 -0.30587783 0.21412265 -0.40783644 -0.07393816
-0.20109282 -0.3641314 0.24769069 -0.28602454 -0.4100836 0.36972117 -0.48398736 -0.3797284
00000000: 3ac0 aa3e 1e63 f23e fa04 e5be 7766 03bd
00000010: 8972 9abe cf55 e8be 4fa2 7cbd 3811 7c3e
00000020: d65b 31bf 3429 b5be 1566 9d3e 49f0 f2be
00000030: 6045 843e 7b0d 52bd 21c3 e53d bd7b 003e
00000040: 60e7 ecbd f1dc 62be 12eb 963e acc7 eebe
00000050: a5d6 763e 29fe 42bf f016 7ebe 5a7c b63d
00000060: 1869 9c3e 24fb cfbd 2528 9f3e 3c5a 00bf
00000070: 41f6 d13e ad43 8e3e 3c34 a23e 3aa3 cf3e
00000080: 854c ddbe 909c 2bbe f9c2 833e 85d1 383e
00000090: f5e1 e73d 6e66 28bf 476c dfbd cba4 8a3e
000000a0: adeb c73e 9500 713d 9627 afbe 2ddd 94be
000000b0: abbc 25bf 6a15 0fbf 0e0d 01bf cc9d c7be
000000c0: d173 3f3e dd5c 61be 22b2 79be c913 7cbe
000000d0: df2a ebbe 94fc 653d 33da c1be 500a e53e
000000e0: cb16 a4be 6967 cbbe d601 253e 6a2e 873e
000000f0: 615b 8b3e f114 c1be d987 9f3e 05b7 5b3e
00000100: ddc8 4e3e fdbc d8be 2408 2bbe fa77 5abe
00000110: 5290 51be 90e1 803e 1597 e2be d921 be3e
00000120: 7d5f 9dbe 3184 e6bd ca5c 47be e574 af3e
00000130: 6278 61be 12b5 b6be 79e8 20bf 0f1c 72be
00000140: 8e56 5c3d 2ddb 003f b715 51be 6b7e 91be
00000150: b34a e43e 3c36 ddbe d994 b8be db10 42be
00000160: 09be e1be 8df4 37bf 6b97 56be 3da9 b03e
00000170: 0ae5 76be 4bea 50be 5232 1fbd 6c18 a03e
00000180: 29f7 ba3e 44a5 1f3f 7c7d 12bf a946 32be
00000190: 1d08 5fbe 1129 883e e552 b0be b6ab 873e
000001a0: 3c13 a93e 2c26 263e 9b5f 9abe ee10 aebe
000001b0: 6d44 f03e 0da6 093d f04a f13c a91b babe
000001c0: 7ff4 eebd 6135 00bf 94f8 a53e e64b b83e
000001d0: 7643 d6be b199 eebe 538a b0bd 8633 793e
000001e0: a5d8 05bf 18f7 cf3e 884f 07be a858 1e3e
000001f0: 4d6b 9dbe 3370 84be 3e90 57be 6b3e 743e
00000200: 7fc0 debe 65f7 353e 72ce ccbe 63a5 e13e
00000210: 647b b4bd 6605 fabe 79f0 5e3e 05dc d3be
00000220: 5eca 0fbf 2b9a 413e 6fd5 65be e07f 07bf
00000230: 997f 85be f481 413e 4065 39be 3837 a8be
00000240: 9348 6ebd 40ef 4abe f4e9 2b3e e277 61be
00000250: fbd8 d13e 49f4 a3be 367f 963e 5e01 19be
00000260: 3eb4 88be 2253 a4be 3462 033e cc55 6c3e
00000270: 37c8 f23c 0cd8 e6be 11ec 893d 387d c2be
00000280: f110 163e 9626 f8be d59e e7be 448b 96be
00000290: da1a cb3e 67b4 ed3e 26b9 6b3e 1b94 f7be
000002a0: 3745 50bf eda8 283d 5945 ba3e e8ff 413e
000002b0: 738a a63e e22e 3bbe 1cf4 f33d 1bda 043f
000002c0: 0f4e bb3e 30c6 13bf 9308 83be f566 5abe
000002d0: 43d8 d6bc 8932 893a b83e 22be 4df0 d33e
000002e0: 03ed b4be 2f70 a03d 9215 963e 8a57 79be
000002f0: d73c af3e 5439 9f3e 85c0 653e 9776 cf3e
00000300: 3a86 c0be c3c6 16be faa0 e53e 645e 4c3e
00000310: 5cf1 8b3e 1978 b1be ab04 28bf 00db 00bf
00000320: dbe8 9a3e 086c a5be d5bf a63d 6766 c53e
00000330: 2d03 c6be 39aa a13e ea31 0b3f 72af fabe
00000340: 34a0 c3be a011 9a3d 957e f23e 2fcf 8a3e
00000350: 7776 bbbe e750 283f e27c 2b3e 51b0 e93c
00000360: 1538 2c3e 8a3f 37bf 7a01 f3bd e0e2 873e
00000370: 440a 943e ba79 873e 8fc7 b33e 112d 6bbe
00000380: 5489 c03e b014 53be 4903 d33e e94c b0be
00000390: cc1d c63d 60ed 2ebf c6f2 82be 0033 88be
000003a0: d0d8 3f3e 0706 ce3e 24cb 3f3e 279a febe
000003b0: 1159 b6be d018 ac3d 82e1 f03e c683 bd3d
000003c0: 671e 93be 9e3d 76bd 1fb6 9ebe 86ad a6be
000003d0: 059c 9cbe f842 5b3e f0cf d0be e46c 97bd
000003e0: 47eb 4dbe 6e6f babe a1a2 7d3e cf71 92be
000003f0: 7af6 d1be 184c bd3e 31cd f7be c36b c2be

fc.bias f4 [10]
-0.05813583 0.056735057 -0.021864293 -0.023900155 0.12347955 -0.12316404 -0.09563666 0.050899405
0.0075641456 0.0182164
00000000: d61f 6ebd 0563 683d bf1c b3bc 42ca c3bc
00000010: d9e2 fc3d 6e3d fcbd 27dd c3bd e57b 503d
00000020: a7dc f73b 8f3a 953c
