D.ckpt (torch_old, 436234 bytes, 5 tensors)

0.weight f4 [128, 784]
0	0xb984e73a	-0.0002534928
1	0x3dc4cfbc	0.09609935
2	0x3e2dd755	0.16976674
3	0x3dc288aa	0.09498723
4	0x3d914c17	0.07094591
5	0xbc7cde74	-0.015433896
6	0x3e431d94	0.19054252
7	0x3e201b28	0.1563536
8	0x3c2b3f8e	0.010452164
9	0x3e5eb76b	0.21749656
10	0x3d41fb97	0.047359075
11	0x3e67049a	0.22560349
12	0x3e1b3a97	0.15159069
13	0xbca35fc4	-0.019943126
14	0x3d395768	0.045249373
15	0xbd3ab690	-0.04558426
16	0x3e05aa1e	0.13053176
17	0xbbd12f6b	-0.0063838265
18	0x3e2dc409	0.16969313
19	0xbddb8f11	-0.10720647
20	0x3d82518b	0.06363209
21	0x3d094100	0.033509254
22	0x3d5b602b	0.05355851
23	0x3d05eff8	0.032699555
24	0xbd9f75e2	-0.07786156
25	0x3cc5fb54	0.024167694
26	0x3c6ac086	0.014328128
27	0x3d7c49af	0.061593708
28	0x3da2bbfb	0.07946011
29	0x3c87f695	0.016597072
30	0x3979906a	0.00023800289
31	0x3d10323c	0.035204157
32	0x3d846d7b	0.06466194
33	0x3d84f413	0.06491866
34	0xbd10596a	-0.035241522
35	0x3dffc9fa	0.12489696
36	0xbd7bf9f9	-0.06151769
37	0x3e03d3f0	0.12873816
38	0x3cdb2650	0.026751667
39	0x3bd81468	0.0065942295
40	0xbbc19f08	-0.0059088506
41	0x3d1f90ef	0.03895658
42	0x3df02ea6	0.117276475
43	0x3d6cda25	0.057825226
44	0x3de8b191	0.11361993
45	0x3da54108	0.08069044
46	0x3da8fbd9	0.08251161
47	0x3dd15ed7	0.102231674
48	0x3dee4d54	0.11635843
49	0x3e19a24f	0.15003322
50	0x3d9e3418	0.0772478
51	0x3e14a42d	0.14515753
52	0x3ce59cb1	0.028028818
53	0xbd145807	-0.036216762
54	0x3d956e3d	0.07296417
55	0x3e37309b	0.17889635
56	0x3e208690	0.15676332
57	0xb8c1bcfe	-9.23816e-05
58	0xbda98559	-0.08277387
59	0x3da08a4b	0.07838877
60	0x3da02310	0.07819188
61	0x3d8c7d99	0.06859893
62	0x3e082475	0.13295157
63	0x3dec7abe	0.11546849
64	0x3cedb655	0.029017607
65	0x3e00156c	0.12508172
66	0x3b4d2877	0.0031304637
67	0xbcdf522d	-0.027260864
68	0x3c9708c7	0.018436803
69	0x3d054dc8	0.03254488
70	0x3d4c6511	0.049901072
71	0x3cfd6e4c	0.030936383
72	0x3d78d6c6	0.0607517
73	0x3e536a5c	0.20646042
74	0x3e17ec6e	0.14836285
75	0x3e383e55	0.17992528
76	0x3e31e754	0.17373401
77	0x3df958d1	0.121751435
78	0x3d012694	0.03153093
79	0x3da95197	0.08267515
80	0x3d4a8bab	0.049449604
81	0x3d3a15ec	0.045431063
82	0x3db19cb0	0.08672464
83	0x3e0998fd	0.13437267
84	0xbc703288	-0.014660485
85	0x3d9f67c8	0.077834666
86	0x3d98ae75	0.0745515
87	0x3cb14f82	0.021644358
88	0x3da46bd2	0.080283776
89	0x3e0006f6	0.12502655
90	0x3e27f47b	0.16401856
91	0xbd8023c0	-0.06256819
92	0x3da4d01b	0.080475055
93	0x3baa8c51	0.0052047153
94	0xbc3a543d	-0.011372623
95	0xbe0130cb	-0.1261627
96	0xbe343939	-0.17599954
97	0xbe7ef590	-0.24898362
98	0xbd4b0e67	-0.049574282
99	0x3d701a84	0.058619037
100	0x3e190e37	0.14946829
101	0x3d6c8bf6	0.057750665
102	0x3e0a95a5	0.13533647
103	0x3e45a881	0.1930256
104	0x3d8255fe	0.06364058
105	0xbe291a9a	-0.16514054
106	0xbe0c48a4	-0.13699585
107	0x3dfa9d95	0.12237088
108	0x3e0ca5e6	0.1373516
109	0x3c85f3c7	0.016351594
110	0x3d01f2cd	0.031725693
111	0x3dfa2041	0.12213183
112	0xbc2b849b	-0.010468627
113	0x3e654b25	0.22391947
114	0x3d800eef	0.06252848
115	0x3dc3a55d	0.09553025
116	0x3ca34a1b	0.019932797
117	0x3c21cfe6	0.009876227
118	0xbd197d82	-0.03747321
119	0xbc889d64	-0.016676612
120	0xbe40b5db	-0.18819372
121	0xbe526486	-0.20546159
122	0xbebd74b8	-0.37003112
123	0xbeb89914	-0.3605429
124	0xbe8833d9	-0.26602057
125	0xbea65343	-0.324854
126	0xbe6f4f29	-0.23370041
127	0x3df14315	0.11780373
128	0x3f0441f7	0.51663154
129	0x3e97b54f	0.29630515
130	0x3e35cbbe	0.17753503
131	0x3e6c9980	0.2310543
132	0xbe014661	-0.12624504
133	0xbe85c8eb	-0.2612985
134	0xbe6ad8a9	-0.22934212
135	0xbe1d4d45	-0.15361507
136	0xbdb08a60	-0.08620143
137	0x3b955c7c	0.004558144
138	0x3e415b34	0.18882447
139	0x3da6bd6e	0.081415996
140	0x3d658e73	0.056044053
141	0x3e0ed6eb	0.13949172
142	0x3d967f78	0.073485315
143	0xbcb974d8	-0.022638723
144	0x3c97f084	0.018547304
145	0x3d607323	0.054797303
146	0x3d8922d8	0.06696099
147	0xbdbe7979	-0.09300513
148	0xbe9dde31	-0.3083358
149	0xbec30ffd	-0.38098136
150	0xbefebdda	-0.4975422
151	0xbf2c62b2	-0.673381
152	0xbef37540	-0.47550392
153	0xbe842c2d	-0.25814953
154	0xbe787ab1	-0.24265553
155	0xbe593799	-0.21212615
156	0x3e1a25fa	0.1505355
157	0x3d7ef3e1	0.0622443
158	0x3e9a79c6	0.3017103
159	0x3e6756c6	0.22591695
160	0xbcf54749	-0.029941218
161	0xbdea04b2	-0.11426677
162	0xbe8b6979	-0.27228907
163	0xbd950ab7	-0.07277434
164	0xbd21416d	-0.039369036
165	0xbd94ae02	-0.07259752
166	0x3dcde700	0.100538254
167	0x3d87d6f8	0.06632799
168	0x3daabf6b	0.08337291
169	0x3d58285c	0.052772865
170	0x3dad2196	0.08453672
171	0x3c82a2b9	0.015946733
172	0x3d0b069a	0.033941843
173	0x3ca85ee3	0.020553058
174	0xbbb761e5	-0.0055963867
175	0xbd959ad8	-0.07304925
176	0xbe2e6ef9	-0.1703452
177	0xbef48d54	-0.47764075
178	0xbf3f9ae6	-0.7484573
179	0xbf3b05c8	-0.73055696
180	0xbddc2cd0	-0.10750735
181	0xbe8c8027	-0.27441522
182	0x3e06fc6a	0.13182226
183	0x3e55b3b0	0.20869327
184	0x3e9dabfc	0.30795276
185	0x3f2340ae	0.6377057
186	0x3eab70a9	0.3348439
187	0xbcb277dc	-0.021785669
188	0xbdcfe0d0	-0.101503015
189	0xbee784ea	-0.45218593
190	0xbee391c3	-0.44447145
191	0xbe478cb0	-0.19487262
192	0xbe202e75	-0.15642722
193	0x3c9c57e5	0.01908488
194	0x3cb80082	0.02246118
195	0xbd0ffd8c	-0.03515391
196	0xbbfd5733	-0.007731342
197	0x3dce5953	0.10075631
198	0x3d28ba50	0.041193306
199	0x3e2962fa	0.16541663
200	0x3d8ded24	0.069299966
201	0xbb9f7eb0	-0.0048673972
202	0xbd228164	-0.039674178
203	0xbe48fd7c	-0.19627947
204	0xbdc6daf6	-0.09709732
205	0xbec8790e	-0.39154857
206	0xbf2e937a	-0.6819378
207	0xbf5e3c90	-0.8681116
208	0xbe96bfa7	-0.29443094
209	0x3e25b679	0.16182889
210	0x3e2f1d05	0.17100914
211	0x3ce496b6	0.027903896
212	0x3d385e69	0.04501191
213	0x3dce0d80	0.10061169
214	0x3db372ed	0.08762155
215	0x3d3c4273	0.04596181
216	0xbedc8e9c	-0.43077552
217	0xbf101d5d	-0.56294805
218	0xbec79c69	-0.3898652
219	0xbcfef7ba	-0.031123985
220	0x3e1b3c9e	0.15159842
221	0xbb9bc80f	-0.0047540735
222	0xbdccf411	-0.100074895
223	0x3deefa0c	0.116687864
224	0xbc808536	-0.01568852
225	0x3d9340b1	0.07190073
226	0xbdbaefcb	-0.09127768
227	0x3d91bfe3	0.071166776
228	0xbd7dd92b	-0.061974686
229	0xbd99d079	-0.07510466
230	0xbe2081ce	-0.15674517
231	0xbeff4aed	-0.4986185
232	0xbed39a65	-0.4132873
233	0xbf088843	-0.5333292
234	0xbf17d68b	-0.5931174
235	0xbe86e655	-0.26347604
236	0x3ed587f1	0.41705278
237	0x3edf1983	0.4357415
238	0x3e7fb354	0.24970752
239	0xbe39ccfb	-0.181446
240	0xbedd5d84	-0.4323541
241	0xbf1b8fb8	-0.6076617
242	0xbe382fbd	-0.1798696
243	0xbbf81032	-0.00757029
244	0xbe850c35	-0.25985876
245	0xbe7935be	-0.24336907
246	0xbe3a5f54	-0.18200427
247	0x3d0a281d	0.03372966
248	0x3d270264	0.040773764
249	0xbcb9511c	-0.022621684
250	0x3dcbfc50	0.09960234
251	0x3df2a06f	0.118470065
252	0x3e4cf3e5	0.20014913
253	0x3e5e792d	0.21725912
254	0xbc58441e	-0.013199834
255	0xbd1b374a	-0.037894525

0.bias f4 [128]
0	0xbfa33d9e	-1.2753179
1	0x3f9ffefb	1.2499689
2	0x3fe373f9	1.7769767
3	0xbfc49bf2	-1.5360091
4	0xbff0cdfc	-1.8812861
5	0xbf70506a	-0.938727
6	0x3ffcdd7b	1.975509
7	0x3e0dc8ee	0.1384618
8	0x3d3020ef	0.043000158
9	0xbf5b40bf	-0.8564567
10	0xbf46fb69	-0.7772737
11	0x3fa1e848	1.2649012
12	0x3fedfd70	1.8592968
13	0x4002209e	2.0332408
14	0x3fc83013	1.5639671
15	0xbf6707f9	-0.9024654
16	0x3febe7b5	1.8430086
17	0x3ffd9dab	1.9813741
18	0x3ff69a30	1.9265804
19	0xbf662817	-0.8990492
20	0x3f85427d	1.0410916
21	0xbdde3706	-0.10850339
22	0x3fe973cf	1.8238467
23	0x3fb88b2a	1.441747
24	0x3ff71853	1.9304298
25	0x3ffab3d0	1.9586124
26	0x3fdbde78	1.7177267
27	0x3fe6db59	1.803569
28	0x3ff675f5	1.9254748
29	0x3fb03e92	1.3769095
30	0x3ff1c031	1.8886777
31	0xbfea3b1d	-1.829929
32	0x3f960b11	1.1722127
33	0xbe5107ed	-0.2041318
34	0xbf5706a8	-0.8399453
35	0xbe46ca20	-0.19413042
36	0x3fe35849	1.7761317
37	0x3f64d2af	0.8938398
38	0xbe977c57	-0.2958705
39	0x3f1915d1	0.59798914
40	0x3febbe09	1.8417369
41	0x3d6a7d83	0.057248604
42	0x40004361	2.0041125
43	0x3fbf9cfc	1.4969783
44	0xbe8d5a3d	-0.2760791
45	0xbe6a8044	-0.22900492
46	0xbfcbfd0f	-1.5936602
47	0x3fd16c2c	1.6361136
48	0x3ff738c2	1.9314196
49	0x3fd35b85	1.6512305
50	0x3f8f2fdc	1.118648
51	0x3ff696e3	1.9264797
52	0xbf189954	-0.5960896
53	0xbfdcc8a0	-1.7248726
54	0xbf1a5c67	-0.60297245
55	0x3ee388e6	0.44440383
56	0x3ec5bff9	0.38623026
57	0xbeae8e57	-0.34092972
58	0xbf3f78c8	-0.7479367
59	0xbf82cf1d	-1.0219456
60	0xbed482c0	-0.41506004
61	0x3fef7869	1.8708621
62	0x40094993	2.1451156
63	0x3f27fae9	0.65617234
64	0x3ff40fda	1.9067338
65	0xbfbe5888	-1.4870768
66	0x3ff9f7bd	1.9528729
67	0xbeeb0b22	-0.4590693
68	0x3fb0237c	1.3760829
69	0x3fef4f93	1.8696159
70	0xbf47f99f	-0.78115267
71	0xbfd56033	-1.6669983
72	0xbef94506	-0.48685473
73	0x3ff8bb1d	1.9432102
74	0x3ff12f1e	1.8842504
75	0xbfd6bd5b	-1.6776537
76	0x3ee124ff	0.43973538
77	0xbfa3e73c	-1.2804942
78	0x3f23e958	0.6402793
79	0xbfa5a187	-1.2939919
80	0xbfd78bbe	-1.6839521
81	0xbe424ab8	-0.18973815
82	0xbf83e663	-1.0304683
83	0x3ff792d3	1.9341682
84	0x3fd9dfde	1.7021444
85	0x3f721e05	0.94577056
86	0xbf86a24e	-1.0518281
87	0x3fde83df	1.7383994
88	0x3fe54009	1.7910167
89	0x3feefe8b	1.867143
90	0x3fe18faa	1.7621968
91	0xbf290add	-0.660322
92	0x3ff95bb9	1.9481117
93	0xbf981baa	-1.1883442
94	0xbede53c1	-0.43423274
95	0x3ff12272	1.8838637
96	0x40001dda	2.001822
97	0xbdd6adcf	-0.1048237
98	0x3ffe21f9	1.9854118
99	0xbfcb0445	-1.5860678
100	0x3fe9eaf8	1.8274832
101	0xbf65629c	-0.8960359
102	0x3ff97971	1.9490186
103	0x40001b7e	2.001678
104	0x3ff891e8	1.9419527
105	0xbe596a6c	-0.21232003
106	0xc002ed16	-2.0457206
107	0x3ff49dcf	1.9110659
108	0x3fd23827	1.6423386
109	0x3f021e63	0.50827616
110	0x3f91244e	1.1339204
111	0xbe5dd2dc	-0.21662468
112	0xbfa8bc1e	-1.3182409
113	0x3fd6f771	1.6794263
114	0x3fed0633	1.8517517
115	0x3fb785fc	1.4337764
116	0xbfa07012	-1.2534201
117	0x3fef4293	1.8692192
118	0xbfdb2e65	-1.7123533
119	0xbfa4fe11	-1.2890035
120	0x3fed314b	1.8530668
121	0x3e51fda3	0.20506911
122	0x40006c5a	2.0066133
123	0x3f51366a	0.81723654
124	0x3fede56f	1.8585643
125	0x3f29c3b5	0.6631425
126	0x3ffa176b	1.9538397
127	0x40002ee8	2.002863

2.weight f4 [64, 128]
0	0x3ec984c1	0.39359096
1	0xbe26c1ba	-0.16284838
2	0xbdc25b74	-0.094900995
3	0x3eb44a37	0.3521287
4	0x3bccdcb8	0.0062518977
5	0x39898907	0.0002623277
6	0x3db552c5	0.08853678
7	0xbee35329	-0.44399384
8	0x3e2d6f36	0.16936955
9	0x3e038345	0.12843044
10	0xbdd22871	-0.1026162
11	0xbdbceec9	-0.09225232
12	0x3d956b14	0.07295814
13	0xbe01357a	-0.12618056
14	0x3d886e45	0.06661657
15	0xbe3d87cd	-0.18508835
16	0xbe9819d3	-0.29707202
17	0x3dba2b96	0.090903446
18	0x3d9c9589	0.07645709
19	0x3e8549f5	0.26032987
20	0xbe9b9334	-0.30385745
21	0xbd0b3c45	-0.033993024
22	0x3c936c1f	0.017995892
23	0xbda9f5c6	-0.08298831
24	0x3c358337	0.011078647
25	0x3d98f553	0.07468667
26	0xbdc111f3	-0.09427252
27	0x3de1d1b1	0.110263236
28	0x3c8b9337	0.017037971
29	0x3de2d555	0.11075846
30	0x3d10e1da	0.03537164
31	0x3ea64448	0.3247397
32	0xbe67fa9f	-0.22654198
33	0x3dc0071b	0.09376355
34	0x3e5b123e	0.21393678
35	0xbe7d15fc	-0.24715418
36	0xbdd1b6c0	-0.10239935
37	0x3e24bdb2	0.16087988
38	0x3e9b1a50	0.30293512
39	0x3e4bf5bf	0.19917963
40	0x3df3535b	0.11881133
41	0xbdd51c66	-0.10405807
42	0x3e001196	0.12506709
43	0xbe4609ca	-0.19339672
44	0xbb8379c1	-0.004012317
45	0xbd57e52c	-0.05270879
46	0x3e0a2807	0.13491832
47	0xbdda6558	-0.10663861
48	0xbe12c64e	-0.1433346
49	0xbca79c4f	-0.020460276
50	0x3e9d644c	0.30740583
51	0xbe9a0544	-0.30082142
52	0x3d659bb2	0.056056686
53	0xbefac0da	-0.4897526
54	0x3f071395	0.52764255
55	0x3ea321ff	0.31861874
56	0xbe131907	-0.14365016
57	0xbeacf06f	-0.33777186
58	0x3e16e44f	0.1473553
59	0x3e9a86ea	0.30181056
60	0xbdb1090b	-0.08644303
61	0xbdb94686	-0.090466544
62	0xbdbe745e	-0.09299539
63	0x3d92e85e	0.07173227
64	0x3d3d4529	0.046208534
65	0xbeeeadcf	-0.4661698
66	0xbd5aea90	-0.053446352
67	0xbe7a951a	-0.2447094
68	0xbe312f9d	-0.1730332
69	0xbd8d3e6d	-0.068966724
70	0xbdc27e49	-0.09496743
71	0x3da79367	0.08182412
72	0x3d878d94	0.06618801
73	0x3e6586b2	0.22414663
74	0x3de46081	0.11151219
75	0xbdb16857	-0.08662479
76	0xbf488f90	-0.7834406
77	0xbd60dd5e	-0.054898612
78	0xbeeb579c	-0.45965278
79	0x3ec2541e	0.379548
80	0xbe4d833e	-0.20069596
81	0xbe3128af	-0.17300676
82	0x3d88dfc5	0.06683306
83	0xbe262ae8	-0.16227305
84	0x3dbcf786	0.09226899
85	0x3dd3736b	0.103247486
86	0x3e836371	0.25661805
87	0x3b64dddc	0.0034922278
88	0xbe228e4e	-0.15874597
89	0xbdac95d1	-0.08427013
90	0x3d220491	0.039555136
91	0x3e8d8a21	0.27644446
92	0xbd654102	-0.0559702
93	0xbd5a1f5c	-0.053252563
94	0x3ef4963f	0.4777088
95	0x3e0ef182	0.13959315
96	0xbad35d70	-0.0016125869
97	0x3d3baedf	0.045821067
98	0x3dff1823	0.124557756
99	0x3d8476f4	0.06468001
100	0x3d8d09c6	0.0688663
101	0xbe05d96c	-0.13071221
102	0xbe2b0093	-0.16699438
103	0xbdf2b1f6	-0.118503496
104	0xbe618cb7	-0.22026335
105	0x3de81482	0.113320366
106	0xbe29388c	-0.16525477
107	0xbc8f2593	-0.017473971
108	0xbd8cdb32	-0.06877746
109	0x3d899416	0.06717698
110	0x3d80577c	0.06266686
111	0xbeca3cad	-0.39499417
112	0x3dd3d845	0.103439845
113	0xbe227409	-0.15864576
114	0xbe006cdf	-0.12541531
115	0xbc672f17	-0.014110348
116	0xbea84529	-0.32865265
117	0xbdf29288	-0.11844355
118	0xbd731fb7	-0.059356418
119	0x3d8dc24e	0.06921826
120	0xbd8848fe	-0.06654547
121	0x3e28bf55	0.16479237
122	0x3d49877d	0.049201477
123	0xbd0ec93d	-0.034859885
124	0x3ec7ace4	0.38999093
125	0xbd983848	-0.0743261
126	0x3dce5118	0.10074061
127	0xbe2bf9b1	-0.16794468
128	0xbcade94e	-0.021229412
129	0xbe6e1f10	-0.23254037
130	0x3c484b87	0.012225038
131	0xbe29cc1a	-0.16581765
132	0x38390b58	4.4118002e-05
133	0xbd062abe	-0.032755606
134	0x3e16580a	0.14682022
135	0xbd15c407	-0.0365639
136	0xbe85ed3e	-0.26157564
137	0xbc8889ad	-0.016667211
138	0x3e4aaa0d	0.19791432
139	0xbe97a806	-0.2962038
140	0x3e44e575	0.19228156
141	0x3e58fd63	0.2119041
142	0xbcbe64f1	-0.023241492
143	0xbc808131	-0.015686603
144	0x3d20db60	0.039271712
145	0x3d48d185	0.04902794
146	0x3ea1962e	0.3155989
147	0xbd9cf7d2	-0.076644555
148	0x3e27d0cc	0.16388243
149	0x3d105261	0.035234813
150	0x3cf04efc	0.029334538
151	0x3e874494	0.26419508
152	0xbdf01358	-0.117224395
153	0xbdcd8c3d	-0.10036514
154	0x3e3501cc	0.17676467
155	0xbde31e68	-0.11089784
156	0xbe2591d8	-0.16168916
157	0x3eb6900d	0.35656777
158	0x3dc47d8c	0.09594259
159	0xbd8d68a0	-0.06904721
160	0xbebe2726	-0.37139243
161	0xbd1468d8	-0.0362328
162	0x3e541187	0.20709811
163	0x3e236cd6	0.15959486
164	0x3de37658	0.11106557
165	0xbe396640	-0.18105412
166	0x3e7c4734	0.24636537
167	0x3e9838f3	0.2973095
168	0x3dd63497	0.104592495
169	0xbe08884d	-0.13333245
170	0x3d209c6e	0.039211683
171	0x3e5600ed	0.2089879
172	0xbeb66c75	-0.3562962
173	0xbe497fc8	-0.19677651
174	0xbf9652f8	-1.174407
175	0x3e1d287b	0.15347473
176	0x3e260403	0.16212468
177	0x3df6c2a2	0.12048842
178	0xbe11b703	-0.1422997
179	0x3e30b6f6	0.17257294
180	0xbdc024d8	-0.093820274
181	0x3bce6cc6	0.006299588
182	0x3e87e3d4	0.26541007
183	0x3f04c113	0.5185711
184	0x3de12b09	0.109945364
185	0x3e31c9a4	0.17362076
186	0xbedd5800	-0.432312
187	0x3e55a7b9	0.20864762
188	0xbeff9344	-0.49917042
189	0xbd388a27	-0.045053627
190	0x3d1fd073	0.039017152
191	0xbd8e55ba	-0.06949945
192	0x3de0ce12	0.10976805
193	0xbe51c08f	-0.20483612
194	0x3e0e7aa1	0.13913967
195	0xbdd5480b	-0.10414132
196	0x3f03ed11	0.5153361
197	0x3e5b56ae	0.21419784
198	0xbd4446d6	-0.047919117
199	0x3dac9232	0.08426322
200	0x3d0438a4	0.03228058
201	0x3eb0852b	0.344766
202	0xbd8b851e	-0.068124995
203	0x3f03a281	0.51419836
204	0xbec629dc	-0.3870381
205	0xbdbe1aad	-0.09282432
206	0xbdcb3518	-0.09922236
207	0x3e5200b1	0.20508076
208	0x3e7d9492	0.24763706
209	0x3d49b874	0.049248174
210	0x3e87bdda	0.26512033
211	0x3e562e27	0.20916043
212	0x3b38aadc	0.0028178012
213	0x3c9eecd4	0.019400038
214	0xbe62c33e	-0.22144791
215	0x3db6c178	0.0892362
216	0x3dfbbdf8	0.12292093
217	0x3e245183	0.16046719
218	0xbd8d2593	-0.06891932
219	0xbdd9111f	-0.10598969
220	0x3e07c8cf	0.13260196
221	0xbd6b5422	-0.057453282
222	0x3daca66b	0.08430179
223	0x3e205514	0.15657455
224	0x3e262181	0.16223718
225	0xbe19efa1	-0.15032817
226	0x3e0f69fe	0.14005277
227	0xbe8f2bb0	-0.27963018
228	0x3d939f19	0.0720808
229	0xbe74d2b9	-0.2390851
230	0x3e29835e	0.16554019
231	0x3e89b612	0.2689672
232	0x3e3f664e	0.1869137
233	0xbdc4a354	-0.09601465
234	0xbd800f37	-0.06252902
235	0x3dadad86	0.084803626
236	0x3ca192f8	0.0197234
237	0x3d5e5180	0.054276943
238	0x3e92fdb2	0.2870918
239	0xbe952986	-0.29133242
240	0xbeea5ec3	-0.45775422
241	0x3e0d572c	0.13802785
242	0x3dbdf0e1	0.0927446
243	0xbe07d928	-0.13266432
244	0xbd891b5a	-0.0669467
245	0x3e2a406d	0.16626139
246	0xbe4c3803	-0.19943242
247	0x3d0fc867	0.035103228
248	0x3e2910dd	0.16510339
249	0x3ecaee48	0.3963492
250	0x3cf64f07	0.03006698
251	0x3e7865ad	0.24257536
252	0x3d19458e	0.03741985
253	0xbd104dfe	-0.03523063
254	0x3cfa4411	0.030550035
255	0x3d384725	0.044989724

2.bias f4 [64]
0	0xc0167eba	-2.3514848
1	0x400bec7f	2.1863096
2	0x400b934c	2.1808653
3	0xc0291a6c	-2.6422377
4	0x3ffe6d77	1.9877156
5	0x3ffde6e0	1.9836082
6	0x3f700072	0.9375068
7	0x40179440	2.3684235
8	0xc018b043	-2.3857582
9	0xc0195c27	-2.3962495
10	0xc00e0427	-2.2190034
11	0xc01f6fc2	-2.4911962
12	0xc01cadae	-2.4481006
13	0x400b2b46	2.1745162
14	0xc01564f5	-2.334287
15	0x3ff853fd	1.9400631
16	0x3f859ec0	1.0439072
17	0x400124ca	2.0178704
18	0x400d5897	2.208532
19	0x400d65da	2.2093415
20	0xc01f3387	-2.48752
21	0x3fa8b3e5	1.31799
22	0x4002fee0	2.0468063
23	0x400bd232	2.1847043
24	0x40027dca	2.0389276
25	0xc0061eb7	-2.0956247
26	0x400d740c	2.210208
27	0x40052e5c	2.0809546
28	0x400303fa	2.0471177
29	0xc01dcea0	-2.4657364
30	0xbf63fc0e	-0.8905648
31	0x4008cf36	2.1376472
32	0xc012b7a8	-2.2924595
33	0xc0112d4e	-2.2683902
34	0x3f9e7742	1.2380145
35	0xc00d3e42	-2.206925
36	0xc0171d58	-2.361166
37	0xc00690ce	-2.1025882
38	0x3ff853c4	1.9400563
39	0x400c36bb	2.1908405
40	0x40016768	2.0219364
41	0x3f5aed74	0.85518575
42	0x4011e812	2.2797894
43	0xc014cc25	-2.32496
44	0xc0131fbd	-2.2988122
45	0x4004784e	2.0698428
46	0xc00c1743	-2.1889198
47	0x40064580	2.097992
48	0x4000408d	2.0039399
49	0xbf73c45e	-0.9522151
50	0x40146738	2.3188
51	0x400142ba	2.0196977
52	0x3fbda88b	1.481706
53	0x4005ac06	2.0886245
54	0xc004a8a4	-2.072793
55	0x40029641	2.0404208
56	0xc017899c	-2.367774
57	0xc0112c1d	-2.2683175
58	0xc01e7197	-2.475683
59	0x40094740	2.1449738
60	0xc0118dac	-2.274272
61	0x401404e6	2.312799
62	0x401004d0	2.2502937
63	0x4024dfe2	2.5761647

4.weight f4 [1, 64]
0	0x3e3fd07a	0.18731871
1	0xbdf24d6b	-0.118311726
2	0xbdc1c064	-0.09460524
3	0x3ea87ba5	0.32906833
4	0xbde76b9c	-0.11299822
5	0xbda10807	-0.07862859
6	0xbde1e849	-0.11030633
7	0xbddf41bd	-0.109012105
8	0x3dd7f05a	0.1054389
9	0x3dee728a	0.1164294
10	0x3de8baf2	0.11363782
11	0x3da3dd49	0.08001191
12	0x3e4d5231	0.20050885
13	0xbdc7690a	-0.097368315
14	0x3e0ba99f	0.13638924
15	0xbdaab3c3	-0.08335068
16	0xbdd5f361	-0.104468115
17	0xbda0cf12	-0.078519955
18	0xbd91f7a8	-0.07127315
19	0xbdf5d74e	-0.12003957
20	0x3e2f017d	0.17090411
21	0xbe1653f9	-0.1468047
22	0xbd82b98f	-0.06383049
23	0xbdce2da1	-0.10067297
24	0xbdb0b712	-0.08628668
25	0x3e14984d	0.14511223
26	0xbde62bfe	-0.112388596
27	0xbda98262	-0.08276822
28	0xbd88586f	-0.06657492
29	0x3dd18665	0.10230712
30	0x3e1aeeab	0.15130107
31	0xbdb87f57	-0.09008663
32	0x3e023957	0.12717186
33	0x3de80288	0.11328608
34	0xbdb0acfa	-0.08626743
35	0x3dc88f94	0.0979301
36	0x3dd2d02f	0.10293614
37	0x3de20e4e	0.11037885
38	0xbd900c9d	-0.07033656
39	0xbe07a101	-0.13245012
40	0xbd748a50	-0.059702218
41	0xbdedc1e1	-0.11609245
42	0xbdb8dd9d	-0.090266444
43	0x3e332486	0.17494401
44	0x3df15291	0.117833264
45	0xbdac0cc6	-0.08400874
46	0x3db06014	0.086120754
47	0xbddc8936	-0.107683584
48	0xbe2ba3d1	-0.1676171
49	0x3dd21517	0.10257929
50	0xbdd67f44	-0.10473493
51	0xbdb4501a	-0.08804341
52	0xbe00e6e1	-0.12588073
53	0xbdba9947	-0.091112666
54	0x3e1f7657	0.15572487
55	0xbdde08a0	-0.10841489
56	0x3dc68778	0.09693807
57	0x3e18ed66	0.1493431
58	0x3e5677da	0.20944157
59	0xbdc294a9	-0.09501011
60	0x3dc3c066	0.095581815
61	0xbe13a6e2	-0.1441913
62	0xbe26bb98	-0.16282499
63	0xbd92a974	-0.07161227
