Dcnn_8.ckpt (torch_old, 55427 bytes, 19 tensors)

layer1.0.weight f4 [8, 1, 5, 5]
00000000: 68a0 5ebc 6b39 543c cbf5 9ebc 57e7 37bd
00000010: 30cb 413d 4bb9 b23c 9fb6 933c d528 0b3d
00000020: 8e2e 4fbd 3c3f 9c3c b36d e53c 65d1 c23d
00000030: 63de c0be 3988 56bd cec9 153e 98f3 46bd
00000040: 36d8 9bbe 0fdb b43d 5621 923e ca0a 0bbd
00000050: e20f bf3b 461d 023d c447 893c 00b1 b83d
00000060: 574f 0cbd 2ae5 99bb b4b7 6ebb 7061 113c
00000070: bf7f 09bc 5068 6e3c 2cb8 c13c e07b bbbb
00000080: 6e51 36bd f08d 8d3c 385b 063b 4d1e 04bd
00000090: 88b1 29bc 9799 c3bf ecd7 37bd 0a5a 193b
000000a0: e14e 1d3d 5b1a 55bd 0e96 0cbc 33f3 7fbc
000000b0: b286 8b3c 6bc9 ec3b 67fc f63c 9cb4 d5bc
000000c0: e785 d93c 8c87 6fbc 66e4 10bd 603c 923d
000000d0: 5436 60bb e3ce 87bd c039 1f3d 6f79 313e
000000e0: ccb1 bbbc 8a27 a23e 536d 6d3e 9a3d 563d
000000f0: 426b fdbd 852b c33e 05ef 4f3e 7d28 d03e
00000100: 1c5f c5bd 5159 cf3d b273 573d cac1 933e
00000110: fac3 e6bb 44d4 49bb 87bb 01bd c217 e83d
00000120: 9b74 313d 607b b13d 573e 66bd c470 333e
00000130: b1ea 853d b964 a93d c6ce ae3d 59da e5bd
00000140: f915 3fbc 2215 053e 1567 73bc d9b4 6abc
00000150: 7449 f03d 8654 84bc 47cf 893e f703 a13d
00000160: 5546 4ebe a7b0 ed3c 8db5 d83e 9b50 ad3e
00000170: f267 bd3d 9bfd de3d 765d 68bd f8c2 333d
00000180: 6b17 153d 5483 313e 3527 893e 45ff 2cbd
00000190: 43a1 923c c066 8abd a9ea 183e 1ba4 10be
000001a0: 45ad 80bc 3338 d8bc daf3 883d 2bb6 cd3d
000001b0: ab20 993d d9fe fbbd ee72 a4bd cbfe 17be
000001c0: 833c 983e d661 cf3d a688 ad3b 1991 45bc
000001d0: 837f 26be 5fdb 7fbe c74f 8b3e 135e 31bc
000001e0: 915c 123d eb7b 8a3c 9a55 46bd 0335 f0bd
000001f0: 259a a13d 3661 b7bd 5f4b df3d 2c37 923d
00000200: 7697 673d bde1 4d3e bede 6dbd 0cfe 2c3c
00000210: 831e 543e f91c 913e 0533 343d bf96 4fbe
00000220: c9b7 153c 3fa1 edbd 9040 58be df1f 7abe
00000230: a166 67bc 9e78 febd 5e6f 82be 041e 39be
00000240: 8e13 06bc 4626 883c 97b9 0cbc 05fb 9b3d
00000250: 8678 f73c 162f 033c 6b0e c13c bb24 793c
00000260: 7509 9b3c 2aef 90bb 8f22 503a 08ae 76bc
00000270: e841 4bbd eb40 7a3d 572c be3b 4c95 abbd
00000280: 3f41 023b edf3 f3bd 3e6e 8e3c 513b 27be
00000290: e2e5 da3d 4079 213a 2857 c4bd a312 a83b
000002a0: b17f cd3e ede5 a3bd c50c f1b8 f4c2 adbe
000002b0: 6e44 21bf 6fb1 d1be f028 9bbd 1fe5 893a
000002c0: b408 dbba b76c 83bc e272 0e3d 4ce8 c33b
000002d0: 8af1 ab3a a931 bdbd 4389 dcbc 5ccb 28bd
000002e0: 0328 73bd c7c4 b63a 0318 e6bc 7574 d33d
000002f0: 599a 5bbf 227d 98bc c0e4 0dbd 5aa0 68bf
00000300: 6721 86bc 47db 21bd ec8e 8cbb 2236 5abd
00000310: b0c7 cdbb 71bd 593b 4abc f5bc a605 633c
-0.0135880485 0.012953143 -0.019404313 -0.044898357 0.047312915 0.02181687 0.018031416 0.033974487
-0.050581507 0.019073121 0.02800641 0.09512595 -0.37669668 -0.052376006 0.14627764 -0.048572153
-0.30438393 0.088308446 0.28541058 -0.033945836 0.005830751 0.0317662 0.016757853 0.09018135
-0.034255352 -0.004696508 -0.0036425414 0.008873329 -0.008392273 0.014551237 0.02364739 -0.005721554
-0.04451125 0.017279595 0.0020501148 -0.03225546 -0.010357268 -1.5281247 -0.044883654 0.0023399615
0.038405303 -0.052027088 -0.008580698 -0.015621948 0.017032001 0.0072261593 0.030149652 -0.026087098
0.026553107 -0.014619719 -0.035374068 0.07140422 -0.003421207 -0.066312574 0.038873434 0.1733148
-0.022911929 0.3167079 0.23186235 0.05230484 -0.123739734 0.3811914 0.20306022 0.4065589
-0.09637281 0.10124458 0.05260057 0.28858787 -0.007042405 -0.0030796686 -0.03167298 0.113326564
0.043324094 0.0866611 -0.056211796 0.17523485 0.065389045 0.082711644 0.08535533 -0.11223287
-0.0116629535 0.12996343 -0.01485612 -0.014325344 0.1173276 -0.016153585 0.26915953 0.07862084
-0.20144017 0.029014898 0.42326012 0.3385056 0.092483416 0.10888215 -0.056729756 0.04388711
0.036399286 0.17335254 0.26787725 -0.04223563 0.017899161 -0.06757879 0.14933266 -0.14125101
-0.015707621 -0.026393985 0.06687136 0.100445114 0.07476934 -0.12304468 -0.080297336 -0.1484329
0.29733667 0.101260826 0.005295831 -0.01205852 -0.1625958 -0.24986027 0.27209303 -0.010825652
0.03573281 0.016904792 -0.04842148 -0.11728861 0.07890729 -0.089540884 0.10903048 0.071394295
0.05654093 0.20105644 -0.05807375 0.010558616 0.20714764 0.28342417 0.04399397 -0.20272349
0.009138056 -0.11603021 -0.21118379 -0.2442622 -0.01412359 -0.1242535 -0.2547559 -0.18077856
-0.008183373 0.016619813 -0.00858917 0.076162376 0.030208837 0.008006832 0.023566445 0.015206511
0.018925408 -0.004423042 0.000793972 -0.015056141 -0.0496234 0.061097067 0.0058036256 -0.083780855
0.0019875315 -0.119117595 0.017386552 -0.16331221 0.10688378 0.000615973 -0.09586936 0.005129175
0.40136483 -0.08002839 -0.00011494154 -0.339378 -0.6299504 -0.40955684 -0.075761676 0.0010520554
-0.0016710968 -0.01604305 0.03477753 0.0059786197 0.0013118249 -0.092379875 -0.02692092 -0.041209564
-0.05936433 0.0013944142 -0.028087622 0.10324947 -0.8578239 -0.018614355 -0.03464198 -0.9086968
-0.01637335 -0.03951576 -0.0042894986 -0.05327428 -0.006279908 0.0033224488 -0.02999701 0.013856327

layer1.0.bias f4 [8]
00000000: 1410 f73c 177e c7bb 44c5 e03d f5fb 123e
00000010: ce21 2c3e 564d 2f3d 28ed eb3d 3a5e 9b3c
0.030159034 -0.006088029 0.109751254 0.14353926 0.1680977 0.042798363 0.11519843 0.01896583

layer1.1.weight f4 [8]
00000000: 49a1 0d3e a182 623f bf63 ea3e 3f35 4c3e
00000010: 3686 e03d 6ad0 7b3e d18c f93e 2356 4e3f
0.13831057 0.88480574 0.45779225 0.19942187 0.10963099 0.24591222 0.48740247 0.80600184

layer1.1.bias f4 [8]
00000000: b588 b2bc 9e52 bfbe d0a6 87be ad11 4a3e
00000010: c6ab fbbc a1d5 84bd e81d 92be 46b0 acbe
-0.021793703 -0.3736772 -0.26494455 0.19733305 -0.030721556 -0.06486059 -0.28538442 -0.33728236

layer1.1.running_mean f4 [8]
00000000: 1e85 603d 07b2 793f 4dc3 96bf b09d 8dbf
00000010: 0456 243e e1a4 8e3e 7538 793f ecd0 a33f
0.05481445 0.97537273 -1.1778351 -1.1063747 0.16048437 0.27860168 0.9735177 1.2798133

layer1.1.running_var f4 [8]
00000000: 78bf ae3d 1390 9f3f e743 b43f 4d72 8e3f
00000010: 379a 653d eade 883e 6bd4 313f 4726 b13f
0.085326135 1.2465843 1.4083222 1.1128632 0.056055274 0.2673257 0.6946475 1.3839806

layer2.0.weight f4 [16, 8, 5, 5]
00000000: 46ee 55be f213 c9bd d47a 9fbd 4078 53bd
00000010: 10d4 74bd a4f7 07be 61a9 efbd 4643 723d
00000020: aa18 15bd ecdb b0bd debb 53bd 6183 ea3b
00000030: 86e4 d9bd 65df 24bd fd5e 07be c61d 1fbd
00000040: 6878 2c3d d2b9 a93c f09c 383c b292 b5bd
00000050: 68a7 00be 99f8 e8bc 8f72 af3c bcd2 03be
00000060: 705b 06be b715 cc3d 9bb9 543e 4db7 043e
00000070: 1420 33be c95b 69bd d7b7 563d 59a0 18be
00000080: c8a3 093c 6cf9 28be 0ece 41be f27e 5b3e
00000090: fbbb 833c 3818 86be b631 f0bd 2cb7 1a3d
000000a0: 88de 89bd 6364 85bc aa5f 61be 53a0 f5bd
000000b0: 0a71 bb3c 9965 ebbd 4ecd 25be 4b42 b7bd
000000c0: af07 a0bd 1988 c4bd 67b7 60bd f0fa ccbc
000000d0: 47d4 023d ef4c 223d 32e2 19bd 8b33 92bc
000000e0: 8049 8ebc a93a c23d e7c5 80bc ab30 583d
000000f0: 8d0b 2a3d 26b4 4f3c 8eb9 2d3c c773 d73c
00000100: 1958 9dbc aa22 7ebc 55fb 873c ba16 36bd
00000110: 7c0a b63b 71db 28bd 548b 44bc 5c55 fbbc
00000120: f449 163d 7108 e7bc cdc5 3e3c f3c1 72be
00000130: c4b1 24be 1967 d1bd 0a45 52be d602 1cbe
00000140: fa7b d6bd f05f 3fbc 75c7 463d 5dbc 24bb
00000150: 56c9 9fbc 8f02 e8bd d078 983c 8e48 f83c
00000160: 88aa 25be c35a a5bd da71 09be 7246 253d
00000170: c8c5 19be a597 63bb 5302 dcbd a3f9 1fbe
00000180: 1235 3ebd bfb7 b9bd 9554 eebd 1c05 ffbd
00000190: f8af 01bd e684 153b 2a7e 38bc 74ae 8e3d
000001a0: 6864 a73b 5bd5 ee3d a642 ddbc 7363 77bc
000001b0: 3ee8 a63d c4cd c0bd 3d63 3e3c 2b8c 4bbc
000001c0: 40a4 013d 0152 a23d ecab 37be 50c8 38bd
000001d0: 63ed 00bd a59e 58bb 5323 893d 0923 6b3d
000001e0: 2fd5 603c e30f cdbc 6edf d53d f381 d1ba
000001f0: c7b8 b6bc 8fee e9bc 0fae 74bd aa88 98bc
00000200: 1678 bcbc ab4a 6bbc efd5 813d 095d 083e
00000210: db72 7ebc 213d d43c 3f98 4c3d f2bf b33c
00000220: f121 2b3d cafe c0bd 0652 d33c d1d9 53bd
00000230: fa95 8abd bb23 81bd 6e74 9dbd f264 bcbc
00000240: 4fc3 01bd 816e 86bd a832 ee3c 71a5 d03d
00000250: c2dc d23d f037 c4ba 7300 cdbd f016 7cbd
00000260: e51a ff3a d93f 7cbe 7a8a cabd c1ca 01be
00000270: 0f38 a63d c604 963d 24a7 cabb 3d30 babc
00000280: 57b4 b23d 5113 d53d 3b8d 553e e24e 713e
00000290: f4fc 113e 471c f33d 0924 cb3c 10a4 a4bd
000002a0: e201 aabd 125b fdbc 251c 783d 8796 59bd
000002b0: 227c e9bd ebb8 9bbc 2e14 16bd f71e bcbd
000002c0: d884 633e d198 393d cb31 053e 94cf 203d
000002d0: da40 d5bd 5766 0e3c 3b38 ec3c 6853 8abc
000002e0: 9654 3fbc 39b6 8a39 8401 0b3b ecce a43d
000002f0: b1db 153e cef4 18bb 9dc8 27be 63a0 343e
00000300: b750 d03d 1c3d 533e 3295 8fbd 2dea b3bd
00000310: 4c04 f2bc c903 b13c 7db2 4fbd 72a8 f93c
00000320: 7f24 e2bc c47a c93d 4960 053d 6351 863d
00000330: 5d09 b53d 1752 61bd cd14 bfbc 26a6 0c3d
00000340: aa77 883d 1922 1a3e ce16 293d 00b8 033c
00000350: eae2 5f3d 60a1 b33d 195a b93d a660 2d3d
00000360: 0a2e 823d 2b38 ad3d f774 1b3d 5626 fb3d
00000370: 6b90 71bd 423c 153d 33bf ecbd e6ca d7bc
00000380: fdc3 60bd 1c1b 05bd 3049 053e db89 2b3b
00000390: 32fa 50be f210 4e3d f2e6 433d bc65 1abe
000003a0: 55be 8abe 64f6 c4bd 888f ebbd 8adf 453d
000003b0: f458 5ebe 2c29 623d de3c 0bbe ccf6 373d
000003c0: b60d c1bd cbcb 2ebe ffb2 173d 443f 6a3d
000003d0: 3903 60be 9741 b03c 78aa 47bc 831a 2cbe
000003e0: bbbe 6ebd 77f3 0fbe 37dc 78bb b48e dcbc
000003f0: 0667 bdbc a93b 0bbd bf12 4f3c 7d62 dd3d
-0.20891675 -0.098182574 -0.077870995 -0.05162835 -0.05977255 -0.13278061 -0.11702228 0.05914619
-0.036400475 -0.08635697 -0.051692836 0.007156775 -0.106392905 -0.040252108 -0.13219829 -0.038846754
0.042107016 0.020718489 0.011267886 -0.088658705 -0.1256386 -0.028438853 0.02141693 -0.12873358
-0.13120818 0.09965079 0.20773928 0.12960549 -0.17492706 -0.0569723 0.052421417 -0.14904918
0.008400865 -0.16501397 -0.1892626 0.21435145 0.016080847 -0.26190352 -0.117282316 0.037772343
-0.067318976 -0.01628322 -0.22009149 -0.1199347 0.02288105 -0.114939876 -0.16191599 -0.08948191
-0.078139655 -0.09596271 -0.054862406 -0.025022 0.031940725 0.03962415 -0.037569232 -0.017846843
-0.017369032 0.09483845 -0.015719367 0.05278079 0.041514922 0.012677228 0.010603322 0.026300324
-0.019207047 -0.015511194 0.016599337 -0.044455267 0.005555449 -0.0412249 -0.011996109 -0.030680351
0.03669162 -0.028202267 0.011643839 -0.23706798 -0.16083437 -0.102247424 -0.20534149 -0.15235457
-0.104728654 -0.011680588 0.04853006 -0.0025136687 -0.019505184 -0.11328613 0.018612295 0.030308034
-0.16178334 -0.08073952 -0.13422337 0.040350385 -0.15016854 -0.0034727838 -0.10742631 -0.15622573
-0.04643733 -0.0906825 -0.116372265 -0.124521464 -0.031661958 0.002281481 -0.011260549 0.06966868
0.005108405 0.11661788 -0.02700932 -0.015099394 0.081497654 -0.09414247 0.01162034 -0.012423555
0.03165078 0.07925797 -0.17936677 -0.045112908 -0.03147639 -0.0033053544 0.06696191 0.05740646
0.013722702 -0.02503199 0.104430065 -0.0015984162 -0.022304906 -0.028556136 -0.059736308 -0.018619854
-0.02300648 -0.014361064 0.06339633 0.1331674 -0.015530313 0.025908055 0.04994988 0.021942113
0.041780416 -0.09423597 0.025795948 -0.051721398 -0.06766887 -0.06305643 -0.07688223 -0.022997353
-0.0316804 -0.06564046 0.02907689 0.101878054 0.102960125 -0.0014970284 -0.10009851 -0.061545312
0.0019462971 -0.24633731 -0.098896936 -0.12675 0.08116161 0.07325129 -0.0061844755 -0.02272808
0.08725803 0.10404075 0.20854656 0.23565248 0.1425665 0.11870628 0.024797456 -0.08039105
-0.0830114 -0.030927215 0.060573716 -0.05312207 -0.114006296 -0.019009074 -0.03664034 -0.091855936
0.22218645 0.045311753 0.13007276 0.039260462 -0.1041276 0.008691392 0.028835407 -0.016885474
-0.011677882 0.00026457178 0.002121062 0.0804728 0.14634587 -0.0023339274 -0.16385122 0.17639308
0.10171645 0.2062878 -0.070108786 -0.087849 -0.029543065 0.02160825 -0.05070733 0.030475829
-0.027605293 0.09837869 0.032562528 0.06558492 0.088396765 -0.055009928 -0.023325348 0.03433814
0.06663449 0.1505207 0.041281514 0.0080394745 0.05465976 0.08771014 0.09050388 0.0423285
0.063564375 0.08457979 0.037953343 0.122631714 -0.05897562 0.03643442 -0.11559906 -0.026341867
-0.05487441 -0.032496557 0.130162 0.0026174698 -0.20407942 0.05030913 0.04782767 -0.15077871
-0.27098337 -0.09617308 -0.11501986 0.048308887 -0.2171362 0.055215046 -0.13597438 0.0449131
-0.09426443 -0.17069928 0.03703594 0.05718924 -0.2187623 0.02151565 -0.012186639 -0.16806988
-0.058287363 -0.14057718 -0.0037973055 -0.026923515 -0.023120414 -0.033992443 0.012638747 0.10809801

layer2.0.bias f4 [16]
00000000: b20a 453d bcaf eebb ee6a 36bd 66a8 003e
00000010: 3d50 4b3d d31a 803b 7806 01be b8fb 603b
00000020: ffb5 ad3d 7cba 153d ccfe 63bd b085 543d
00000030: a692 323b 88f5 b93d 111f 69be 1016 d4bd
0.048105903 -0.0072841328 -0.04453557 0.12564239 0.049637068 0.0039094477 -0.12600124 0.0034329724
0.084819786 0.0365548 -0.055662915 0.051885307 0.0027248054 0.090800345 -0.22765757 -0.103557706

layer2.1.weight f4 [16]
00000000: 6c77 633f da71 143f 66ba 273f 66fe ae3e
00000010: f16a 8a3e 1118 df3e 2b89 b73e 8db2 923e
00000020: 9bce 143f 9b0d 013f bd39 763e 3cd7 133f
00000030: bea1 b03e 5d65 bc3e 3289 333f d17c 0c3f
0.888541 0.57986224 0.65518796 0.34178466 0.27034715 0.4357305 0.35846838 0.28651848
0.58127755 0.50411385 0.24045463 0.57750297 0.344984 0.36796084 0.7013122 0.54877955

layer2.1.bias f4 [16]
00000000: ba61 7dbe 7fd9 813d 2b0d e8be 1f6b 043f
00000010: 3490 933e 4101 b9bd 905f 6e3f c63f e93e
00000020: 3ee4 a8be c0e1 4e3e 88a5 d83e 16f7 003d
00000030: dffc 1a3e 9d5c 4dbe 206d 0fbe 4378 0ebf
-0.24744311 0.06340312 -0.45322546 0.51725954 0.28820956 -0.09033442 0.93114567 0.45556468
-0.32986635 0.20203304 0.4231379 0.03148564 0.15135525 -0.2005486 -0.14006472 -0.55652255

layer2.1.running_mean f4 [16]
00000000: 456c 48bf 4b9e 9dbe f707 d9bd 7502 043f
00000010: 4beb 57be 5af8 3f3e 0fb8 edbe 7129 b5bd
00000020: 7658 f4bc d694 fcbe 00bb 763e cd26 95be
00000030: f4eb 433e b39e debd 8048 a33e 12bc e0be
-0.78290206 -0.3078483 -0.10597222 0.5156625 -0.21085851 0.18747082 -0.46429488 -0.08845795
-0.029827338 -0.49332303 0.24094772 -0.29131165 0.19132978 -0.10870113 0.3189125 -0.43893486

layer2.1.running_var f4 [16]
00000000: dd47 943d b867 123d ce10 0b3d 6506 f43c
00000010: 2acd 243c b956 263d 1ff2 483b 1275 213b
00000020: dc9d 503d a0d5 0b3c 9c2d 883c b5e2 903d
00000030: bca1 823c 39eb 753c 23e2 133d 82f0 8d3c
0.07240269 0.035743445 0.033951573 0.029788205 0.010058681 0.04061005 0.0030661894 0.002463643
0.050931796 0.008534819 0.01662331 0.07074491 0.015946262 0.015009695 0.036104333 0.017326597

layer3.0.weight f4 [64, 16, 3, 3]
00000000: aea9 293d 6275 e5bd 9f93 ef3c cec9 9cbd
00000010: 9acb 3e3c 4aaa 8c3d 2685 ef3d e920 ac3d
00000020: 12d7 a73b d9af a93b a2fd 833b 722d 3b3d
00000030: a454 b23c 02ee c4bc 7153 0fbe 5157 4abd
00000040: 2934 cf3c 7486 a3bc baa8 cd3c c459 093e
00000050: 39af 033e 44d7 9fba 5da5 cd3d 107d 393e
00000060: 5ece 95bd 385c 543d daf5 6d3e ff55 123e
00000070: 3477 6a3d 64f4 763e 53f5 00be 260a 0cbe
00000080: d824 1fbe ff05 e9bd b394 10bd aff6 01be
00000090: 198e 353d 557b 35bd 0b38 1bbe 0984 41bd
000000a0: 0d21 dabd 2b0b 12be 6198 2bbd 59f8 1bbc
000000b0: f4b6 4b3d d451 47bd 0c7a 9e3c 7c6f 2d3e
000000c0: ab9f b93d b4e4 35be edfa 9cbd 6fde 8a3c
000000d0: 20fb 753d 7ef4 8bbd b7fc c2bc 88a6 103d
000000e0: 4bcb b539 1475 0e3d 0fe0 283d 2e33 a43c
000000f0: f99e 0a3d cce6 fabc cfd7 a0bc 17c4 433d
00000100: d9fc 1a3d 472f 593d 8c5c b03b da95 103d
00000110: 6546 963d e5c8 963d 65e8 c13d 9792 1b3e
00000120: f5c1 963d ee43 d9bd 6a50 3d3d f6fd f53d
00000130: a432 a5bd f892 9b3c 54b4 d8bd dc02 733c
00000140: 1466 133e f90f 143b b886 44bb 6f44 07bb
00000150: 047c 803d 706e 5ebc 9889 9fbb 09ce acbd
00000160: 07a9 4ebd 6867 27be ed6e d83c 12ba 603b
00000170: 3f1a 243c 8026 aa3b 08cb d23c 5068 da3c
00000180: 2346 bfbd a50e 60ba 7a50 883e 508f dbbd
00000190: 6c90 fe3d d5eb 0f3e 95e0 10bd e2a3 b83d
000001a0: 5c64 073e 9fdb a73d 2774 133e 7fd4 d83d
000001b0: 62f1 47bd 5325 ecbb 3c51 e23c 074c d53c
000001c0: 324c b43c 8b72 223d ace0 9e3d bbaf 853c
000001d0: 4f6e 0ebe e341 81bc c5f6 c43d 5592 17be
000001e0: 36d1 103d aa67 6fbd e6e0 d3bd 76e2 b4bd
000001f0: 8fba 16bd c39a 03be 84cf 2dbc bb47 68bd
00000200: 4522 3e3d 03cb 523d 71ef c53d 4292 ad3d
00000210: dbe9 283c 2c91 0dbe 7fbb 32be fbd2 56bd
00000220: 4ec8 93bd 284d 42be 1396 a23d 6c2f 053e
00000230: 147a 1dbd 5e17 f53d 1082 b8bd a87d c4bd
00000240: 6478 93bc 5b7f 14be 74ef 25bd 58d6 a4bc
00000250: 20de 42bd 45f3 b5bd 314e 4a3d f7b1 bd3d
00000260: 1558 c8bc d804 5f3b a75b fbbc f57e c93d
00000270: a155 20bd dcb4 b4bd a096 773c 114b 23bd
00000280: 05ba 443c 540f f43c fc49 85bb 50a7 343d
00000290: 610c 26be ba6b e83d 5e88 a3bd 36bb 18be
000002a0: 07ec 22bc f749 d83c b78d 203d ac68 96bd
000002b0: 8bae 2d3c 6323 773c 0c0b 11bd 396f 92bd
000002c0: e5a5 0cbe 200b edbd 4030 0fbc 58d7 80bd
000002d0: f9fa 41bd f573 f3ba e21d 57b9 4b2b 093d
000002e0: 15d6 953d 04c3 953c 5a83 983d d92e e13d
000002f0: 1458 643d 1aa0 b5bd 99fe 84bd d2b6 433e
00000300: d5fd c9bc bcd3 34bd 1187 083e c8ed 863d
00000310: 7d79 2a3d 4c7b 123e ae8a 52bd ae11 47bd
00000320: 0c3d f2bb 474d d0bd 6e2e dabd 9899 f8bc
00000330: 008b bbbd fb1e e1bd d7df 95bd 7182 573d
00000340: a104 203d 4934 8dbc 5bd2 ea3d 4306 cb3c
00000350: 549e b73b 70ab ad3d e9dd bc3d 4f13 953c
00000360: 6f83 94bb 43b6 09be b561 60be 0291 8fbd
00000370: 5416 1abe e0b3 70be 9c2a 51be 71b4 3cbe
00000380: 9d6a 35be 37f3 8e3c 1fd1 943d c25a d23d
00000390: 0b19 a53d 540b 063e 10f3 0b3e b545 c23d
000003a0: 291f 5c3d 051f 9d3d 02ea 8dbc 1a69 7ebd
000003b0: ad5f cabd 5efc a4bd aca9 5dbe 8f30 2cbe
000003c0: 4abc febc ffcf 4dbd 5d55 44bd 7fa9 c13d
000003d0: ae92 6f3d 4226 023e 50e3 1a3e c0eb 143e
000003e0: 5564 19bd 1e0e 8b3d cd78 b13d 538b d73c
000003f0: a791 07be b10f 99bd 6639 db3b ebdd 74bc
0.041421585 -0.112040296 0.029245196 -0.07655679 0.011645222 0.068684176 0.11695318 0.084047146
0.005122074 0.0051784334 0.004028038 0.045697637 0.021768875 -0.024039272 -0.13996674 -0.049399678
0.025293427 -0.019961573 0.02510487 0.13413149 0.12859811 -0.0012194891 0.10041306 0.18114114
-0.07314752 0.05184576 0.23238316 0.14290617 0.057242587 0.24116665 -0.12593584 -0.13675746
-0.15541399 -0.11378097 -0.03529806 -0.12691759 0.044324968 -0.04430707 -0.15158097 -0.04724506
-0.10650835 -0.14262073 -0.041893367 -0.00951966 0.049735025 -0.04866202 0.019345306 0.16937059
0.090636574 -0.17763025 -0.07665048 0.016951768 0.060053945 -0.068337426 -0.023802144 0.035315067
0.00034674475 0.034779623 0.041229304 0.020043936 0.033843014 -0.03062763 -0.019634156 0.047794428
0.03783879 0.053023603 0.005382126 0.03529916 0.073376454 0.07362536 0.09468154 0.15192638
0.07361213 -0.1060866 0.046219267 0.1201133 -0.080662996 0.018990979 -0.1058127 0.014832225
0.14394408 0.0022592528 -0.0029987525 -0.0020640155 0.06273654 -0.013576135 -0.0048686974 -0.084377356
-0.050454166 -0.1634804 0.026420081 0.0034290594 0.010016023 0.005192578 0.025731578 0.026661068
-0.093395494 -0.0008547104 0.266239 -0.10720694 0.1242989 0.14054807 -0.035370428 0.09015633
0.13221878 0.08196186 0.14399777 0.105874054 -0.048814185 -0.007206598 0.027626626 0.02603723
0.022008989 0.039660018 0.077576965 0.016319146 -0.13909267 -0.015778488 0.0961738 -0.14801915
0.03535577 -0.05844847 -0.1034563 -0.088322565 -0.03679901 -0.12852006 -0.010608558 -0.056709033
0.0464194 0.05146314 0.096648104 0.08475162 0.010309662 -0.1382491 -0.17454337 -0.0524473
-0.072159395 -0.18974745 0.07938781 0.13006371 -0.0384465 0.119673476 -0.090091825 -0.095942795
-0.018001743 -0.14501707 -0.040511563 -0.020121738 -0.047575116 -0.088842906 0.049390975 0.0926246
-0.024456063 0.0034029987 -0.030683352 0.09838668 -0.039144162 -0.08823559 0.015111595 -0.03986651
0.012007241 0.029792465 -0.0040676575 0.044104874 -0.1621566 0.11348672 -0.07984994 -0.14915165
-0.009943969 0.026402457 0.03919765 -0.07344183 0.010600696 0.01508412 -0.035410926 -0.0715012
-0.13735159 -0.115743876 -0.008739531 -0.062910736 -0.047358487 -0.0018573987 -0.0002051513 0.033488553
0.073162235 0.018281467 0.07446928 0.109952636 0.05574806 -0.088684276 -0.06493873 0.19112709
-0.02465717 -0.044147238 0.13332774 0.06588322 0.041619767 0.14304847 -0.051401787 -0.048600845
-0.0073925313 -0.101709895 -0.10653387 -0.030346677 -0.091573715 -0.10992237 -0.07318085 0.052614633
0.039066914 -0.017236846 0.11465903 0.02478326 0.005603591 0.08479965 0.092220135 0.018197684
-0.0045322697 -0.13448434 -0.21912272 -0.0701008 -0.1504758 -0.23506117 -0.2042641 -0.18428208
-0.17716451 0.017449958 0.07266449 0.10271217 0.08061417 0.13090259 0.1366694 0.09485952
0.053740654 0.07671932 -0.017323498 -0.06211195 -0.0988153 -0.08055948 -0.21646756 -0.16815399
-0.031095643 -0.05024719 -0.04793297 0.09456157 0.058489494 0.12709907 0.15125775 0.14543056
-0.0374492 0.06789802 0.08665619 0.026311552 -0.13239156 -0.07473696 0.006690192 -0.0149454875

layer3.0.bias f4 [64]
00000000: e2da 29be 5d14 0c3e f07a 033d a779 f5bd
00000010: 0303 563d 5476 823d 74bd 093d 78f0 08be
00000020: ebd0 80bb f299 7c3d 96c0 213d 55ca 273c
00000030: d2e6 09be 5b5e 08bd aaaf 42be 998a 993d
00000040: 783d ad3d 468c b93d dc96 0c3e 3c58 51bd
00000050: a4a3 833d 6404 d6bb e093 d9bd ffd2 14bd
00000060: 85aa 18bd 83d6 903d 509c 2dbd d705 0f3d
00000070: 6b1f 91bd cb17 de3c dc85 84bc b861 903d
00000080: 9d8f 46be 33db b6bc 3be9 9fbd 136a 823d
00000090: e0f4 2fbd 346e cc3b 3ab1 b3bd 6d56 fabd
000000a0: 4772 b4bd 3593 b3bc 0e14 c4bd 54cf d8bd
000000b0: de5e d23d c7da 8b3d a1e4 0e3d 10ae e5bd
000000c0: b065 bc3c d805 1a3d 773e a93d afdb 363d
000000d0: 4301 d03d a61d c23a b782 883d be92 c03d
000000e0: c14c ff3b 79bc 4dbd 22a1 02bc 7e8e 9b3c
000000f0: f0b9 a73d 5e52 b73d a27d 5dbc d97c a9bd
-0.16587403 0.13679643 0.032099664 -0.11986094 0.052248966 0.063702255 0.033627942 -0.13372982
-0.003931155 0.06167025 0.039490305 0.010241111 -0.13466957 -0.03329311 -0.19012323 0.074971385
0.0845899 0.09059958 0.13729423 -0.051109537 0.06427696 -0.006531285 -0.10623908 -0.036334034
-0.037271995 0.07072165 -0.0423854 0.03491768 -0.070860706 0.027110955 -0.01617711 0.07049888
-0.19390722 -0.02232132 -0.07808157 0.06367888 -0.04295814 0.006238723 -0.08774038 -0.12223516
-0.08810859 -0.02192078 -0.09574138 -0.1058642 0.10272001 0.06828838 0.034886006 -0.112148404
0.022997707 0.03760323 0.08263867 0.0446431 0.10156491 0.0014809861 0.06665557 0.09402989
0.007791132 -0.05022857 -0.007972987 0.018988844 0.08189762 0.08951257 -0.013518723 -0.08275766

layer3.1.weight f4 [64]
00000000: 71b8 a63f fec6 0e40 04b4 973f 847b b53f
00000010: 8ebb ec3f 93b5 b63f fd80 df3f 78f3 ee3f
00000020: 2adc df3f e067 fa3f 1224 dd3f 085d a8b9
00000030: 9533 fd3f a6d9 d63f 926b d43f db31 e03f
00000040: 4ac6 bc3f 43fb d13f e3a8 d13f d008 9f3f
00000050: c025 b03f 4d53 c63f d428 e33f 0a8d 0840
00000060: 6f67 bf3f e39c fb3f b5e6 9b3f 152c d93f
00000070: cbe3 be3f f65f a43f a979 af3f 22a8 f63f
00000080: 7be9 0440 05e1 bd3f 0281 7a3f c115 d63f
00000090: 0a86 963f 2a69 bf3f bd44 0d40 e5d3 c73f
000000a0: 3de2 ce3f 6a7a 8a3f da19 c63f a5e7 d63f
000000b0: 82c4 e63f d7c1 c63f cb85 d83f 4230 a83f
000000c0: 88c9 cd3f 94bd e63f cd5c 0340 e57b f13f
000000d0: 74c4 e13f 7606 c03f 46f0 8a3f cbe9 af3f
000000e0: 86ea f63f 5ad1 ad3f acb0 f43f ff98 f23f
000000f0: d69b cd3f 8292 c53f 3784 a53f b168 823f
1.3025037 2.2308955 1.1851811 1.4178319 1.8494737 1.4274162 1.7461239 1.8668051
1.7489064 1.956295 1.7276633 -0.0003211277 1.9781367 1.6785171 1.6595328 1.7515215
1.4748013 1.6404804 1.6379665 1.2424564 1.376152 1.5494171 1.7746835 2.1336083
1.495344 1.9657253 1.2179781 1.6966578 1.4913267 1.2841785 1.3709003 1.927006
2.0767505 1.4834296 0.978531 1.6725389 1.1759655 1.4953969 2.2073205 1.561154
1.6162792 1.0818608 1.5476639 1.6789442 1.802872 1.5527905 1.691583 1.3139727
1.6077127 1.8026605 2.052539 1.8865935 1.7638078 1.5001972 1.0854576 1.3743223
1.9290321 1.3579514 1.9116416 1.8952941 1.6063182 1.5435336 1.2930974 1.0188199

layer3.1.bias f4 [64]
00000000: 26d2 d03e 7828 693f f7d6 ec3e eafe ba3e
00000010: 7ba3 043f 6cb7 0c3f 99b6 123f 6181 043f
00000020: 3f1c bb3e 1174 383f 1a18 0d3f d2ae 1abb
00000030: 8bd2 d33e de16 3d3f d0b4 0a3f 5d8a f03e
00000040: 075d 363f c40a 233f a194 dd3e 2b90 333f
00000050: efcd ab3e ee73 643f df53 e23e f830 273f
00000060: fde4 3e3f 299a ed3e 2244 113f 9838 213f
00000070: 21b7 c63e 2875 d53e f2c4 0b3f f70d ed3e
00000080: 39be bd3e f075 b93e 85d9 b23e 5924 093f
00000090: deef 1e3f 622b bf3e 9d5b cf3e f995 0c3f
000000a0: ff67 ad3e 9ca9 823f 2d20 193f 4ff2 dd3e
000000b0: e657 fc3e caeb 303f c775 b03e 039f ba3e
000000c0: b511 a53e 9083 123f 513f 363f e3de d03e
000000d0: 2a5c e13e 5abf e93e 8124 383f d8fa c93e
000000e0: 5f61 f73e f439 fb3e 4072 193f 8030 103f
000000f0: da3e e03e c522 1e3f 04e2 003f 003d 273f
0.4078533 0.91077375 0.46257755 0.3652261 0.5181195 0.5496738 0.5730987 0.51759917
0.36544988 0.72052103 0.551149 -0.0023602736 0.4137157 0.7386302 0.5418215 0.46980563
0.712357 0.636883 0.43277457 0.7014186 0.33555552 0.89239395 0.44204614 0.65309095
0.7456816 0.46406677 0.5674459 0.6297698 0.3881159 0.41690946 0.5459739 0.46299717
0.3705919 0.36222792 0.3493158 0.5357109 0.6208476 0.37337786 0.40499583 0.5491634
0.33868405 1.0208011 0.5981472 0.4334893 0.4928581 0.69109786 0.34464857 0.3644944
0.32240072 0.57232 0.71190363 0.4079505 0.44015628 0.45653802 0.719307 0.3944919
0.48316476 0.49067652 0.59939957 0.56324005 0.43797952 0.61771804 0.5034487 0.65327454

layer3.1.running_mean f4 [64]
00000000: dc8c 2b3e 5b1a d1be c4ce 013f 1c68 a3bd
00000010: c2ca f23e f247 2f3e 51a0 28bf fe6d 303e
00000020: bf31 0dbd cbe6 2b3f a07a 1fbe 6972 f43e
00000030: ba48 a3bd 6b14 a53f 8e65 02bf e9db c93f
00000040: d679 44be 5c6f 2b3f 3d67 463f 066d b23f
00000050: a2a0 733e e19e 7cbf 2f4a 00be 82bb 0fbf
00000060: 0f5d a5bf 0ab1 2ebf 9001 1b3d d2f5 053f
00000070: 8fc4 7b3f 767c d0be 8ed0 153f ae60 b73f
00000080: 6bdd be3f e239 4bbf e3ac 343f 7ea9 a13f
00000090: 9562 22bf af54 643d fb10 503d 6585 bdbe
000000a0: c677 fdbe 2449 cebe 1eb3 fcbf b2da 29bf
000000b0: 7091 74bf ff53 a33e 3095 fa3d 6c52 883d
000000c0: 4f92 903e 9800 4abf ac1d 36be 142a 663e
000000d0: 720d 153e 691d c8bd 544d 393f e187 c3bd
000000e0: b4b3 a1bd 84b2 5cbe 40a4 fd3e 5d78 2d3f
000000f0: 0717 b03e 97e0 dd3e 03e9 173e 5320 9e3f
0.16752952 -0.4084042 0.50706124 -0.07978842 0.47420317 0.17117289 -0.65869623 0.17229459
-0.03447127 0.6714904 -0.15574121 0.47743538 -0.07972856 1.2896856 -0.5093621 1.5770236
-0.19187102 0.66966796 0.7750128 1.3939521 0.23791745 -0.9867993 -0.12528299 -0.5614549
-1.2919024 -0.6823889 0.037843287 0.5232822 0.983468 -0.40719956 0.58521354 1.4326379
1.4911321 -0.793852 0.70576304 1.262985 -0.63431674 0.055744823 0.050797444 -0.37015834
-0.49505442 -0.40290177 -1.9742162 -0.6634933 -0.9553442 0.3190002 0.122354865 0.06656346
0.28236625 -0.78907156 -0.17784756 0.22476989 0.1455591 -0.097712345 0.7238362 -0.09547401
-0.07895604 -0.21552473 0.49539375 0.67761785 0.34392568 0.4333541 0.1483498 1.2353615

layer3.1.running_var f4 [64]
00000000: 4e4f c03d e938 573d a249 953d 6422 af3d
00000010: f631 7b3d 91fc 843d 1d02 8b3d c654 a93d
00000020: f26b 8c3d e3a5 743d a931 a83d fa0f 073d
00000030: 5475 b73d d926 cb3d 51d5 983d 8132 883d
00000040: 6be7 793d 722f 6f3d ae63 993d ebd4 843d
00000050: b250 b83d d838 8a3d 736e 9d3d 2eff 9f3d
00000060: b646 bc3d d7e1 8e3d 6b49 933d c9e6 8a3d
00000070: 5a44 e93d d2ce 983d 9a81 963d e8f1 9d3d
00000080: 5fe3 723d d1ab c73d 3b45 853d b277 a03d
00000090: c11b 8e3d fd53 a13d 3d18 9c3d 5510 5a3d
000000a0: ef96 073e 665c a63d 154e 933d 92d9 b83d
000000b0: 6128 dc3d 5580 9d3d 81cf 6e3d 1d0c 873d
000000c0: b469 983d c789 a93d acf3 9b3d 572c 883d
000000d0: 589f c63d cab2 9d3d 9746 dc3d fe4e b13d
000000e0: 7a5c dd3d 44aa ca3d 9167 bf3d af95 a23d
000000f0: 0deb 9c3d f806 d63d 5fff a43d affc a93d
0.09390126 0.052544508 0.07289435 0.08551481 0.061326943 0.06493486 0.067875125 0.082681224
0.068565264 0.059728514 0.08212597 0.03297422 0.089579254 0.09919519 0.07462562 0.06650258
0.061011713 0.058394857 0.074897155 0.064859234 0.089997664 0.06749123 0.07687082 0.078123435
0.091931745 0.06976669 0.07191738 0.067823 0.1138999 0.07461323 0.07348938 0.077121556
0.05929887 0.09749568 0.06507345 0.0783533 0.069388874 0.078773476 0.076218106 0.05323823
0.1324117 0.08123092 0.07192627 0.09025873 0.10749889 0.07690493 0.05830336 0.06594107
0.07442036 0.08278232 0.07614836 0.06649082 0.09698361 0.07700117 0.107556514 0.08657645
0.10808654 0.09895757 0.093459256 0.07938706 0.0766202 0.10450548 0.08056521 0.08300149

fc.0.weight f4 [1, 64]
00000000: a634 8d3f b8f0 93bf b5c5 76bf 006d 8d3f
00000010: 4441 873f fefb 643f 91d7 49bf d4ad 8d3f
00000020: 3210 8f3f 7ac8 81bf 98f2 7a3f 8f45 eebd
00000030: d260 a13f cb52 4fbf 2f98 41bf 8edc 8bbf
00000040: 616c 97bf d889 89bf ae4c a1bf 29b4 84bf
00000050: df15 843f 595d 7cbf b1ac 833f 9790 8abf
00000060: 5522 92bf 3f0f 74bf 0096 81bf 1d45 8b3f
00000070: ca7e 723f 34cb 98bf 8d08 833f fabc 98bf
00000080: c2d1 96bf f9f5 8b3f 2a57 66bf 2389 69bf
00000090: b074 4cbf 2750 9d3f bb72 a63f caf4 94bf
000000a0: a300 4e3f c119 83bf e7a8 bcbf 78b0 973f
000000b0: 8c44 78bf 0b11 7abf cb41 3dbf 3658 a73f
000000c0: 9cd5 a23f ac67 81bf 8459 8b3f 9ee4 833f
000000d0: 8300 773f 44ab a43f 0a10 86bf e74e aa3f
000000e0: 2f8c 603f 3d5a 7b3f fadf 9abf 0c94 933f
000000f0: f9c5 a93f 7c36 78bf 8836 923f e468 8dbf
1.1031692 -1.1557837 -0.96395427 1.1048889 1.0566792 0.8944701 -0.78844553 1.1068673
1.1176817 -1.0139306 0.9802642 -0.11634361 1.2607672 -0.8098571 -0.7562284 -1.0926683
-1.182995 -1.0745192 -1.2601526 -1.036748 1.0319175 -0.9857994 1.0287076 -1.0825375
-1.1416727 -0.95335764 -1.0123901 1.0880467 0.94724715 -1.1937013 1.0236984 -1.1932671
-1.1782763 1.093444 -0.8997675 -0.9122488 -0.7986555 1.2290086 1.3003763 -1.1637204
0.8046972 -1.0242234 -1.4739045 1.1850729 -0.96979594 -0.97682256 -0.7392852 1.3073795
1.2721438 -1.0109763 1.0886693 1.0304143 0.96485156 1.2864766 -1.0473645 1.3305329
0.87713903 0.9818457 -1.2099602 1.1529555 1.3263541 -0.96958137 1.1422892 -1.1047635
