Dcnn.ckpt (torch_old, 55427 bytes, 19 tensors)

layer1.0.weight f4 [8, 1, 5, 5]
0.0836349 -0.09324237 0.06699512 -0.14106862 -0.00066216243 -0.0232902 0.038001493 0.10713473
-0.05783952 -0.19597559 -0.03588859 0.12583704 0.16878699 0.07515737 -0.30988386 0.07664609
0.19694212 0.09517327 -0.051234778 -0.46711758 0.0013101622 -0.00208461 -0.14428303 -0.14124279
-0.00024233843 -0.00026037556 -0.1126486 0.06095764 -0.05469107 -0.0033752392 -0.313614 -0.21947783
-0.22732633 0.068700045 0.07377633 0.10739449 0.14194739 -0.37008333 -0.022031145 0.034779362
-0.054457765 0.30122623 -0.28566477 0.05444505 -0.033893377 0.09953619 -0.08873637 0.0059271166
-0.12509608 -0.0015774865 0.0043213954 -0.006655882 -0.32406583 -0.052519575 -0.09669864 0.03973312
-0.3931703 0.00040270053 0.15547316 0.1035359 -0.16253048 -0.13223416 0.18507315 0.02420128
0.08409118 -0.17088416 -0.050485943 -0.03164787 0.17558025 0.035786424 -0.03685853 -0.035308216
-0.10878981 -0.03133517 0.009739194 0.007584206 0.0074488777 0.038994104 0.025357662 -0.010155059
0.16643529 -0.12810285 -0.047197815 0.07543883 0.043337464 -0.10682257 0.21481946 -0.27164146
0.13268915 0.030458326 0.07870247 -0.20793615 0.03315982 0.15616263 0.033424195 -0.037402965
0.015569087 0.13251105 0.037798125 -0.09170082 -0.001522844 -0.016695347 0.021872118 0.060099985
0.041513745 0.10920085 -0.008997786 -0.23410125 -0.15187594 -0.08611438 -0.042056464 -0.5431201
-0.0767363 -0.28964898 -0.07372627 -0.065113574 -0.45651665 -0.060101673 -0.32400507 -0.1775004
-0.11985396 -0.15046518 -0.21195629 -0.17804182 -0.01932886 -0.024932614 -0.034965612 0.008692364
0.01937015 0.012467659 0.0033863282 0.14242 0.034386083 -0.012908299 -0.18822323 0.03497821
-0.19564553 -0.24524994 -0.18833245 -0.008540985 -0.109316766 -0.08745174 0.05387584 0.05552757
0.21083516 -0.014778052 0.06908263 0.11827357 0.13344224 -0.05596506 -0.015303076 -0.034723975
-0.1550131 0.0653758 0.10288369 -0.13429815 -0.017087307 -0.30571026 -0.16955632 0.05800517
0.2035894 -0.07330966 -0.23580864 -0.0051985453 0.08600022 0.23090188 0.12488035 0.0526264
-0.2020859 0.034637332 -0.09452639 0.13420849 0.014922314 -0.09035748 0.09298448 0.046420597
-0.1260717 -0.005794733 -0.041089233 -0.00073950546 -0.013187107 0.081963785 -0.07790319 0.049323115
-0.06045007 0.15828283 0.11779008 0.10773143 0.081208155 0.05551558 0.1209112 0.12305985
0.21241213 -0.003389926 0.04973244 0.016524255 0.15544058 0.040580433 0.3605271 0.042039447
00000000: c648 ab3d dbf5 bebd bd34 893d 4b74 10be
00000010: f894 2dba 17cb bebc 74a7 1b3d 7469 db3d
00000020: 22e9 6cbd d3ad 48be eaff 12bd 6ddb 003e
00000030: 7fd6 2c3e 1bec 993d 19a9 9ebe a0f8 9c3d
00000040: 32ab 493e 34ea c23d 8fdb 51bd 092a efbe
00000050: c0b9 ab3a f49d 08bb eebe 13be f3a1 10be
00000060: 3a1c 7eb9 0483 88b9 4fb4 e6bd b8ae 793d
00000070: be03 60bd 1e33 5dbb 0492 a0be ccbe 60be
00000080: 3cc8 68be 9cb2 8c3d 0b18 973d a4f1 db3d
00000090: a85a 113e 907b bdbe a97a b4bc ce74 0e3d
000000a0: 1b0f 5fbd 533a 9a3e a742 92be c601 5f3d
000000b0: c8d3 0abd a1d9 cb3d 6abb b5bd 4238 c23b
000000c0: 3019 00be aac3 ceba 7e9a 8d3b 9619 dabb
000000d0: f5eb a5be c41e 57bd f009 c6bd 32bf 223d
000000e0: 9e4d c9be 8d21 d339 5b34 1f3e a10a d43d
000000f0: 646e 26be 6468 07be d183 3d3e c341 c63c
00000100: ff37 ac3d 42fc 2ebe 59ca 4ebd 32a1 01bd
00000110: 4fcb 333e c994 123d f8f8 16bd 599f 10bd
00000120: 31cd debd 4f59 00bd 2491 1f3c ee84 f83b
00000130: b715 f43b 48b8 1f3d dfba cf3c 6861 26bc
00000140: 036e 2a3e 652d 03be 7f52 41bd ac7f 9a3d
00000150: a082 313d cbc5 dabd a2f9 5b3e 9714 8bbe
00000160: aadf 073e bd83 f93c c32e a13d 37ed 54be
00000170: 97d2 073d 19e9 1f3e cfe7 083d da33 19bd
00000180: 7c15 7f3c fab0 073e 35d2 1a3d a4cd bbbd
00000190: 2a9a c7ba aec4 88bc 282d b33c 672b 763d
000001a0: 510a 2a3d b2a4 df3d 736b 13bc 3db8 6fbe
000001b0: 5e85 1bbe bc5c b0bd 6643 2cbd eb09 0bbf
000001c0: ec27 9dbd df4c 94be ccfd 96bd 445a 85bd
000001d0: 8dbc e9be 2c2d 76bd fee3 a5be aac2 35be
000001e0: fe75 f5bd 8b13 1abe 120b 59be 9850 36be
000001f0: 8f57 9ebc 7b3f ccbc 1a38 0fbd 6b6a 0e3c
00000200: 26ae 9e3c 2745 4c3c 29ed 5d3b 8cd6 113e
00000210: 6cd8 0c3d 557d 53bc 97bd 40be 5045 0f3d
00000220: 4d57 48be cd22 7bbe 39da 40be 7def 0bbc
00000230: 78e1 dfbd e619 b3bd eaac 5c3d e170 633d
00000240: 2ce5 573e a51f 72bc 327b 8d3d 6a39 f23d
00000250: 15a5 083e 9e3b 65bd c1b9 7abc ba3a 0ebd
00000260: c1bb 1ebe bfe3 853d afb4 d23d 7485 09be
00000270: aefa 8bbc 0e86 9cbe 2ca0 2dbe d496 6d3d
00000280: bd79 503e 6023 96bd d277 71be 8f58 aabb
00000290: e220 b03d 8b71 6c3e 45c1 ff3d c88e 573d
000002a0: 9bef 4ebe e0df 0d3d 0d97 c1bd f36d 093e
000002b0: b97c 743c 580d b9bd a66e be3d 8623 3e3d
000002c0: f118 01be bee1 bdbb 2f4d 28bd 5fdb 41ba
000002d0: bc0e 58bc a1dc a73d b58b 9fbd 0907 4a3d
000002e0: 7e9a 77bd e514 223e ed3b f13d 4ca2 dc3d
000002f0: 7650 a63d 4e64 633d 4ba0 f73d cd06 fc3d
00000300: 9182 593e 8529 5ebb 3eb4 4b3d e05d 873c
00000310: d12b 1f3e ab37 263d 0297 b83e 8e31 2c3d

layer1.0.bias f4 [8]
-0.15418132 0.15320572 0.007357621 -0.111102216 0.100876756 -0.12559406 -0.040798347 -0.1223705
00000000: b5e1 1dbe f6e1 1c3e 3318 f13b 8f89 e3bd
00000010: 7998 ce3d bb9b 00be 2b1c 27bd 629d fabd

layer1.1.weight f4 [8]
0.5929586 0.8833356 0.63140893 0.23540299 0.7997173 0.3899526 0.34555927 0.48812738
00000000: 23cc 173f 4822 623f 04a4 213f 7b0d 713e
00000010: 46ba 4c3f dea7 c73e 25ed b03e d5eb f93e

layer1.1.bias f4 [8]
-0.18268226 -0.3432155 -0.28175426 -0.14795992 -0.23027277 -0.096690655 -0.111902036 -0.19798899
00000000: 0f11 3bbe f1b9 afbe 1842 90be ce82 17be
00000010: a0cc 6bbe c005 c6bd e52c e5bd a0bd 4abe

layer1.1.running_mean f4 [8]
0.16339639 0.64172477 0.42042172 -0.27790925 1.6402647 0.010353853 0.12675144 -0.8742307
00000000: 6251 273e 1348 243f 8441 d73e 1f4a 8ebe
00000010: 32f4 d13f 35a3 293c 21cb 013e 95cd 5fbf

layer1.1.running_var f4 [8]
0.38377875 0.26295272 0.33214995 0.04662243 2.139009 0.103902794 0.15991399 0.52535576
00000000: a67e c43e bda1 863e 8f0f aa3e 29f7 3e3d
00000010: 86e5 0840 fdca d43d 7ec0 233e b77d 063f

layer2.0.weight f4 [16, 8, 5, 5]
0.017757569 -0.028964916 -0.008349909 -0.006231823 -0.0022024342 -0.011165655 -0.10909305 -0.03814767
0.10251448 -0.053820767 0.19434667 -0.105156876 -0.010334414 0.08879097 0.05985545 -0.11843171
-0.003955378 0.1479183 -0.07662086 0.028391417 -0.08816968 0.16338567 0.057164848 0.08908105
-0.05576083 -0.04477411 -0.03514751 -0.026828952 0.025802923 -0.014327968 0.066069126 -0.07347218
-0.070239976 -0.008491246 -0.07519499 0.060052797 0.030160109 0.03628971 -0.15074514 -0.044607375
0.042052932 0.10770093 0.18656853 0.15501478 -0.08585872 -0.039278205 0.029160177 -0.0043757185
0.03354206 0.03707748 0.01106206 0.01473924 0.0007608542 -3.790021e-05 0.13116431 -0.15594298
0.044155028 0.029934827 0.07073866 0.08777225 -0.0514352 0.0465802 -0.10356301 0.19295353
0.0019512904 0.048890237 0.0006812874 -0.026869165 0.044281453 0.04586128 0.101034276 0.06034858
0.107886024 -0.045113612 0.0585896 -0.019191248 0.10950704 0.081784934 -0.012053651 0.023320924
-0.0028492392 -0.027057968 -0.068656616 0.05036481 -0.07884746 0.114763506 -0.066519424 -0.025997266
-0.02734667 0.03960522 0.01404992 -0.04605589 0.07087749 -0.03309542 -0.0021506003 -0.050291188
0.014122506 -0.043164246 -0.043748666 -0.102343135 -0.050419953 -0.04367967 -0.11211901 -0.08089244
-0.057207625 -0.04759703 0.06864667 0.17486341 0.10865166 0.045433365 -0.04944963 0.10849758
0.02346679 0.13354464 0.042748623 -0.1520977 0.15250902 0.07164291 0.10865256 0.042207208
0.06456309 0.0013049464 -0.07681255 -0.05064997 0.01619606 0.04026376 0.007717036 0.05026118
0.0030069917 -0.0043846294 -0.07851771 0.03860539 0.002916181 0.024103848 -0.017447807 -0.08741346
0.102402605 -0.01947319 0.0836774 -0.019352816 -0.017382944 -0.01050026 0.016985867 -0.036949143
0.10190074 -0.027764993 -0.038080946 -0.016035149 0.07639453 -0.017732907 -0.0058632814 0.053944647
0.02090853 0.012295047 -0.050187163 0.018019728 -0.011852987 0.10568484 0.10149188 0.07795577
-0.062984414 -0.012084261 0.07836023 0.0017358637 -0.018367669 -0.05039789 0.025131492 0.0029682724
0.062347047 0.002676448 -0.07104305 0.019463215 0.0059614815 -0.023042629 0.090863585 -0.0019851092
0.032241955 0.05247469 0.07363195 0.035738517 -0.13903382 -0.054966368 0.0036129197 -0.007879796
0.026209835 -0.08188609 -0.04832401 0.09610765 0.032148942 -0.036474105 -0.022865346 0.0021560611
0.047138657 -0.0036020551 -0.045123246 0.020274146 -0.06867888 0.025905225 -0.03229532 0.05198067
0.03700261 0.009682901 0.0056952145 0.025021933 0.006681369 -0.021242209 0.030658022 0.005187111
-0.025206022 0.014346597 -0.014894212 -0.024707125 0.027833171 0.04638008 0.0050808084 -0.019667491
-0.07879571 -0.24340202 -0.06312818 -0.049093213 -0.010460988 0.027215268 -0.03396401 -0.039742645
-0.044231478 0.037205543 0.01421977 -0.025966292 -0.004242564 -0.02528816 -0.02070069 -0.050099805
-0.01394933 0.009051266 -0.022930982 0.01024124 -0.06815227 -0.082594514 0.021121439 0.03819346
0.11190571 0.06651166 -0.051289145 -0.16794911 0.008844562 0.023988916 -0.016506262 0.03281642
0.0517001 0.036891993 0.016265262 -0.010824188 0.020268776 -0.020761779 0.03485597 -0.04252607
00000000: 5278 913c d547 edbc 0fce 08bc 5234 ccbb
00000010: b756 10bb 27f0 36bc 2d6c dfbd bb40 1cbd
00000020: 1df3 d13d 2a73 5cbd d002 473e 7d5c d7bd
00000030: ad51 29bc 0ad8 b53d fd2a 753d 538c f2bd
00000040: 1e9c 81bb e577 173e 66eb 9cbd 1e95 e83c
00000050: 4e92 b4bd 934e 273e b025 6a3d 2070 b63d
00000060: 7865 64bd 0f65 37bd d6f6 0fbd 64c8 dbbc
00000070: a760 d33c dabf 6abc 404f 873d 9578 96bd
00000080: fad9 8fbd de1e 0bbc d5ff 99bd ecf9 753d
00000090: 5512 f73c 85a4 143d ef5c 1abe 39b6 36bd
000000a0: b23f 2c3d 4e92 dc3d d20b 3f3e 32bc 1e3e
000000b0: b2d6 afbd 2fe2 20bd 53e1 ee3c 3062 8fbb
000000c0: 6663 093d 8ede 173d a43d 353c da7c 713c
000000d0: 1074 473a 0af7 1eb8 f04f 063e 84af 1fbe
000000e0: e7db 343d e239 f53c 6edf 903d f0c1 b33d
000000f0: b7ad 52bd e1ca 3e3d d818 d4bd 9c95 453e
00000100: 71c2 ff3a 2141 483d 6c98 323a b91c dcbc
00000110: 7860 353d 0ad9 3b3d 0feb ce3d 1330 773d
00000120: 59f3 dc3d 0dc9 38bd a6fb 6f3d f736 9dbc
00000130: 3a45 e03d dc7e a73d ad7c 45bc 860b bf3c
00000140: 4dba 3abb aca8 ddbc d79b 8cbd 554b 4e3d
00000150: c77a a1bd 2109 eb3d 563b 88bd 38f8 d4bc
00000160: 2006 e0bc 1539 223d a331 663c 1aa5 3cbd
00000170: 3828 913d 108f 07bd 16f1 0cbb 22fe 4dbd
00000180: 1562 673c fecc 30bd cd31 33bd 4799 d1bd
00000190: 2785 4ebd 74e9 32bd a79e e5bd f0aa a5bd
000001a0: 8b52 6abd 1af5 42bd a096 8c3d 650f 333e
000001b0: c384 de3d 5618 3a3d b28b 4abd fb33 de3d
000001c0: 6d3d c03c edbf 083e 2e19 2f3d 80bf 1bbe
000001d0: 532b 1c3e 85b9 923d 3c85 de3d 77e1 2c3d
000001e0: a739 843d bc0a ab3a e64f 9dbd 5876 4fbd
000001f0: 9aad 843c 9deb 243d 31df fc3b abde 4d3d
00000200: f310 453b f0ac 8fbb e5cd a0bd af20 1e3d
00000210: 661d 3f3b 6f75 c53c b4ee 8ebc d405 b3bd
00000220: 75b8 d13d 3d86 9fbc 0f5f ab3d cc89 9ebc
00000230: ad66 8ebc 4809 2cbc f225 8b3c fc57 17bd
00000240: 56b1 d03d 6973 e3bc c4fa 1bbd 255c 83bc
00000250: bc74 9c3d 9a44 91bc c520 c0bb 10f5 5c3d
00000260: 5e48 ab3c 2a71 493c 0e91 4dbd 1c9e 933c
00000270: 0833 42bc 4b71 d83d fada cf3d 46a7 9f3d
00000280: f9fd 80bd 10fd 45bc 547b a03d ec85 e33a
00000290: cb77 96bc 056e 4ebd 8fe0 cd3c 5987 423b
000002a0: 9e5f 7f3d 5967 2f3b 057f 91bd 5271 9f3c
000002b0: 8858 c33b e5c3 bcbc b016 ba3d 9b18 02bb
000002c0: 2410 043d b3ef 563d 59cc 963d 8d62 123d
000002d0: e25e 0ebe 6a24 61bd bcc6 6c3b 431a 01bc
000002e0: 02b6 d63c e5b3 a7bd 66ef 45bd 16d4 c43d
000002f0: 9cae 033d df65 15bd 1b50 bbbc b44c 0d3b
00000300: 7714 413d 7510 6cbb 27d3 38bd f715 a63c
00000310: 83a7 8cbd 3237 d43c 1948 04bd afe9 543d
00000320: 0c90 173d 08a5 1e3c ec9e ba3b ccfa cc3c
00000330: 63ef da3b 2404 aebc 8826 fb3c a4f8 a93b
00000340: dc7c cebc fd0d 6b3c da06 74bc 9966 cabc
00000350: 6402 e43c 0af9 3d3d e97c a63b b81d a1bc
00000360: a55f a1bd 613e 79be 5949 81bd f715 49bd
00000370: 9064 2bbc 8ef2 de3c d91d 0bbd 2fc9 22bd
00000380: 112c 35bd d764 183d 0afa 683c 43b7 d4bc
00000390: 3505 8bbb 1e29 cfbc 7e94 a9bc 7435 4dbd
000003a0: bb8b 64bc c34b 143c c1d9 bbbc e0ca 273c
000003b0: 6b93 8bbd 5027 a9bd de06 ad3c bf70 1c3d
000003c0: d22e e53d 4437 883d 9114 52bd dafa 2bbe
000003d0: c8e8 103c 6784 c43c 2438 87bc 836a 063d
000003e0: 7cc3 533d 0f1c 173d ba3e 853c ef57 31bc
000003f0: b40a a63c 9b14 aabc 22c5 0e3d d12f 2ebd

layer2.0.bias f4 [16]
0.010585688 -0.025955353 0.031760257 -0.053149752 -0.008850659 0.0654521 -0.011784884 0.05043591
-0.13413686 0.0810148 -0.0028848646 0.01742506 -0.05017348 -0.04669475 -0.07715562 0.07295228
00000000: 986f 2d3c 52a0 d4bc 0b17 023d 8eb3 59bd
00000010: 5b02 11bc c00b 863d 6315 41bc e295 4e3d
00000020: 2c5b 09be 16eb a53d ff0f 3dbb 00bf 8e3c
00000030: b582 4dbd ff42 3fbd c403 9ebd 0168 953d

layer2.1.weight f4 [16]
0.6204666 0.59902835 0.7476297 0.6644652 0.7912392 0.79798096 0.3500324 0.4024306
0.5141887 0.7107192 0.7777754 0.70201236 0.7411012 0.5124888 0.8027825 0.41681018
00000000: e6d6 1e3f ec59 193f a964 3f3f 641a 2a3f
00000010: a78e 4a3f 7b48 4c3f 7237 b33e 620b ce3e
00000020: dfa1 033f b2f1 353f 4a1c 473f 15b7 333f
00000030: cfb8 3d3f 7732 033f 2783 4d3f 2568 d53e

layer2.1.bias f4 [16]
-0.2855427 -0.27322385 -0.14914784 -0.047178417 -0.36939138 -0.35207224 0.48457024 -0.14584254
-0.44831997 -0.00222412 -0.02900235 -0.06497088 -0.22532593 -0.00981716 0.009259002 -0.024972169
00000000: a732 92be ffe3 8bbe 36ba 18be 283e 41bd
00000010: de20 bdbe d042 b4be 9719 f83e bf57 15be
00000020: 328a e5be 8bc2 11bb 5696 edbc 740f 85bd
00000030: d7bb 66be 27d8 20bc 12b3 173c 6f92 ccbc

layer2.1.running_mean f4 [16]
0.26656264 -0.9299106 -0.35936928 -0.32522884 -0.1404804 0.23651299 1.1053324 -0.5632891
-0.80237347 -0.11576948 0.60367376 -0.20714998 0.11285874 0.5003761 0.3613737 0.76591694
00000000: e67a 883e 9f0e 6ebf 40ff b7be 6584 a6be
00000010: 18da 0fbe 7630 723e 887b 8d3f b733 10bf
00000020: 5968 4dbf 8d18 edbd 5d8a 1a3f 201f 54be
00000030: 7c22 e73d a618 003f f905 b93e 2213 443f

layer2.1.running_var f4 [16]
0.06115841 0.04979233 0.059198655 0.09256061 0.11820314 0.087241836 0.02175643 0.02842009
0.03301674 0.08709074 0.10066663 0.10117995 0.027427716 0.06656478 0.07625592 0.05400535
00000000: 3e81 7a3d 0bf3 4b3d 4a7a 723d 6b90 bd3d
00000010: 7d14 f23d d9ab b23d 8a3a b23c 40d1 e83c
00000020: 903c 073d a15c b23d 4e2a ce3d 6f37 cf3d
00000030: 17b0 e03c 1e53 883d 102c 9c3d b734 5d3d

layer3.0.weight f4 [64, 16, 3, 3]
0.06015015 0.017672643 0.13114773 0.07468631 0.044723704 0.051939853 0.051286545 0.06779761
0.052950487 -0.09356075 -0.07058779 -0.044292107 -0.13169336 0.03970799 -0.004177665 -0.09276041
-0.00084906153 0.23636702 0.0028004947 0.06429265 0.025761183 -0.09408656 -0.014469968 0.08143681
-0.01855013 -0.04346894 0.1485174 -0.09377381 -0.08335961 -0.053060513 -0.18114285 -0.05868556
-0.0018714677 -0.1321633 -0.030928502 0.10232234 -0.07186084 -0.044350166 0.028038062 0.14227219
-0.12007164 -0.09231997 0.06415325 -0.090863355 -0.07660239 0.022275716 0.07800787 0.06827807
0.05653319 0.07151306 -0.0012518638 0.01421857 0.015862755 0.14275716 -0.00876334 -0.051662397
-0.057791587 -0.011748693 0.0112083405 -0.037662204 0.015430188 0.05802854 -0.019928398 -0.027468449
-0.074463524 -0.017943207 -0.0689944 -0.15407269 -0.069965556 0.0038673591 -0.06022001 -0.015958855
-0.12469856 -0.07370161 -0.08453922 -0.15320891 -0.107078075 -0.055898406 -0.103164256 -0.14911564
-0.28332463 -0.015559718 -0.013276282 -0.0027137985 -0.007372188 -0.015349461 0.04660755 -0.08713944
0.007545707 0.09723105 -0.14374806 -0.064748436 0.11440869 -0.10448335 -0.120088115 -0.030162238
-0.05865959 -0.04813675 -0.2188018 0.027502192 0.0136392275 0.011222064 -0.06627078 -0.0028754054
-0.12672389 0.071852535 0.07623815 0.040958103 0.040414535 -0.025776299 -0.009751192 0.049020905
-0.022655461 0.006004081 -0.0065749954 -0.08672839 0.011905383 -0.10310411 0.04599208 0.0413943
-0.02638678 -0.036498927 -0.08492976 0.09833035 -0.06684365 -0.0037642415 -0.07180928 -0.09747883
0.065609075 -0.021192176 -0.02818578 -0.011635834 0.00047498185 -0.0562199 -0.027309585 0.021431085
-0.07628372 0.043114904 -0.037040435 -0.031727087 -0.03611319 -0.028465925 -0.023112258 0.1202104
0.08938775 0.09470425 0.056933254 0.042302117 0.084697664 -0.005231151 0.0017595899 -0.017377015
-0.03255194 0.00024824275 0.09243386 0.04733859 0.16781579 0.18968368 -0.06412868 0.04264347
0.09179285 0.092489436 0.01996804 -0.0023774065 -0.14003456 -0.07760132 0.02032331 -0.081293516
0.030813077 -0.012253856 -0.089943156 0.038064845 -0.030576283 0.0021850967 -0.034459844 0.06757783
0.11228892 -0.09704652 0.019316303 0.022447754 0.14536098 0.14666101 0.1067964 0.062419694
-0.045472354 0.014771393 -0.111346565 -0.08112052 0.0016784284 0.027863251 0.010970974 -0.00024855585
-0.013689114 -0.020546833 -0.033851057 -0.025191192 0.01907864 0.0599081 0.013276573 0.11762558
0.13757204 -0.002783293 0.05652612 0.02548105 -0.093048446 -0.062994525 -0.11784073 -0.11998025
-0.024976877 0.03587011 -0.07142642 0.02575136 0.08687787 -0.033642482 0.10673774 0.14851393
0.070555076 -0.010377865 -0.014325187 0.03780831 0.0034795164 0.052331943 0.09092262 0.15079844
0.07965248 0.08958291 0.06637195 0.056575075 0.016142318 0.008699955 0.052782495 0.025948914
0.08518514 -0.029089238 0.07497552 0.07008051 0.07021562 -0.09420014 0.055083152 0.036218997
-0.0056432416 -0.041823376 -0.06509878 0.117333904 0.072097726 0.12060182 -0.08025019 0.0022862824
0.048326325 -0.06637643 -0.032767333 -0.044155642 -0.009928553 -0.017835123 -0.05092595 -0.05141004
00000000: 0160 763d 38c6 903c 974b 063e 23f5 983d
00000010: 3430 373d e2be 543d d711 523d 79d9 8a3d
00000020: 9ce2 583d c79c bfbd 5590 90bd a46b 35bd
00000030: a0da 06be d8a4 223d cbe4 88bb 2bf9 bdbd
00000040: 8e93 5eba 320a 723e 8188 373b ddab 833d
00000050: 1e09 d33c 74b0 c0bd 7213 6dbc 58c8 a63d
00000060: 71f6 97bc 7d0c 32bd f214 183e 7c0c c0bd
00000070: 71b8 aabd fb55 59bd 837d 39be 4560 70bd
00000080: 094c f5ba d155 07be c55d fdbc 608e d13d
00000090: c72b 93bd 85a8 35bd 14b0 e53c cdaf 113e
000000a0: 1fe8 f5bd 4112 bdbd c762 833d 9116 babd
000000b0: b7e1 9cbd 907b b63c 97c2 9f3d 5fd5 8b3d
000000c0: 598f 673d 7075 923d 9415 a4ba 01f5 683c
000000d0: 9cf2 813c ef2e 123e 1d94 0fbc f39b 53bd
000000e0: dfb6 6cbd 977d 40bc 30a3 373c af43 1abd
000000f0: e6ce 7c3c 56af 6d3d e140 a3bc 8305 e1bc
00000100: 5580 98bd a2fd 92bc f04c 8dbd 3bc5 1dbe
00000110: 1a4a 8fbd 8573 7d3b 42a9 76bd 25bc 82bc
00000120: f561 ffbd dff0 96bd e622 adbd cce2 1cbe
00000130: c04b dbbd baf5 64bd c847 d3bd c5b1 18be
00000140: ed0f 91be 30ee 7ebc c384 59bc fcd9 31bb
00000150: 6592 f1bb 4e7c 7bbc 8fe7 3e3d 2a76 b2bd
00000160: fa41 f73b 1321 c73d b132 13be d49a 84bd
00000170: 1a4f ea3d 5efb d5bd c2f0 f5bd cc16 f7bc
00000180: 0a45 70bd 0a2b 45bd 940d 60be 474c e13c
00000190: 1177 5f3c bfdc 373c fab8 87bd 4c71 3cbb
000001a0: e8c3 01be 6c27 933d bf22 9c3d afc3 273d
000001b0: b689 253d d128 d3bc 77c3 1fbc 25ca 483d
000001c0: f297 b9bc e2bd c43b 0f73 d7bb a79e b1bd
000001d0: cc0e 433c 3f28 d3bd 3162 3c3d 128d 293d
000001e0: 1729 d8bc e67f 15bd a7ef adbd 6c61 c93d
000001f0: 53e5 88bd 7eb1 76bb be10 93bd fba2 c7bd
00000200: 0d5e 863d 379b adbc dde5 e6bc 3aa4 3ebc
00000210: fc06 f939 d646 66bd 5ab8 dfbc 3e90 af3c
00000220: a43a 9cbd 4199 303d b6b7 17bd 43f4 01bd
00000230: 6deb 13bd 5f31 e9bc eb55 bdbc df30 f63d
00000240: ed10 b73d 4df4 c13d d832 693d fc44 2d3d
00000250: f875 ad3d 136a abbb 0aa2 e63a 3e5a 8ebc
00000260: 2f55 05bd 9426 8239 f74d bd3d 1ce6 413d
00000270: e7d7 2b3e 703c 423e e655 83bd ebaa 2e3d
00000280: e4fd bb3d 1a6b bd3d 0494 a33c 43ce 1bbb
00000290: 3865 0fbe 71ed 9ebd 127d a63c 377d a6bd
000002a0: b56b fc3c 66c4 48bc 1e34 b8bd e2e9 1b3d
000002b0: 1d7b fabc d733 0f3b c425 0dbd 3f66 8a3d
000002c0: bcf7 e53d 53c0 c6bd 393d 9e3c 5ae4 b73c
000002d0: 82d9 143e 4e2e 163e 12b8 da3d cbab 7f3d
000002e0: 3841 3abd b603 723c ab09 e4bd 8422 a6bd
000002f0: b6fe db3a 7941 e43c 9abf 333c 9a50 82b9
00000300: 4e48 60bc d551 a8bc 68a7 0abd c25d cebc
00000310: cf4a 9c3c 3262 753d fc85 593c aee5 f03d
00000320: afdf 0c3e e867 36bb ef87 673d a3bd d03c
00000330: 2f90 bebd 4603 81bd 7b56 f1bd 35b8 f5bd
00000340: 4f9c ccbc 89ec 123d 0448 92bd 84f4 d23c
00000350: 06ed b13d b3cc 09bd 5199 da3d 0914 183e
00000360: 2e7f 903d ec07 2abc 30b4 6abc e3dc 1a3d
00000370: 9908 643b 055a 563d a335 ba3d e86a 1a3e
00000380: d720 a33d 3f77 b73d 04ee 873d 44bb 673d
00000390: e53c 843c 428a 0e3c 7532 583d d192 d43c
000003a0: 8c75 ae3d 8e4c eebc c48c 993d 5f86 8f3d
000003b0: 35cd 8f3d 01ec c0bd df9e 613d 5f5a 143d
000003c0: f1ea b8bb fd4e 2bbd 8252 85bd c24c f03d
000003d0: f9a7 933d 16fe f63d 365a a4bd 74d5 153b
000003e0: d3f1 453d 5ef0 87bd 0a37 06bd 8cdc 34bd
000003f0: 5fab 22bc f71a 92bc bb97 50bd 5693 52bd

layer3.0.bias f4 [64]
0.019970808 0.010189795 -0.015181895 -0.013001643 0.046958555 -0.023205059 0.036084794 -0.052083638
0.019688565 0.039010394 -0.081826575 0.036418103 -0.018536117 -0.09003013 0.097008094 0.020800851
0.022642951 -0.09116737 -0.026137335 -0.038478523 0.06994624 -0.03577135 0.051397957 -0.057943925
-0.10127463 -0.09763276 0.109028086 -0.059878234 -0.08861598 -0.035476096 -0.016567523 0.0662957
0.01006835 0.08173078 0.06534059 -0.0058318526 0.039443765 0.050710835 0.008442994 0.01739039
0.018808074 -0.11336007 -0.07434664 -0.027213033 0.038127042 0.05383168 0.002897777 0.06902861
-0.06352656 0.030508338 0.030245727 -0.013466559 0.094241336 0.009386794 0.005500385 0.08807015
0.015333687 -0.037241414 0.040199727 0.08438064 0.042851657 0.033317443 0.022093348 0.021468045
00000000: d299 a33c 19f3 263c 7cbd 78bc d804 55bc
00000010: 9d57 403d 8918 bebc a6cd 133d a755 55bd
00000020: ea49 a13c 5dc9 1f3d b194 a7bd 262b 153d
00000030: 0ed9 97bc b861 b8bd 2eac c63d 8c66 aa3c
00000040: b67d b93c f5b5 babd f71d d6bc a89b 1dbd
00000050: f93f 8f3d fb84 12bd aa86 523d 9c56 6dbd
00000060: 1369 cfbd aff3 c7bd 1e4a df3d e142 75bd
00000070: 4c7c b5bd 624f 11bd 9db8 87bc 0ac6 873d
00000080: b8f5 243c 7862 a73d 4ad1 853d 2019 bfbb
00000090: c98f 213d 2ab6 4f3d 7c54 0a3c 4b76 8e3c
000000a0: 6413 9a3c 5329 e8bd 0d43 98bd deed debc
000000b0: 1a2b 1c3d 9c7e 5c3d a1e8 3d3b df5e 8d3d
000000c0: 371a 82bd 9fec f93c e3c5 f73c d8a2 5cbc
000000d0: 9a01 c13d 11cb 193c 933c b43b 1f5e b43d
000000e0: 253a 7b3c 748a 18bd 78a8 243d c2cf ac3d
000000f0: 3885 2f3d df77 083d 1cfd b43c c1dd af3c

layer3.1.weight f4 [64]
1.0770717 1.9842483 1.6513562 1.230132 1.416527 1.6393628 1.471174 1.6708392
1.2744895 1.9763743 1.2892472 1.3498904 0.9860845 1.2903264 1.3329245 1.2271596
1.3332886 1.3773125 1.4570198 1.3734907 1.495059 1.2768451 1.834196 1.4408041
1.688787 1.451117 1.6059954 1.5338215 1.4488282 1.4940454 1.361174 1.6319923
1.5022048 1.7598778 1.6029199 1.4189583 1.4898511 1.3961902 1.6492682 1.4022095
1.6366196 1.1073806 1.3789829 1.2439615 1.1784532 1.3128659 1.3237886 1.1499306
1.8670336 1.7030039 1.4611591 1.1858829 1.3883617 1.3510962 1.4572538 1.492866
1.6778862 1.5070236 1.0607935 1.995644 1.7256395 1.3023008 1.3799618 1.1559334
00000000: 7cdd 893f d9fb fd3f a45f d33f f774 9d3f
00000010: c250 b53f a4d6 d13f 6e4f bc3f 0fde d53f
00000020: 7922 a33f d5f9 fc3f 0d06 a53f 35c9 ac3f
00000030: 0970 7c3f 6a29 a53f 459d aa3f 9113 9d3f
00000040: 33a9 aa3f c74b b03f a07f ba3f 8bce af3f
00000050: 185e bf3f a96f a33f efc6 ea3f 456c b83f
00000060: 2c2a d83f 34be b93f 4291 cd3f 4354 c43f
00000070: 3473 b93f e13c bf3f f33a ae3f 20e5 d03f
00000080: 3f48 c03f ad43 e13f 7b2c cd3f 6da0 b53f
00000090: 71b3 be3f 5cb6 b23f 381b d33f 9a7b b33f
000000a0: c07c d13f a6be 8d3f 8382 b03f 213a 9f3f
000000b0: 8ed7 963f fd0b a83f e871 a93f ed30 933f
000000c0: f5fa ee3f 08fc d93f 4307 bb3f 03cb 973f
000000d0: d6b5 b13f b8f0 ac3f 4b87 ba3f 3c16 bf3f
000000e0: fac4 d63f 26e6 c03f 15c8 873f 4371 ff3f
000000f0: c1e1 dc3f cbb1 a63f 97a2 b03f a0f5 933f

layer3.1.bias f4 [64]
0.49811533 0.5175859 0.5638356 0.32943478 0.38588563 0.36026067 0.42086715 0.4385069
0.40979767 0.5569345 0.47952253 0.30396536 0.27770662 0.5093537 0.40016663 0.43089753
0.564157 0.44705236 0.44010693 0.41368592 0.43011093 0.36136 0.6613187 0.505632
0.45153207 0.39897272 0.2646507 0.61037904 0.41920373 0.6976618 0.36240357 0.45558184
0.46606618 0.37451962 0.50741225 0.52964026 0.31954405 0.44722703 0.3603735 0.4539939
0.57698053 0.36321014 0.4830442 0.43299803 0.42870215 0.46047786 0.40284583 0.5292643
0.4846243 0.5597142 0.41214046 0.29172385 0.4233413 0.43137962 0.45465484 0.69564384
0.49027222 0.40429002 0.31768587 0.5209675 0.46618447 0.4805468 0.52286416 0.46880442
00000000: f908 ff3e 8280 043f 8857 103f adab a83e
00000010: cd92 c53e 1674 b83e e67b d73e fa83 e03e
00000020: 00d1 d13e 4293 0e3f fa83 f53e 59a1 9b3e
00000030: 902f 8e3e 0165 023f a4e2 cc3e 9a9e dc3e
00000040: 986c 103f 0ce4 e43e b255 e13e a4ce d33e
00000050: 8037 dc3e 2e04 b93e 2f4c 293f 1971 013f
00000060: 362f e73e 2746 cc3e 4c80 873e cd41 1c3f
00000070: dfa1 d63e f799 323f f68c b93e 0642 e93e
00000080: 3aa0 ee3e 09c1 bf3e c5e5 013f 8196 073f
00000090: 479b a33e f1fa e43e e082 b83e e371 e83e
000000a0: ffb4 133f aef6 b93e 9251 f73e ebb1 dd3e
000000b0: d97e db3e c1c3 eb3e cf41 ce3e dd7d 073f
000000c0: ad20 f83e 6e49 0f3f 1304 d33e d45c 953e
000000d0: 31c0 d83e cadd dc3e 85c8 e83e b715 323f
000000e0: f604 fb3e 1aff ce3e b9a7 a23e 205e 053f
000000f0: bbaf ee3e 3b0a f63e 6dda 053f 2207 f03e

layer3.1.running_mean f4 [64]
-0.7388539 0.9706967 -0.5296499 0.11894328 0.2143212 -1.0387686 -0.25684595 0.392074
0.26023686 0.3953111 -0.44261363 0.6721508 0.37660605 -1.2812206 0.9994381 -0.31556833
0.10933626 -0.005122196 0.8707988 0.1227148 0.14461246 0.2190589 -0.76724327 0.123445034
0.64119405 0.36744925 -0.29825783 -0.59322137 -0.37020513 -0.4447888 -0.59294945 0.5464289
-0.45251998 -0.08875905 0.21234833 -0.9672652 0.9881108 0.3575713 0.25210115 -0.61484194
-0.459936 -0.3330186 0.0059039197 0.14969292 -0.6625665 -0.6423173 0.21610741 0.3191405
0.51903266 -0.60668373 -1.143619 -0.43200323 1.047212 -0.06481507 -0.40391883 -0.9540683
-0.6468963 -0.55206627 0.042990346 -0.031682443 -0.969271 -0.5999578 0.037948277 1.0554897
00000000: 8725 3dbf 947f 783f 2397 07bf 8998 f33d
00000010: 0477 5b3e 5ff6 84bf 5081 83be ecbd c83e
00000020: c43d 853e 3766 ca3e 419e e2be 1312 2c3f
00000030: 82d2 c03e 09ff a3bf 2ddb 7f3f 2c92 a1be
00000040: b0eb df3d 18d8 a7bb acec 5e3f e651 fb3d
00000050: 4a15 143e fa50 603e 0e6a 44bf c0d0 fc3d
00000060: 4b25 243f 4f22 bc3e 40b5 98be 5bdd 17bf
00000070: 878b bdbe 5cbb e3be 89cb 17bf c4e2 0b3f
00000080: b3b0 e7be 4ec7 b5bd d771 593e b19e 77bf
00000090: d4f4 7c3f 9613 b73e 6713 813e 4866 1dbf
000000a0: bb7c ebbe 6a81 aabe ab75 c13b 1a49 193e
000000b0: f59d 29bf e86e 24bf 434b 5d3e 6266 a33e
000000c0: 53df 043f a04f 1bbf 1b62 92bf 872f ddbe
000000d0: 0b0b 863f c3bd 84bd 73ce cebe d23d 74bf
000000e0: ff9a 25bf 3754 0dbf a516 303d 73c5 01bd
000000f0: 2522 78bf d696 19bf a76f 1b3d 491a 873f

layer3.1.running_var f4 [64]
0.057420425 0.08510506 0.06353524 0.08183362 0.092183426 0.0719379 0.05349914 0.068133555
0.06976753 0.05936324 0.057390112 0.09388905 0.059782248 0.08050021 0.070403874 0.059471417
0.07542538 0.08931209 0.05847421 0.059080813 0.05937499 0.0557928 0.06893401 0.06903321
0.066991165 0.06685952 0.09027985 0.07711218 0.0534239 0.062377356 0.06596973 0.07180798
0.048180476 0.090944394 0.057047375 0.06963846 0.09594513 0.06903012 0.07606193 0.05570819
0.08182886 0.071312636 0.07545871 0.07279998 0.06788719 0.085436426 0.06982726 0.05695776
0.07156592 0.091301195 0.113805 0.081056744 0.088769555 0.060397495 0.07222428 0.059003334
0.10004153 0.06781034 0.06834966 0.058555312 0.06854692 0.06349976 0.067656994 0.06678725
00000000: ae31 6b3d 904b ae3d c41e 823d 6398 a73d
00000010: aaca bc3d 2d54 933d ea21 5b3d 9b89 8b3d
00000020: 47e2 8e3d de26 733d e511 6b3d e748 c03d
00000030: 3bde 743d 4bdd a43d e82f 903d 4d98 733d
00000040: 9f78 9a3d 42e9 b63d a782 6f3d b9fe 713d
00000050: 3133 733d fe86 643d 462d 8d3d 4961 8d3d
00000060: aa32 893d a5ed 883d a4e4 b83d feec 9d3d
00000070: 05d3 5a3d 667f 7f3d 231b 873d 1010 933d
00000080: e458 453d 0e41 ba3d 82aa 693d 9c9e 8e3d
00000090: e17e c43d aa5f 8d3d 5bc6 9b3d 452e 643d
000000a0: e495 a73d 5c0c 923d 198a 9a3d 2818 953d
000000b0: 7008 8b3d 4bf9 ae3d 9801 8f3d 8a4c 693d
000000c0: 2791 923d 1ffc ba3d 9912 e93d 1401 a63d
000000d0: d0cc b53d 5d63 773d 53ea 933d 7bad 713d
000000e0: 93e2 cc3d 26e0 8a3d e8fa 8b3d b2d7 6f3d
000000f0: 5462 8c3d 2a0c 823d c08f 8a3d c1c7 883d

fc.0.weight f4 [1, 64]
-0.8416465 0.8840417 -0.7783434 -1.1550758 0.85515934 0.65863043 -0.50575405 0.7763028
-0.68096405 1.0644732 -0.6478752 -0.7989355 0.7991134 -0.77531254 -0.87668955 0.72938937
-0.97216153 0.7791796 -0.79602075 -1.1393933 0.6118293 -1.0396836 -0.95498693 0.78432757
-0.8452067 0.9525096 0.59078246 -0.8397394 -0.68892455 -0.7318916 -0.7018303 0.7225931
0.58600235 0.8395185 0.6304805 0.89211637 -0.77272445 -0.741784 -0.761407 1.1567295
-0.8304711 0.7798148 0.6065432 -0.92525834 0.8719919 -0.74293643 -0.76104945 -0.84287214
0.8742733 0.8216551 0.80089146 -1.0721248 -0.8381195 -0.7104283 -0.89534837 -0.6598329
0.89177734 -0.7217869 -0.7981893 0.97155106 1.0282727 -0.8094483 0.7400017 0.8464151
00000000: 2576 57bf 8f50 623f 8341 47bf 86d9 93bf
00000010: b9eb 5a3f 019c 283f 1979 01bf c8bb 463f
00000020: a953 2ebf a840 883f 26db 25bf 0987 4cbf
00000030: b292 4c3f e27a 46bf ba6e 60bf 43b9 3a3f
00000040: 94df 78bf 5078 473f 04c8 4bbf a4d7 91bf
00000050: d8a0 1c3f 5a14 85bf 067a 74bf b1c9 483f
00000060: 775f 58bf abd7 733f 853d 173f 29f9 56bf
00000070: 5c5d 30bf 3f5d 3bbf 27ab 33bf ddfb 383f
00000080: 4004 163f afea 563f 2c67 213f bd61 643f
00000090: 45d1 45bf 8ee5 3dbf 92eb 42bf b60f 943f
000000a0: c199 54bf f1a1 473f 6a46 1b3f bbdd 6cbf
000000b0: dc3a 5f3f 1531 3ebf 23d4 42bf 78c6 57bf
000000c0: 60d0 5f3f fd57 523f 3907 4d3f 633b 89bf
000000d0: 008f 56bf a1de 35bf 8d35 65bf cfea 28bf
000000e0: 854b 643f 07c7 38bf 2256 4cbf 92b7 783f
000000f0: 719e 833f 0138 4fbf c070 3d3f a9ae 583f
