G.ckpt (torch_old, 443208 bytes, 6 tensors)

0.weight f4 [64, 16]
00000000: 0917 72be 3f8d 90be d598 353e 6729 0ebe
00000010: 77cd 123c c5d0 b63b 3ae7 dc3d 09b1 8fbe
00000020: ec54 15be a9c6 ccbe 4781 42be 9258 e3bd
00000030: 88c6 413e 78a4 f13e d79b 743e a35b 9e3c
00000040: 950f 86be ad60 683b bec0 863e 6183 f13e
00000050: 4cb7 1dbe 433c 0d3f 3389 c73d e32e e73e
00000060: 62aa b5be ef36 b2be 9ddc 153f 102c 6dbd
00000070: aba8 b83e ba42 2abe 3045 adba ed9f c23e
00000080: 2e61 713a 4d52 41ba 72f7 75b8 c0b4 b7ba
00000090: 55c9 8f3b dfec a5ba 5575 533b 65d9 67bb
000000a0: ece5 223b 21fb f63a cbea a63b e811 b2bb
000000b0: 15d3 acba 8576 84ba 8604 e5ba 1221 853a
000000c0: 2dae 7c3e c554 eb3d a8dd ab3e c46c 233e
000000d0: 919e 7ebe 374b 17bf dd34 29be 2039 f7be
000000e0: ba96 9f3d 5cae 9b3e 8878 7fbe 2208 f83e
000000f0: e377 8d3d e4f7 c53e 1ed6 13bf f66a 89be
00000100: 4cf2 c13e 0612 b13d 2ac3 21be 7364 f1be
00000110: 5deb 883e 34b2 47bf 8929 febd 6cbb 57bf
00000120: d586 cebb 39c8 8c3e 8cc6 0dbe 9aa5 89be
00000130: 37ca 37be fbee 923e a6ef 2dbf 7cd4 2abf
00000140: 87d5 91be e540 cf3e 5eb1 813e 8465 4d3f
00000150: cf21 c4be 7ab6 233e 871c 35be 31a5 163f
00000160: c45d 6f3e 0642 6dbe adef df3e 1d33 9e3e
00000170: d35b 8f3f 705f 6ebe 5740 9cbe b7ce 643f
00000180: 2711 8fbe e49f d13e 3dbb a03e bde4 54be
00000190: d3da b0be 4b65 b23e 1d6f 983d 4e2b 42be
000001a0: cbf3 423c 9b28 c6be aed4 95be 8525 1bbe
000001b0: f403 343e c119 bbbe 4af9 d43e 876e 483e
000001c0: 79fb 6e3d 46de 97be 32d6 ab3e 4f34 023e
000001d0: 36e8 bc3d aa03 0a3f a305 e63d 47cf 33be
000001e0: 0225 6abf 3696 87be 7908 163f 51ce a1be
000001f0: 7cab 39be b660 e43e 820b 25be f602 153b
00000200: 8ec6 a8bb 2e7a 70bc 1adf b7bc 875c f0bb
00000210: cb52 8dbc d5d4 903b 2094 cd3a 604c 6cbb
00000220: bec8 98bc fa15 c03c f3d1 97bb ee23 42bb
00000230: 89a4 e1bc 7198 19bc 56e1 a53b 5f89 e83a
00000240: b8ff 2c3e 0872 b4bd 742f 103e 0fe4 14be
00000250: e49d a63e 92e4 cfbd 0218 b83d 1a1b fbbe
00000260: cb4b dbbe c15b 343d 21b7 1d3e c8dd fbbe
00000270: 1421 c6be ff5b 273e af7c 54be 84b5 89be
00000280: f621 83bc f009 ccbe ece6 5d3d a37a 013e
00000290: 96a7 0e3f f361 b8be 84a6 c53d 5f10 2ebf
000002a0: 407d 53be 630c a73e 2180 1abe 44a6 2ebe
000002b0: 162c 03bf d476 dd3e 9daf 95be 8337 963c
000002c0: 1738 573d 9053 c1bd 4fd9 59be c0e5 debe
000002d0: d7db 163e 5946 213e 37b8 61bd 7324 c6be
000002e0: fef1 9d3b 58cc 6ebd 4fe4 eebd 278d 8dbe
000002f0: 02ff 3ebe 694e 08be 85fc 0d3e f42d f1be
00000300: 5781 ea3e 8337 a33e 2d24 9abd 9b33 e6bd
00000310: c32e 4cbd 6c76 c33e 73b6 20bd 2e52 30be
00000320: 9c51 a33d 9c46 033e 8bed 10be bd53 b03e
00000330: bfb7 43be 6aa3 74be 15b0 893e 92a6 aebe
00000340: 039f 9a3e 5aa5 873d 2cf5 223d d99b 2bbf
00000350: 94fd 0a3c d9bc eebe ebb7 8bbd fb78 fabe
00000360: 8697 09be 0c32 603e 262f a4be 7735 9ebe
00000370: 0a8f 13bf 81d7 863e 8390 05be e6ce ffbe
00000380: dddc db3e a9c4 8c3e 18c3 ee3d 28b8 56be
00000390: de17 883d 77e5 60be f918 25be bd84 2cbe
000003a0: 7275 eabe 43ed 83bc 4d05 c73e 083b 16bf
000003b0: 9da1 8c3e dfaa bb3e 53b6 07bf 497b b03c
000003c0: 1fba 483e aa27 a93d 43fd b43e f7b1 ba3e
000003d0: 95d5 a73d 4ebc aa3d 0a4e 913d 9018 00be
000003e0: ed5e 2abf afdb 903d fc9d 093f cba0 6fbe
000003f0: d385 2ebe ad47 973e df73 febe 0963 a63e
-0.236416 -0.28232762 0.17734082 -0.13882981 0.008960119 0.0055790865 0.107862905 -0.28064755
-0.14583176 -0.39995316 -0.18994628 -0.11100878 0.1892339 0.47195792 0.23887573 0.019330805
-0.26183763 0.0035458014 0.26318926 0.47170547 -0.15401953 0.5517008 0.097429655 0.4515296
-0.35481554 -0.34807536 0.58539754 -0.05790335 0.36066183 -0.16627017 -0.0013219472 0.3801264
0.00092079013 -0.00073746295 -5.8643003e-05 -0.001401566 0.0043880143 -0.0012659094 0.003226598 -0.003537738
0.0024856282 0.0018843153 0.0050939075 -0.0054342635 -0.0013185466 -0.0010106122 -0.0017472662 0.001015695
0.24675818 0.11490778 0.33567548 0.1595946 -0.24865176 -0.59099144 -0.16524072 -0.4828577
0.07792421 0.30406463 -0.24948323 0.48443705 0.06907632 0.38665688 -0.5774859 -0.26839417
0.3788017 0.08646016 -0.15797105 -0.4714695 0.26742068 -0.7800629 -0.12410266 -0.8427036
-0.0063026943 0.27496508 -0.13845271 -0.26884156 -0.17948233 0.28697953 -0.679438 -0.66730475
-0.2848322 0.40479198 0.25330633 0.80233026 -0.38307044 0.15987578 -0.17686664 0.5884581
0.23375612 -0.23169717 0.43737546 0.3089837 1.1199898 -0.23278594 -0.30517837 0.8937792
-0.27942774 0.409423 0.3139285 -0.20790382 -0.3454195 0.34842905 0.07443068 -0.18961832
0.011898945 -0.38702855 -0.29263824 -0.15151031 0.17579633 -0.36543086 0.41596442 0.19573413
0.05834529 -0.2966177 0.33561856 0.12715267 0.09223978 0.5391184 0.11231544 -0.17559539
-0.9146272 -0.2648179 0.5860668 -0.3160272 -0.18131822 0.44605035 -0.16117671 0.002273736
-0.0051506227 -0.014677567 -0.02244525 -0.007335249 -0.017251393 0.004419903 0.0015684403 -0.0036056265
-0.018650409 0.02344798 -0.004633182 -0.0029623467 -0.027544277 -0.009374724 0.0050622625 0.0017741135
0.16894424 -0.08810812 0.14080602 -0.14540122 0.32542336 -0.10151018 0.08988954 -0.49044114
-0.42831263 0.044032816 0.1540189 -0.49192643 -0.38697112 0.16343687 -0.20750688 -0.26896298
-0.016007405 -0.39851332 0.054175302 0.12644438 0.55724466 -0.3601223 0.09650901 -0.6799373
-0.20653248 0.32626638 -0.1508794 -0.17055613 -0.51239145 0.4325472 -0.29235545 0.018337017
0.052543726 -0.094397664 -0.21274303 -0.4353466 0.147323 0.15749492 -0.05510732 -0.38699684
0.0048201075 -0.058300346 -0.1166464 -0.27646753 -0.18651965 -0.13311161 0.1386586 -0.47105372
0.45801803 0.3187829 -0.07526431 -0.11240312 -0.049849283 0.38176286 -0.039236497 -0.17218849
0.0797455 0.12819904 -0.14153115 0.34438887 -0.19113062 -0.23890463 0.26892152 -0.34111458
0.3019944 0.06623335 0.039784595 -0.6703468 0.008483309 -0.46628454 -0.06822189 -0.48920426
-0.13436708 0.21894091 -0.3206722 -0.30900165 -0.57640135 0.2633629 -0.13043408 -0.49962538
0.42941943 0.2749379 0.11658305 -0.20968688 0.06645177 -0.21962534 -0.16122808 -0.1684751
-0.4579273 -0.016104346 0.38871232 -0.58683825 0.2746705 0.36653802 -0.5301258 0.021543162
0.1960225 0.082595184 0.35349473 0.364639 0.081950344 0.083366975 0.07094963 -0.1250937
-0.66551095 0.07073151 0.5375669 -0.23401181 -0.17043237 0.29546872 -0.49697778 0.32497433

0.bias f4 [64]
00000000: 19af b4bd 4855 8abc f167 68bd 9c55 8dbe
00000010: 9ce9 ecbe 5470 033e baab a53c 62c7 97bd
00000020: 9249 9ebe cf49 aabe e9fb d7be fa95 963d
00000030: da7c 41be 8fdb 81be 3094 28bd eb32 983e
00000040: 34e4 6bbf c447 0ebf 8f01 b4be 43df 98be
00000050: 661e 07bf 6488 92be 590d 24bf a91a c9be
00000060: 6235 52bc fae2 d2be 0e8b 0abf 028e 943d
00000070: 8b4f b8be 819e 32be 7071 6cbe f764 91bd
00000080: bbbd f9be 85b7 a4bd 7c43 d6be e4a2 58be
00000090: 4c7f 8cbe ee5d d3be ec41 f0be 5f04 3cbb
000000a0: 2e8a e0be c9f7 f7bd 4caf b9be 2f11 98be
000000b0: 9381 a5be 9b23 88be 9cea d9be 6a21 c3be
000000c0: 4c37 a3be 1824 edbc f407 81bf 2f99 49be
000000d0: 68c4 843e 32e9 f7be 07f5 02bf f96d 36bd
000000e0: b346 5dbe a330 f5bd 7fe5 7abe eca9 d3be
000000f0: 9ce0 1abf 86af 0abf ef60 e8bd faf1 36bf
-0.0882246 -0.016886368 -0.05673975 -0.27604377 -0.4627198 0.12835819 0.020223487 -0.07411076
-0.30915505 -0.33259436 -0.4218438 0.073528245 -0.18895283 -0.25362822 -0.041156948 0.29726347
-0.92145085 -0.55578256 -0.3515744 -0.29857835 -0.5278076 -0.28619683 -0.64082867 -0.39278153
-0.01283011 -0.41188794 -0.5411843 0.07253648 -0.35998186 -0.17443277 -0.23090148 -0.07099336
-0.48777565 -0.08042816 -0.41848361 -0.21155888 -0.2744087 -0.412826 -0.46925294 -0.0028689129
-0.43855423 -0.12107808 -0.36266553 -0.2970061 -0.3232542 -0.26589665 -0.42561805 -0.3811143
-0.31878126 -0.028947875 -1.0080552 -0.19687341 0.25931096 -0.484201 -0.5115513 -0.04453847
-0.21609001 -0.11972167 -0.24501608 -0.41340578 -0.60498977 -0.5417408 -0.113466136 -0.71462977

2.weight f4 [128, 64]
00000000: ed7d 66be 52d7 9d3a 9122 bfbd 0f4f 89be
00000010: c63b efbe 047d 60bf ce10 873e e7c7 16bf
00000020: c128 64bd 10d4 5ebf 2ca8 b13e a9fa 0d3f
00000030: 2f5b 05bf d86f 11be 9a71 bebe a089 a4be
00000040: 3ea9 97bf 9dfc 45be 23a7 b6bd 93bc 17bf
00000050: a426 1dbe d460 03bc c176 863e 84e7 a23e
00000060: 6c00 da3d c784 f6bd 147d b63e f6dc 47bf
00000070: a94a 07be 28bd 64bf 54c9 8ebc daab 853e
00000080: 8142 143f f614 213f 3f09 7cbe af88 df3d
00000090: b651 a2bc 0724 91be 23f1 aabe e4ee f03e
000000a0: 5467 e2be 6d5b 12be fbb9 0cbe d01b e63d
000000b0: 4037 1dbf d8ed e9be 91ab 97bd 01b7 95be
000000c0: 7c2a 57bf 4604 263e 51ed 98be 27a1 dabe
000000d0: 1a76 113f 672b ed3d ce06 d4be f5ad 333e
000000e0: 4852 0c3d c3d8 f13d 36b2 d1bd 9934 7abf
000000f0: b736 44be 6469 d5bf d0fd 1b3f 627a e3be
00000100: b37f 9ebe 46f1 2abf d193 83bd b843 1e3e
00000110: 8588 13be 5946 f0be 66ba d0be a5ce e03c
00000120: d8f2 a439 5c27 c63d 97b3 953e 89bd dabd
00000130: 7d1e a6bb ab7c d03e dd2a d1be a188 b63e
00000140: 6610 2abf 6ab0 663e e2d2 8f3c 9e94 cf3e
00000150: 7a19 4fbd c079 473e b1a0 a43e e236 dcbe
00000160: 6f57 22bd c82c 54bf 9630 9e3e 028a f3be
00000170: 184c f9be df98 043f 873b 0dbe bbc4 cabd
00000180: 9cb3 92bf ac5a 6d3e 6117 693e 2fba ebbd
00000190: 3962 3c3e 816d 013f 7543 e73e 3d28 ee3d
000001a0: 1d3e ebbe 684e 07bf 4b32 55bd e71e 73bf
000001b0: f62b cebe fe19 68be 535b a83d 52c4 a9bd
000001c0: 8da0 8c3e 0c73 313e afd0 afbe 0481 ca3e
000001d0: e432 88bd 6bf7 1fbf ad7b aebf a5b0 c93d
000001e0: 4866 003d af39 583e 1956 0f3e 5506 58be
000001f0: 08fc 22be 293f 86be 6a08 d53e 7da2 0c3f
00000200: 6b11 4f3c 576c c0bf affd babd 7b3e 373d
00000210: 23b1 e0be b4c2 6ebf c73f 163f 3ddd e5be
00000220: c1f2 b53d 36ed 97be 44fc 083f e3be b43e
00000230: 4b86 eabc 5f83 093f 3c0b 6bbe 54f3 83be
00000240: 611f e7bd dfa1 43bd f73e a0bd ffdc 68bf
00000250: 2d89 1abf dc4f 7abe ef95 40bf f5dc aa3d
00000260: ebb2 243e 8620 1cbf 48c0 b73e 4311 803e
00000270: 7ef3 02be 517a 8c3e 9941 99bd 98b0 0c3e
00000280: d294 8cbf b8a7 2a3f 9d32 ab3d 4934 7b3e
00000290: d54c 883d 06cf aebe c2e9 3a3e f43c 033f
000002a0: 0d1d 85bf d945 72be b2bb 47be f2d0 35bc
000002b0: 4470 afbe 8c71 bb3c 1d5d 14be 5371 1bbe
000002c0: 7dfc 0b3f 613d c6bd 6c4d 45bf f5cc 463e
000002d0: 1549 6fbf 58e6 1abf 0611 a13d d896 f7be
000002e0: 092a 87bd ecf1 8b3e 1e0f 1abd fd4e 883c
000002f0: 591f d3be be95 e83c b9e8 6cbe 2566 0dbf
00000300: 9f2a 833e 4207 b1be f836 053d d6f7 35be
00000310: 3cc4 50be 334a 31be 10f0 9abb 091e 1bbe
00000320: a2a1 50bc b8db f63e b51f 98bd 9637 90bf
00000330: 9d20 08bf 08b7 7b3b e0be 433e cdd5 1d3d
00000340: a921 3abe 673c b9be fbad aabc 58b5 12bf
00000350: e7ab 08bf 20e1 883d ddfc 8abf 58df b2be
00000360: bd14 91be aafc 3cbe 0fa8 6fbf 101e 593f
00000370: 016a 05bf 9ae7 d5bd d843 00be c6ab c2bd
00000380: c558 903e 0bba 3fbf 9345 0fbf 80c0 8ebd
00000390: 965a a63d de6f f43e 283c 89bf 57c4 12be
000003a0: bc45 e03e d381 0b3e 0b39 27be 623a 1e3f
000003b0: 3db3 cfbc 39b0 4ebf 26a5 3cbe 7503 0cbe
000003c0: 55d3 b83c 8e2b b43d df3c d8bf 9422 fdbe
000003d0: 1546 d1bd aa28 39bf 7a27 2fbf 9116 29bf
000003e0: 8953 783d f299 623e 02a4 25bb cb46 dbbc
000003f0: 0a98 c0bd 9826 3ebf a08f 3c3f 3638 063f
-0.22508974 0.001204232 -0.09332765 -0.2681813 -0.4672529 -0.8769076 0.26380008 -0.58898777
-0.05570293 -0.8704233 0.34698617 0.554606 -0.5209226 -0.14202821 -0.37196046 -0.3213625
-1.1848524 -0.19334646 -0.089185975 -0.59272116 -0.15346771 -0.008018691 0.26262477 0.31817257
0.10644612 -0.12037044 0.35642302 -0.78071535 -0.13212074 -0.8935113 -0.017429985 0.26107675
0.57913977 0.6292261 -0.24612902 0.10914742 -0.019814353 -0.283478 -0.33387098 0.4705726
-0.44219458 -0.14292689 -0.13742821 0.112357736 -0.6141243 -0.45689273 -0.074057706 -0.29241183
-0.840492 0.16212568 -0.29868558 -0.42701074 0.56820834 0.11580544 -0.41411442 0.17546828
0.034258157 0.11808922 -0.10239069 -0.9773651 -0.19161497 -1.6672788 0.6093416 -0.44429308
-0.30956802 -0.66774404 -0.06424678 0.1545552 -0.14407547 -0.4692867 -0.4076721 0.027442286
0.0003146145 0.09675476 0.2923858 -0.10680682 -0.0050695525 0.40720114 -0.40853015 0.35651115
-0.6643127 0.22528234 0.017556611 0.40543073 -0.050561406 0.19480038 0.32153848 -0.43010622
-0.039634164 -0.8288083 0.30896443 -0.4756623 -0.48690867 0.5179576 -0.13792239 -0.099008046
-1.1461062 0.2317912 0.22762825 -0.11510121 0.18396844 0.50557715 0.45168653 0.116287686
-0.45945826 -0.52854013 -0.052049916 -0.9496903 -0.40267915 -0.22666165 0.08220544 -0.08289398
0.2746624 0.17329043 -0.343389 0.39551556 -0.066503316 -0.62486905 -1.3631493 0.098481454
0.031347543 0.21115755 0.13997687 -0.21096165 -0.15916455 -0.26220062 0.41607982 0.5493544
0.01263843 -1.5033063 -0.091304176 0.04473732 -0.43885145 -0.93265843 0.58691067 -0.44895354
0.08884192 -0.29673165 0.53509927 0.35301885 -0.028628489 0.5371608 -0.22953504 -0.25771582
-0.11285282 -0.047761794 -0.078245096 -0.90962213 -0.60365564 -0.24444526 -0.7522878 0.083429255
0.16083877 -0.60987127 0.35888886 0.2501317 -0.12788197 0.2743707 -0.07483215 0.1373924
-1.0982916 0.6666217 0.08359263 0.24531664 0.066552795 -0.3414232 0.18253234 0.5126488
-1.039949 -0.23659457 -0.19505194 -0.01109718 -0.3426534 0.022881292 -0.14488645 -0.15179949
0.5468214 -0.09679676 -0.7707126 0.19414122 -0.9347089 -0.60507727 0.07864575 -0.48357272
-0.065998144 0.2733301 -0.037612073 0.016639227 -0.41234854 0.028391715 -0.23135652 -0.55233985
0.25618455 -0.3457585 0.032523125 -0.17770323 -0.20387357 -0.17313461 -0.0047283247 -0.15148176
-0.012733849 0.48214507 -0.07427923 -1.1266963 -0.53174764 0.0038408656 0.19115782 0.038533974
-0.18176903 -0.36178896 -0.020834913 -0.5730796 -0.533873 0.06683564 -1.0858418 -0.34936023
-0.28336135 -0.18455759 -0.9361581 0.84811497 -0.52114874 -0.10444565 -0.1252588 -0.095054194
0.28192726 -0.74893254 -0.55965537 -0.0697031 0.08122747 0.47741598 -1.0721483 -0.1433271
0.43803203 0.13623743 -0.16330354 0.61807835 -0.025354022 -0.80737644 -0.18422374 -0.13673194
0.022561708 0.0879737 -1.6893576 -0.49440444 -0.10218445 -0.72327673 -0.6841961 -0.6605006
0.06062654 0.22129038 -0.0025274758 -0.026767155 -0.09403999 -0.7427764 0.73656654 0.5242952

2.bias f4 [128]
00000000: 6c07 b83e bef4 b93e c7a5 083f f944 293e
00000010: 6490 513e e1e7 eb3e 8093 043f 7029 963e
00000020: 33b6 b13e b453 e03d d830 053e 070d 913e
00000030: 0480 d63d e0ad a33e 1fa3 5c3e 2f23 b93e
00000040: 1914 3b3e dfe3 bb3d 16d1 d23e dead 1c3e
00000050: 4af0 6c3d 666d 8a3e 0337 863c 3d60 f63d
00000060: c409 873e 7285 f63e a9b7 493e 606a a73d
00000070: df25 303e a9c1 443e 6aa2 f13e 0074 62bd
00000080: 108b d63e 43f3 6ebe 9c9d cb3e 2c77 573e
00000090: 2c14 953e 4b34 0f3f 688f 233e 8354 b83e
000000a0: 7b0a 583c 9f8e dc3d 97d2 b03e 7c72 d43c
000000b0: 94eb 0c3f f16d 4c3f fe2d fc3e f83e f53e
000000c0: 9efc a53e 0aad 3a3e 7ec9 3e3e 005e df3c
000000d0: 9667 a23e 16b8 aa3e ee08 d43e 2c44 053f
000000e0: b25c 2c3e be47 4b3c fec6 993e 0555 05bd
000000f0: 27b8 e23d 9ac6 cc3e 7d85 c93d 87ea 183e
00000100: da2a 7c3e 7cf2 f6bd 49ae cc3e 8969 fe3d
00000110: aafe ce3e 6e87 f53d 090b 36be e17e a23e
00000120: 1e12 1c3e 79b1 153e 21b2 e1bd c2c3 013f
00000130: 7eea 5d3e eb13 a23e 5ab4 2c3e 3b1b 053f
00000140: b61f 083d 9850 cbbe b9be d43d 3e9b 6abe
00000150: 1fdf f53e b83f da3d e339 c43d e522 8f3e
00000160: 2dd6 a63d 058f df3e a8f6 a03e 346d d93e
00000170: 1470 b43e 70c0 5f3d 3c07 8f3c 3280 343e
00000180: 64a4 ce3e 98d5 5a3e a759 713e 88f5 a43c
00000190: 79a0 67bd 3440 743e 921b c4bd d017 83bd
000001a0: 8a1c cf3e 351f b83e 5b9c 4c3e 21cf b13c
000001b0: 1a9b 523e e09f 2d3f f0f6 af3e 5c04 843e
000001c0: c878 133f 8e79 293e 04fb 723e 180c 843e
000001d0: 2979 5bbe 4080 a33e 6f30 163e 0abf 423e
000001e0: 0d04 e83e 6e5a 25be d575 013e 8778 f73e
000001f0: 1a59 bc3e 6872 8f3e a264 b53e 6ebf 8e3e
0.35943162 0.36319536 0.53377956 0.16530217 0.20465237 0.46075347 0.5178757 0.2932849
0.3470932 0.10953465 0.13006914 0.28330252 0.10473636 0.31968594 0.21546601 0.36159655
0.18269385 0.09174322 0.41175145 0.153007 0.057846345 0.2703659 0.016383654 0.12030075
0.26374638 0.48148686 0.19698967 0.08174586 0.17201947 0.192145 0.47194225 -0.055286407
0.4190297 -0.23334984 0.39768684 0.21041554 0.29116952 0.5593917 0.15972674 0.36001977
0.0131860925 0.1076939 0.34535667 0.025933497 0.55046964 0.7985526 0.4925384 0.47899604
0.32419294 0.18230072 0.1863155 0.027266502 0.31719655 0.3334357 0.41413063 0.5205715
0.16832235 0.012407241 0.30034631 -0.032551784 0.110702805 0.3999527 0.09839914 0.14933215
0.24625722 -0.12057969 0.3997672 0.12422473 0.40428668 0.11988722 -0.17777647 0.31737426
0.15241286 0.14618482 -0.110203035 0.5068933 0.21671483 0.3165582 0.16865674 0.51994675
0.033233367 -0.39709926 0.1038794 -0.22910783 0.4802179 0.10656685 0.095813535 0.2795631
0.081463195 0.43663803 0.31438184 0.42466128 0.3524176 0.054626882 0.017459504 0.17627028
0.40359795 0.21370542 0.23569356 0.02013661 -0.056549523 0.23852617 -0.09575571 -0.06401026
0.4045146 0.3596131 0.1998152 0.021705212 0.20566979 0.67822075 0.34368086 0.25784576
0.5760617 0.16550276 0.23728567 0.25790477 -0.21432938 0.31933784 0.14666913 0.19018188
0.4531559 -0.16147777 0.12642606 0.48334143 0.3678673 0.28016973 0.3542834 0.27880424

4.weight f4 [784, 128]
00000000: 3094 b1be 8123 86be 40b5 42bf f808 8bbf
00000010: a4b2 2cbe d1c0 7dbe dcae 00bf 05be a4bc
00000020: 634f a8be 9a20 f8bd 1f68 77bd a52e 963d
00000030: 3af4 773d a0df 17bf c36b 48bd 8ea1 8dbe
00000040: df9f 013e b1cd 1dbe 4306 ba3e fcf6 69be
00000050: ee39 11bf fdcf d0be 5b1e f1bf 44c1 163d
00000060: a8f9 883e 8efd 9abe 1277 64be d264 30bf
00000070: 3d08 28bf 38eb 60bf 7052 0abf a092 67bd
00000080: b427 8cbe 03f8 59bf e984 07bf 06c9 cfbe
00000090: 71a4 13bf b2fe 0dbf 1438 b5bd 6f21 23bf
000000a0: 321f 11bf 9f07 f5bd 1f7b 9ebe e9af 8abf
000000b0: 3912 c4bd 0665 453d 0b3a dfbe 788b 02bf
000000c0: 16dd 343d ad31 e9bd 8fdd 38bf d00a 75be
000000d0: 1efe 82bd 0439 61bd f258 ffbe 0f73 a3be
000000e0: 7f39 04bf 1b8d c9be 66e1 18bf 9987 01bf
000000f0: b170 23bf e11d 11be 03ad 6cbe 0971 c6be
00000100: fd56 d6be c93c 0dbc 049a 96bf 4ed9 fcbd
00000110: 4948 9cbe 0b3b 7cbf 9ad3 e6be d8e6 2bbf
00000120: 9055 54bf 346a 11bf d23a c03d 071c 21bf
00000130: e54b 4bbf 4612 d1be 4d75 98be b65e 543d
00000140: 394f e03d 14ff 22bf ed61 73be 415c 853d
00000150: 353d f0be ca66 25bf 6380 05bf fcfa 92be
00000160: 65ca c9be 3cda 48bf 67c1 39bf dd65 77be
00000170: d4b8 0ebf f21b 3f3c c0d9 b7be e9b4 023f
00000180: f921 e0be 77e0 63bf 3997 bdbe 3528 26bf
00000190: 48f8 14be d87b 0fbf c8e1 c2be adc2 37bf
000001a0: 366b bfbe 73c1 a7be 6c1e 37be e80d e7be
000001b0: e83d 1cbf 6d55 db3d 9440 cabe ef70 8bbf
000001c0: edda 0abf ec10 a1be 51d6 ccbe ea10 55bf
000001d0: 34b4 3ebe 41ee d6be 31cb 04be 934f 56bd
000001e0: 1679 cabe 7b38 9abe 2506 b3be b276 69bf
000001f0: b924 60be 695b 36bf cd93 e0bd 6375 96be
00000200: c675 debd 6d35 70be f197 0fbf d4f6 8cbf
00000210: 3b01 9bbe 69a9 1dbf 7e44 bfbe 2d72 56bf
00000220: 9d85 89bf bd7c 59be 44a0 28bf b520 65bf
00000230: c86f 5dbd 300e 26bf a8f5 f7be e711 dbbe
00000240: 8468 ae3c fb91 f1be c6cc 323b f7f9 30bd
00000250: 6cd0 103d 9cd3 a0bd bcfc 0dbf da5d f2bd
00000260: cce2 1abd 492c 88be 646e dcbe 3cec 68be
00000270: c696 75bf 35bc 88be a9f3 edbc cad8 903d
00000280: 33c8 bc3e 5358 03bf 3f18 c3bd b426 063d
00000290: 86c1 dbbe e010 62be 1c94 02bf 3b28 cdbe
000002a0: 3698 8dbe 2e9c 343f fcd4 8fbe ccda 2abe
000002b0: 6f00 4fbf 2125 19bf cf24 80bf 0b21 00bf
000002c0: 2e24 63bf a7cc 7fbe dc8c f2be 3d77 153e
000002d0: ab71 80bf aa94 21bf 1a7d ccbe e15c 05bf
000002e0: 980d e5be 6271 803d fc1c f9be 5b48 d1be
000002f0: c11c edbe 4f63 2abd 319b cabe 9032 6bbf
00000300: 7253 e6be cde9 27be adbe 2ebf 1bfe fdbc
00000310: 8f87 bcbe 2fda c7be 45b7 e2bd a01d bebe
00000320: f6c0 31bd d0b6 8dbf aa4a 00bf 96c3 ae3e
00000330: 1006 a33d 99fa 14bd a703 39bf e163 bd3d
00000340: d095 573d 9148 2fbe 5bb2 65bf 3204 1bbe
00000350: ea5b 44bf 408a 1cbf 79d4 85be b75a 16be
00000360: 0503 373e 0bab 09bf 342f 73be a0f8 0fbf
00000370: 27b2 9d3e c9e5 66be a272 fcbd 8122 83be
00000380: c035 753e 68a0 4ebf 9a35 c5bc 9e86 18be
00000390: 0be3 693d 26b9 bfbe e546 01be e037 713e
000003a0: d4be 80be 3036 b6be dc8b 06bf c932 a0be
000003b0: fdde a2be 370c 0bbf 2ae4 7bbf 0237 dabd
000003c0: 992f d03d e96e 2fbf a0ec 50bf 8621 6ebf
000003d0: 6a52 623c 0bf3 c7be 51c1 13bf bff6 3bbd
000003e0: 806c 07bf b40c 61be 0dab ecbe e1a2 d9bc
000003f0: 2794 d4be 643e cabe 4618 26bf c031 1bbd
-0.3468337 -0.26198962 -0.76057816 -1.0862112 -0.16865021 -0.24780585 -0.50266814 -0.02011014
-0.32873067 -0.12115593 -0.060402032 0.073331155 0.060535647 -0.593256 -0.048930895 -0.2766232
0.12658642 -0.15410496 0.36332902 -0.22848123 -0.5672902 -0.40783682 -1.8837389 0.036805406
0.26752973 -0.30271572 -0.22311047 -0.6890384 -0.6563757 -0.87858915 -0.5403204 -0.056536317
-0.2737404 -0.8514406 -0.5293718 -0.40583056 -0.5767279 -0.5546676 -0.08848587 -0.6372289
-0.56688225 -0.11964344 -0.3095331 -1.0834934 -0.09573788 0.048192047 -0.4359897 -0.5099406
0.044156156 -0.11386428 -0.7221307 -0.23929906 -0.06396125 -0.054986015 -0.49872547 -0.3192372
-0.5165023 -0.39365467 -0.5971893 -0.5059753 -0.6384383 -0.14171554 -0.23112874 -0.38758114
-0.41863242 -0.008620449 -1.1765752 -0.12346135 -0.305239 -0.9852759 -0.45083314 -0.67149115
-0.8294306 -0.5680268 0.09386219 -0.6293339 -0.7941268 -0.40834254 -0.29776993 0.051848136
0.109526105 -0.6367047 -0.23767824 0.06511737 -0.46921697 -0.6460997 -0.5214903 -0.2870711
-0.39412227 -0.78458 -0.72560734 -0.24159952 -0.55750775 0.0116643775 -0.35908318 0.51057297
-0.4377592 -0.8901438 -0.37029436 -0.649051 -0.14547837 -0.56048346 -0.38062882 -0.71781427
-0.37386483 -0.32764778 -0.17882699 -0.45127797 -0.6103196 0.10709653 -0.39502394 -1.089384
-0.54240304 -0.31458223 -0.4000726 -0.83228934 -0.1862343 -0.41978648 -0.12968136 -0.05232198
-0.39545506 -0.30121216 -0.34965625 -0.9119674 -0.21889009 -0.7123323 -0.10965691 -0.29386434
-0.10862307 -0.2345788 -0.5609122 -1.1012826 -0.30274376 -0.61586624 -0.37356943 -0.8376797
-1.07439 -0.2123899 -0.65869546 -0.8950303 -0.05406168 -0.648654 -0.48429608 -0.42787096
0.021290071 -0.47181687 0.00272827 -0.043207135 0.035355017 -0.07852861 -0.5546377 -0.11834307
-0.037813947 -0.26596287 -0.4305297 -0.22746366 -0.95933187 -0.2670609 -0.02904685 0.07072599
0.3687149 -0.5130665 -0.09526109 0.032751754 -0.42921084 -0.2207675 -0.51007247 -0.40069756
-0.2765519 0.7055081 -0.28092182 -0.16685027 -0.80860037 -0.5982228 -1.0011233 -0.5005042
-0.8872708 -0.24980412 -0.47373092 0.14596267 -1.0034689 -0.6311747 -0.39939195 -0.52094847
-0.44736934 0.06271626 -0.48654926 -0.40875515 -0.46311 -0.041598614 -0.39571527 -0.9187403
-0.4498554 -0.16397782 -0.682597 -0.031004956 -0.36822173 -0.39033648 -0.11070112 -0.37131977
-0.043396913 -1.1071415 -0.5011393 0.34133595 0.07960141 -0.0363718 -0.722712 0.09247566
0.052633107 -0.17117526 -0.89725274 -0.15138319 -0.7670275 -0.6114845 -0.26138666 -0.14683042
0.17872246 -0.53776616 -0.23748475 -0.56238747 0.30799982 -0.22548594 -0.12326552 -0.25612262
0.23946285 -0.8071351 -0.02407341 -0.14895102 0.05710129 -0.37445945 -0.126247 0.23556471
-0.2514559 -0.35588217 -0.5255716 -0.31288746 -0.31810752 -0.54315513 -0.98395026 -0.10655023
0.101653285 -0.6852861 -0.8161106 -0.930199 0.013813594 -0.39052615 -0.5771685 -0.045889612
-0.5289993 -0.21977502 -0.4622425 -0.026566925 -0.4151928 -0.39500725 -0.6488079 -0.037889242

4.bias f4 [784]
00000000: eda4 1cbf 878e 1fbf ba4a 19bf 3e15 42bf
00000010: 512a 6abf 6bdc 18bf 174a 36bf 25f4 14bf
00000020: 76d1 2ebf 2285 2bbf fdcc 07bf cf23 3cbf
00000030: 2f44 51bf adde 21bf 378a 14bf 1216 e8be
00000040: 6862 53bf 155d 37bf 702a 31bf f0cf 06bf
00000050: 1bee 0dbf b29c 3dbf 8f1b 20bf 3dfe 2bbf
00000060: 213f 22bf c626 35bf 020a 0fbf 6d9b 59bf
00000070: 9818 25bf 1b93 24bf 19fb 39bf 4635 25bf
00000080: 9eca 29bf ee30 2fbf 73f5 0abf 7f0a 05bf
00000090: aa6a 32bf 259f 1fbf 64af f2be d30e 12bf
000000a0: 48ee 16bf c57b ddbe c0a7 04bf bae7 3bbf
000000b0: 80e2 f0be 9d17 27bf 6a72 30bf 10c5 1dbf
000000c0: ed28 2dbf 9fd4 1abf eb25 52bf 375f 2cbf
000000d0: bbbf 49bf 2062 30bf 277a 0ebf ecd3 39bf
000000e0: d758 24bf 8ccd 0ebf a55a 15bf b07f 19bf
000000f0: d5ba fbbe 71b6 04bf c577 35bf cd80 2cbf
00000100: 9179 51bf 8e3f 1bbf 34ab 43bf ace5 17bf
00000110: 7223 2ebf 447c 2dbf 1975 fdbe 8d95 e2be
00000120: dae6 43bf a570 56bf 39c2 19bf bcbd 2dbf
00000130: ff4c 1ebf 21f2 c8be fb21 eabe 3e7f 15bf
00000140: 570d 32bf 0545 43bf cce9 1bbf 3f9f 2dbf
00000150: 1be0 11bf 014f 42bf 900e 3cbf 2f93 1dbf
00000160: 6d29 d6be fc57 35bf 0d5a 11bf 34ff 28bf
00000170: f117 46bf b13e 2dbf 32f1 39bf 913a 1cbf
00000180: 5d19 edbe 3a2a 17bf 558c 21bf 0201 12bf
00000190: 7973 e2be a65b 08bf 24b3 9abe da64 abbe
000001a0: 67a7 b3be f38b fcbe 4220 31bf c66f f4be
000001b0: 793e 26bf b574 15bf 8daa 49bf 0c59 1abf
000001c0: e7e4 18bf 2e46 1ebf a3c8 16bf a31a 36bf
000001d0: c2a1 f2be ec62 e3be 7888 3fbf d7a5 41bf
000001e0: c07b 08bf e775 0abf c534 d6be 6dea a6be
000001f0: 6d07 85be f99e 33be fc5b a4be 3b0f 78be
00000200: 1546 8fbe 8225 b6be 733f 84be e5da 86be
00000210: 97db 85be 0cce a8be 62f5 d8be 08b8 f9be
00000220: d7e1 0dbf f6cb 18bf d97a d2be 5236 e0be
00000230: 2075 1dbf 614c 23bf beae 1dbf 095e 29bf
00000240: 6368 24bf ff41 5ebf 5845 3cbf 9c1c 72bf
00000250: 734a 24bf 9c20 e4be 1b1b b2be 1a76 97bd
00000260: 2889 e53c 4e6c 25be 6d83 0ebd 11b9 6a3d
00000270: aa25 4fbd 3edd 14bd 21e1 1abc e63c 873c
00000280: 5dd3 9abe 9b07 bfbe 805b dfbe e648 d0be
00000290: f45a 1abf b1a9 0bbf 03fa 0bbf c43c c6be
000002a0: c7be 41bf ee1e 1dbf 1b4d 06bf 9b3b 17bf
000002b0: 4a18 45bf 3904 22bf b77c 42bf a055 0bbf
000002c0: 473b 0abf e85f c0be fe6c 89be 2cc4 2cbe
000002d0: e374 c5bd 78a6 b2bd 686d 7d3c 3718 31bb
000002e0: 9a54 933d 6a6e e0bc f703 83bc 6edf 34be
000002f0: 949a adbe 8a48 97be de94 dbbe ef27 93be
00000300: 517c cebe 55ea 3bbf 175b bcbe f674 0dbf
00000310: 6535 1fbf 668b 2abf 91e0 39bf faed 45bf
00000320: aa3e 3dbf 020f 4abf 9b80 16bf b6c3 17bf
00000330: cd44 e5be 6cd3 d1be 796a 1cbe 565e 52be
00000340: 3ed4 aabd 982e 52bd 2243 9ebd 5859 b63c
00000350: e98e 023e 33f2 cd3b 6f43 f5bd fcca 39be
00000360: 2b17 83be 1674 b5be c142 94be c0f0 58be
00000370: 1e0d 48be c928 20bf a317 28bf f79f 15bf
00000380: aaca 32bf 2854 37bf 4e07 2abf ab07 1fbf
00000390: e74d 6bbf 4af2 4bbf ad80 2fbf 1ff1 11bf
000003a0: 8629 b1be 303d 81be 6728 f6bd c726 6dbd
000003b0: cf87 d23c 5d2c 9c3c 2823 5d3c a4b7 1f3d
000003c0: 0caf ac3d 6155 3c3d 73f2 a83d ee25 51be
000003d0: 5516 d7be e82a c9be cbc1 a8be 63e7 c0be
000003e0: eb7f edbe 1d85 febe cfdd 1fbf c97f 17bf
000003f0: bf16 0cbf 1a6e 34bf 645c 39bf 1bac 59bf
-0.61189157 -0.62326854 -0.5987965 -0.75813663 -0.9147082 -0.5971133 -0.712068 -0.58185035
-0.6828836 -0.6700002 -0.5304716 -0.7349214 -0.81744665 -0.632304 -0.580234 -0.45329338
-0.8257203 -0.71626407 -0.6920538 -0.5266104 -0.55441445 -0.74067223 -0.6254205 -0.6718481
-0.6337758 -0.7076229 -0.55874646 -0.85002786 -0.6449065 -0.64286965 -0.7264877 -0.64534414
-0.66324794 -0.68434036 -0.54280776 -0.5196914 -0.69694006 -0.6235221 -0.47399437 -0.5705387
-0.5895734 -0.4325849 -0.51818466 -0.7340046 -0.47047806 -0.65270406 -0.6892458 -0.6162882
-0.6764057 -0.60480684 -0.8208911 -0.67332786 -0.7880818 -0.68899727 -0.5565514 -0.7258899
-0.6419806 -0.5578239 -0.5834144 -0.5996046 -0.4916598 -0.51840883 -0.7088588 -0.67384034
-0.8182612 -0.6064385 -0.7643311 -0.59334826 -0.68022835 -0.6776774 -0.495034 -0.44254723
-0.76524127 -0.8376563 -0.60061985 -0.67867637 -0.61836237 -0.3924723 -0.4572905 -0.5839728
-0.69551605 -0.7627719 -0.6090362 -0.67821115 -0.5698258 -0.759018 -0.7345972 -0.6155271
-0.4182848 -0.7083738 -0.5677803 -0.6601441 -0.7738028 -0.67673784 -0.7263366 -0.61026865
-0.46308413 -0.5904881 -0.63104755 -0.5703279 -0.44228724 -0.53264844 -0.30214798 -0.3347538
-0.35088655 -0.49325523 -0.69189847 -0.47741526 -0.64939076 -0.58381206 -0.78775865 -0.60292125
-0.5972428 -0.61825836 -0.588999 -0.71134394 -0.47389036 -0.4441141 -0.7481761 -0.75643677
-0.5331383 -0.54086155 -0.41837135 -0.32600728 -0.25982228 -0.17541112 -0.32101429 -0.2422456
-0.27983156 -0.3557549 -0.25829658 -0.26338878 -0.26144096 -0.329697 -0.42374712 -0.48773217
-0.5542273 -0.5968622 -0.4110935 -0.43791443 -0.61506844 -0.6378842 -0.6159476 -0.6615911
-0.6422178 -0.8681945 -0.7354331 -0.94574904 -0.641761 -0.4455613 -0.34786305 -0.07395573
0.028019503 -0.16154596 -0.034793306 0.0573054 -0.05057303 -0.036343805 -0.009453089 0.01650853
-0.30239382 -0.3731049 -0.43624496 -0.40680617 -0.60295033 -0.54555804 -0.5467836 -0.38718235
-0.7568173 -0.6137532 -0.52461404 -0.59075326 -0.7699019 -0.63287693 -0.7597155 -0.5442753
-0.539967 -0.3757317 -0.26840967 -0.16871709 -0.09641435 -0.08723158 0.015467979 -0.002702249
0.07193871 -0.0273964 -0.015993102 -0.17663357 -0.33906996 -0.2954753 -0.42887014 -0.28741404
-0.4032922 -0.7340444 -0.36788246 -0.55256593 -0.6219085 -0.66618955 -0.72608286 -0.7731625
-0.7392374 -0.7892915 -0.58789986 -0.59283006 -0.44779053 -0.40981615 -0.15274991 -0.20543799
-0.08341263 -0.051313967 -0.07727648 0.0222594 0.12749828 0.006284976 -0.119757526 -0.18143839
-0.25603613 -0.3544013 -0.2895718 -0.21185589 -0.19536254 -0.62562233 -0.65661067 -0.5844721
-0.6984049 -0.7161279 -0.66417396 -0.62121075 -0.91915745 -0.7966658 -0.6855572 -0.57008547
-0.34601992 -0.25241995 -0.12019425 -0.05789831 0.025699524 0.019064123 0.013497151 0.038993493
0.08431825 0.04597986 0.082493685 -0.20424625 -0.42009225 -0.39290547 -0.32960352 -0.37676534
-0.46386656 -0.49710932 -0.6244783 -0.5917936 -0.5472221 -0.704805 -0.724066 -0.8502824
