Gcnn_8.ckpt (torch_old, 83121 bytes, 19 tensors)

upsample.0.weight f4 [8, 32, 5, 5]
000000 53 89 9a 3d c2 a2 8f be 4a 9b 6a bd d8 98 2a be
       0.07545724 -0.28053862 -0.057277 -0.16659868
000010 60 45 47 3c 97 62 01 be 46 02 8d bd 72 8a 7a be
       0.012162536 -0.12635265 -0.06885199 -0.24466875
000020 5b bb f1 3d 6c ad 84 ba 65 9d e2 3e a5 b8 ac bd
       0.11803313 -0.0010122485 0.44260707 -0.08433656
000030 b9 36 97 3e 5a 42 14 3e 2e 99 0f be d3 fe f8 bc
       0.29533938 0.14478436 -0.14023277 -0.030394947
000040 a7 82 98 bc b0 31 3e bd 2d 85 41 3c 61 8c fc 3d
       -0.018616987 -0.046434104 0.011811537 0.12331463
000050 bc 64 2b 3c 45 24 cd bc e2 19 5c be 21 0d 15 bd
       0.010461029 -0.025041709 -0.21494249 -0.036389474
000060 df 44 01 3e 1c b0 e4 3d a4 88 0c be 10 c2 9d bc
       0.12623928 0.11166403 -0.13724 -0.019257575
000070 5b f2 9c bd 02 3f 6d 3e f7 aa 32 3d cf e6 9a bc
       -0.07663413 0.23168567 0.043620076 -0.018908886
000080 ba 6b 9c 3d a2 ff 26 3d 2b 95 86 be 99 de 11 3e
       0.07637735 0.040771134 -0.2628568 0.1424507
000090 90 7b dc 3c 39 e4 0b 3e ca cc 7d 3d a5 25 f6 bd
       0.026914388 0.13661279 0.06196288 -0.12018899
0000a0 ff ea 4b 3e c3 82 f1 3d a2 4c 87 bd ac d0 21 3e
       0.19913863 0.11792519 -0.066064134 0.15802258
0000b0 17 04 98 3d 20 66 4b 3b d8 31 ee 3d 07 0d bf bc
       0.07422655 0.0031036213 0.11630601 -0.023321642
0000c0 98 5f 66 be ea 3d ce bd a1 28 5e 3e 68 d7 0f be
       -0.22497404 -0.10070403 0.21695186 -0.14047015
0000d0 b0 88 67 be ef a9 9a bd 5d d7 87 3c 5b ad 29 3e
       -0.22610736 -0.075519435 0.016582185 0.16570036
0000e0 de 60 8e bd d8 5f 1d be 48 19 d1 bc 9c 4d 92 bd
       -0.0695207 -0.15368593 -0.02552475 -0.07143709
0000f0 fd 7d 5a bb f7 b9 0f 3d 57 fb 1a bc dd 2a ab 3d
       -0.0033339255 0.03508946 -0.009459338 0.08357785
000100 62 cc 42 be b3 2c 16 3d 71 5c 08 3b 61 b0 be 3d
       -0.19023278 0.036663722 0.0020807052 0.09310985
000110 5b 89 7b be 65 ad 46 be 43 a4 6e 3e a1 3a 7f be
       -0.24564116 -0.19402082 0.23304848 -0.24924709
000120 a0 ea 5f bd b1 e1 af bd 70 3e 16 be ef d8 32 be
       -0.054667115 -0.08587969 -0.14672256 -0.17465566
000130 a5 bb 12 be 65 fc c3 bd 2c d6 97 bd d6 3f 7a 3d
       -0.14329393 -0.09569625 -0.07413897 0.061096035
000140 2b b9 8b bc 28 75 99 bd 88 68 55 be 59 6a f9 bc
       -0.017056068 -0.07493049 -0.20840657 -0.030446218
000150 08 f1 95 3c 93 b5 4f 3e a1 1c 07 3e ec 29 31 be
       0.01830341 0.20284109 0.13194515 -0.17301148
000160 0f 72 3b 3e 77 54 81 bd 8d 2f bf 3c b7 ea 6f 3d
       0.18305229 -0.063149385 0.023338104 0.05857345
000170 5a b2 d7 3d fd e4 84 bd 2c d2 1f be df 41 b1 bd
       0.10532065 -0.064889885 -0.15607518 -0.08655142
000180 4c f1 8f be 77 31 ca 3d fc 06 e3 3d 86 9f aa 3d
       -0.28113782 0.09872716 0.110853165 0.08331208
000190 3d 4d b2 3d d6 c5 0f 3e 71 d7 e4 bc 39 d5 03 3e
       0.08706138 0.14040312 -0.027934762 0.12874307
0001a0 51 0f c0 3d ad 93 14 3e 0b c1 f9 3d 89 d6 89 bd
       0.093779214 0.14509459 0.12195023 -0.067303725
0001b0 33 e6 49 3d 62 ca 86 bd 15 cb 2b 3e 17 35 f2 bd
       0.0492918 -0.0658157 0.16776688 -0.11826532
0001c0 51 23 ab bc ff e4 c3 3d 8d 7a 94 be ce 7d 31 bd
       -0.020890864 0.09565162 -0.2899975 -0.043332867
0001d0 94 c7 69 3d 0b 1c 01 be 82 55 ac 3d 20 0b 6f be
       0.0570751 -0.12608354 0.08414747 -0.23344088
0001e0 1c 7e b1 be fc 8f 19 3e e7 ae 85 bd ce be b9 bd
       -0.34666526 0.14996332 -0.065275006 -0.09069596
0001f0 ec fb f2 bc ee 62 3c 3e 06 30 c9 bc 95 2c 4d 3d
       -0.029661141 0.18397114 -0.024559032 0.050091345
000200 f3 9e b0 bd e4 11 81 bd 00 73 29 3e 6e 95 f1 bc
       -0.08624067 -0.063022405 0.16547775 -0.029490199
000210 2d f8 56 3d 48 16 52 bd ae f9 d9 bc 4f 6b 76 3d
       0.052482773 -0.05129078 -0.026608314 0.06016093
000220 82 e6 03 be 24 13 e1 bc 37 93 0e be 16 b4 5a bd
       -0.128809 -0.027474947 -0.13923346 -0.0533944
000230 b3 18 f4 bd 11 fd bf 3d 64 58 9f 3d 28 6c a4 bd
       -0.119187735 0.093744405 0.07780531 -0.08028442
000240 4a 81 69 be d2 9e ad be 7f 88 9a 3d fe b9 94 be
       -0.22803226 -0.33910233 0.07545566 -0.2904815
000250 22 1a 4c 3e a8 7c 7b be 77 98 3a 3d 9c 36 7a be
       0.19931844 -0.24559271 0.045555558 -0.24434894
000260 52 f6 34 3d 51 ed 50 3e 1b 91 52 be ae 13 db bc
       0.04418022 0.20403029 -0.20563166 -0.026742782
000270 ae 49 8a bc 7a 0d 11 3d e1 42 59 be 30 a1 32 3c
       -0.016880836 0.035413243 -0.21216919 0.010902688
000280 67 1e 97 bc 61 22 9d bb bc 61 4b be 03 70 88 3d
       -0.018447114 -0.004795358 -0.19861501 0.066619895
000290 f0 ef fa bc 5d 93 1e bd 52 92 58 bb b1 f8 5f be
       -0.03063199 -0.038714755 -0.0033046198 -0.21872212
0002a0 de 16 38 bc 09 cc 12 3e 41 67 be 3d 25 e9 33 3c
       -0.011235921 0.14335646 0.09297038 0.010980879
0002b0 50 5f 90 be 5b 7e 18 bd 95 70 d6 bd 2c 58 a1 be
       -0.28197718 -0.037229877 -0.10470692 -0.31512582
0002c0 ee 38 e1 3d a8 83 f1 3d 0f 8b 72 3e 25 49 71 3e
       0.109971866 0.117926896 0.23685859 0.23563059
0002d0 05 19 17 be b3 8b 89 bd 71 40 78 3d 8a 82 35 bd
       -0.14755638 -0.06716099 0.06060833 -0.044313945
0002e0 3d c2 8c 3e 0e fc 58 3d dd de 02 3d 15 2f 84 3d
       0.27491942 0.052974753 0.03195082 0.06454293
0002f0 5e 81 db bd a0 d6 f5 bd 3d 13 46 3b 47 90 5f bd
       -0.10718034 -0.12003827 0.003022387 -0.054580953
000300 cc 32 06 be 5b db a2 bd 43 cb 00 3e 87 02 84 3d
       -0.13105315 -0.07951995 0.12577538 0.064457946
000310 6a 35 51 3e 6a d3 38 be 17 35 28 be 50 34 77 3e
       0.20430532 -0.18049398 -0.16426502 0.2414105
000320 8c 22 47 bd c5 36 9d 3d 3a 93 53 3d fc 8a 28 3e
       -0.04861693 0.07676462 0.051654078 0.16459268
000330 23 86 6d be 80 01 12 3e 44 4b cd 3d 87 b4 25 3d
       -0.231957 0.14258385 0.100241214 0.040455367
000340 17 63 b1 bc 75 b0 4f bd 95 c6 8d 3d 3c 27 85 3d
       -0.021653695 -0.050705392 0.06922642 0.06501624
000350 7d a4 1a 3d fd 35 91 be 78 f9 e8 bd 70 c2 b8 3d
       0.037754524 -0.28361502 -0.113757074 0.09021461
000360 10 87 1a 3e 53 25 67 3d 5f 61 29 bd 0f 9a 62 bd
       0.15090585 0.05643208 -0.041352626 -0.055322703
000370 05 40 95 3c 3d 14 5a be fc 1b 28 be ac 81 97 3e
       0.018219003 -0.21296783 -0.16416925 0.2959112
000380 a5 d8 e1 3d 52 b2 83 bd d1 a7 a5 be f1 d5 5c bd
       0.1102765 -0.06430496 -0.32354596 -0.053914968
000390 84 f4 4a 3d 8a 9a 56 3d 8c a6 de 3d b2 3a 8e be
       0.049549595 0.052393474 0.1087161 -0.27779156
0003a0 6b d8 dd bd 62 81 ad bc 4a 8c 81 bc ca 15 48 3c
       -0.10832294 -0.021179859 -0.015813965 0.012212226
0003b0 b9 e1 61 bd e1 c3 90 3d 70 4c 97 3c 0f 50 26 be
       -0.055146907 0.07068611 0.018469065 -0.16241477
0003c0 2f 56 fd 3d 36 2f 50 3d 12 a5 82 3d e5 83 9e be
       0.12369954 0.050826274 0.06379141 -0.30960003
0003d0 86 a9 ed bd 23 d6 a7 3d a1 1c 0d bd d9 21 a0 3a
       -0.116046 0.0819514 -0.03445113 0.0012217119
0003e0 bb 75 d7 be 40 df fb 3d 82 3e 03 3d 75 38 48 3e
       -0.4208201 0.12298441 0.032042034 0.19552787
0003f0 22 9e 25 3e a4 e2 ae 3e 1c f5 46 be 97 65 ae bd
       0.16173604 0.34157288 -0.1942944 -0.085154705

upsample.0.bias f4 [32]
000000 25 47 ad bd d5 12 6d bd 91 d3 a2 bd 24 b1 9a bd
       -0.08460835 -0.057879288 -0.07950509 -0.07553318
000010 61 22 39 3d 07 6e ec 3d c6 cf 2b 3e 39 43 a9 3b
       0.045198802 0.115444236 0.16778478 0.0051654843
000020 7f 17 13 3e ec 2e 34 3e 7a 86 dd 3d c9 90 72 3d
       0.14364432 0.17596024 0.10816665 0.05922011
000030 c6 68 93 3e 0b 12 bb bd 11 c1 5d be 12 21 3b 3d
       0.28790873 -0.09134301 -0.2165568 0.045685835
000040 c3 86 63 3e 0f 4b 77 3c 68 b9 18 bd 8c 9e 13 3e
       0.22219376 0.015093579 -0.037286192 0.1441595
000050 aa 60 a6 bd 74 35 34 3e 31 c1 04 3e 53 aa 14 3c
       -0.08123906 0.17598516 0.12964322 0.009073812
000060 73 0b e4 bc 64 9a 61 bc 98 36 d8 3b 3e 1e 8b bc
       -0.02783749 -0.01376972 0.006598305 -0.016982194
000070 35 f0 12 be 23 45 4b 3e ec fd b4 3d 7b 5f dd 3d
       -0.14349444 0.19850592 0.08837494 0.10809227

upsample.1.weight f4 [32]
000000 6d 8c 4d be ac c1 02 3f 0d 07 17 3f 1f 8d 21 3f
       -0.200731 0.5107677 0.58995134 0.6310596
000010 94 53 ea 3e 21 ca 17 3f 97 45 4d 3f 10 bb 19 3f
       0.4576689 0.592928 0.8018431 0.6005106
000020 61 b2 22 3f cf d9 3e 3f 14 8c 20 3f 5d d3 19 3f
       0.63553435 0.745511 0.6271374 0.6008814
000030 68 bd e3 3e c7 83 fb 3e 04 5e 1c 3f be fe 0c 3f
       0.44480443 0.49123976 0.61080956 0.55076206
000040 03 ee 9b 3e b3 d4 46 3f 65 8a d9 3e a5 fb 30 3f
       0.30455026 0.77668303 0.424884 0.6913398
000050 2a c9 13 3f 12 f4 96 3e 96 6e 2c 3f 15 58 25 3f
       0.57728827 0.29483086 0.6735624 0.6458753
000060 0d 96 41 3f 41 21 23 3f de 36 fe 3e 74 70 41 3e
       0.75619584 0.63722616 0.49651235 0.18890554
000070 a2 4a 2d 3f a0 56 ed 3e 33 27 0a 3f 59 52 ec 3e
       0.67692006 0.46355152 0.53966063 0.46156576

upsample.1.bias f4 [32]
000000 60 e2 16 3e aa 86 a0 bd 66 65 35 be 4b 85 48 be
       0.14734793 -0.07838185 -0.17714462 -0.19582097
000010 6d 29 2b be 90 83 1d be 75 0a f8 be 60 a7 81 be
       -0.16715021 -0.15382218 -0.48445478 -0.2532301
000020 f5 cc 18 be cc 15 d7 be ab e4 71 be b7 60 98 be
       -0.14921935 -0.42008817 -0.23622386 -0.29761288
000030 b5 0b f8 bd ad 61 fe bd 1d 3b c9 be 1c 16 50 be
       -0.12111608 -0.12420974 -0.39302912 -0.20320934
000040 3c 0c 27 3d ec b7 e4 be e8 95 b8 bd 14 6a d4 be
       0.040783152 -0.4467157 -0.09012967 -0.4148718
000050 2c 1a bd be e2 a7 ce 3c ea 06 18 be 2b a5 99 be
       -0.3693403 0.025226537 -0.14846388 -0.30008826
000060 8f 71 81 be 5a a3 84 be 68 53 0f be 5c e1 8d 3e
       -0.2528195 -0.25905877 -0.1399666 0.27710998
000070 ba e7 9a be 62 38 52 be 24 04 1c be c7 5f 18 be
       -0.30254918 -0.20529321 -0.15235955 -0.14880286

upsample.1.running_mean f4 [32]
000000 53 00 b0 bd 4b 2c 71 bd 0e 8e 9f bd 4e de 9b bd
       -0.08593812 -0.05888013 -0.07790767 -0.07610761
000010 e2 eb 3c 3d 0a 3b ed 3d 5d 19 2c 3e c4 b8 7e 3b
       0.046123393 0.115835264 0.1680655 0.0038867453
000020 a6 b3 10 3e 5e 09 34 3e 80 18 dc 3d 74 fb 72 3d
       0.1413103 0.17581698 0.107468605 0.059321836
000030 97 f6 93 3e d0 22 b8 bd cb af 5d be 37 3b 39 3d
       0.2889907 -0.08991015 -0.21649091 0.045222487
000040 b9 85 65 3e 0b a0 5a 3c 67 85 1b bd ef 8e 17 3e
       0.22414292 0.013343821 -0.03796902 0.14800619
000050 78 c6 a8 bd 82 89 39 3e f0 d5 05 3e cd 8b 24 3c
       -0.0824098 0.18118861 0.13069892 0.010043097
000060 92 3f eb bc 74 19 45 bc 69 f8 da 3b a6 15 5f bc
       -0.028716836 -0.012029994 0.006682445 -0.013616001
000070 82 5f 12 be 9f d1 4c 3e e7 65 b1 3d f8 29 e0 3d
       -0.14294246 0.20001839 0.086620145 0.10945505

upsample.1.running_var f4 [32]
000000 f3 c2 64 3e 25 1a 77 3e 30 54 47 3e fd 60 3a 3e
       0.22339992 0.24131067 0.19465709 0.1820106
000010 da 22 41 3e cd 81 57 3e 48 86 42 3e 9c 2e 5d 3e
       0.18860951 0.21045609 0.18996537 0.21599811
000020 63 2d 50 3e f3 f9 51 3e b0 8a 55 3e 3a b7 34 3e
       0.20329814 0.20505504 0.20853686 0.1764802
000030 a1 91 4b 3e 35 84 60 3e c1 a9 49 3e 87 cd 36 3e
       0.19879772 0.21925433 0.19693662 0.1785184
000040 2b 4c 77 3e a3 8b 43 3e 25 25 58 3e 31 5f 41 3e
       0.2415015 0.19096236 0.2110792 0.18883969
000050 4b 3b 4d 3e 9e fe 5a 3e fc d4 6f 3e c5 d2 42 3e
       0.2004215 0.21386191 0.23421091 0.19025715
000060 55 48 59 3e 42 3c 59 3e 77 f3 53 3e 57 5f 6a 3e
       0.21218999 0.21214393 0.20698343 0.22887932
000070 63 cb 5e 3e aa 04 49 3e 05 44 40 3e c6 cf 45 3e
       0.21757273 0.19630685 0.18775947 0.1931754

upsample.3.weight f4 [32, 16, 5, 5]
000000 39 bb b2 bd b3 aa 4a bb 70 c5 22 be 8b 76 76 3e
       -0.08727116 -0.0030924499 -0.15895629 0.24068658
000010 0a 4e 9d bd a7 9b d4 3c 7b 1c 71 3d 5d 23 c9 bc
       -0.076809004 0.025953127 0.05886505 -0.024552995
000020 94 5f 00 3e c6 d0 1f 3d 7f 50 3d be cc 10 bf bd
       0.1253646 0.03901746 -0.18487738 -0.093293756
000030 f2 57 ee 3d 5f db 6c 3d bd 2c 31 be 9a 10 d3 bd
       0.11637868 0.057826396 -0.17302223 -0.10305901
000040 6b ed 6b be 6e 60 81 3d f1 8d 71 be 42 25 69 b9
       -0.23039787 0.06317221 -0.23589303 -0.00022234491
000050 f5 20 ea be fd d7 df be 01 7d bf bd 77 2f 87 bd
       -0.4572827 -0.43719473 -0.093500145 -0.0660085
000060 96 cd ee 3c a2 3e bf 3d 92 70 86 bd 30 84 21 be
       0.029150765 0.09338118 -0.0656444 -0.15773082
000070 98 e5 57 3d 30 c0 1c 3b 54 9c b8 3d a0 6e 59 bd
       0.052709192 0.0023918264 0.09014192 -0.053084016
000080 fb 09 26 3e 64 d0 e2 bd f9 90 00 3e 39 24 b8 bd
       0.16214745 -0.110749036 0.12555303 -0.08991284
000090 7f 0c 6b bd 60 87 8a bd 8b 37 d3 3c 43 b0 2d bd
       -0.057384964 -0.06764102 0.02578332 -0.042404424
0000a0 3c 85 3b 3e e6 b0 d8 be 6e b4 77 3c 19 81 1e be
       0.18312544 -0.42322463 0.015118701 -0.15478934
0000b0 2f 2f c4 be a9 cd 24 3e 33 7b 04 3e ee 87 d9 bc
       -0.38317248 0.16094078 0.12937622 -0.026554074
0000c0 b1 ec 2d bd a0 5a 07 be 6d 1e 24 3e 1b d8 8d 3d
       -0.042462055 -0.13218164 0.16027232 0.069259845
0000d0 7c 75 23 be 91 07 d2 bd a0 a0 c1 3d 89 66 50 3b
       -0.15962785 -0.102553494 0.09454465 0.0031799397
0000e0 b6 ec c1 3d c6 bb 52 bd a9 35 02 bd 70 e4 52 3d
       0.09468977 -0.051448606 -0.031789456 0.051487386
0000f0 a4 da 04 3e b2 a0 d1 3d db b7 25 be 6b 8c 31 be
       0.1297403 0.10235728 -0.16183417 -0.17338721
000100 30 06 37 bd ea 80 8b bd b7 2d a3 bd ad 21 80 bc
       -0.044683635 -0.06811698 -0.07967704 -0.015641058
000110 4d 72 9c bd 1c a7 c8 bd bf 5c 57 3e 8e 23 88 3d
       -0.07638989 -0.097974986 0.21031474 0.066474065
000120 00 7c 08 3e a3 41 43 be b4 53 07 be 0c b5 67 3d
       0.13328552 -0.19068007 -0.13215524 0.056569144
000130 a2 65 31 3e 9b 29 58 3e ce 06 85 3c d7 6f 90 be
       0.17323926 0.21109621 0.016238596 -0.28210327
000140 57 57 a0 bd 06 c1 ab 3e b3 a0 a4 bd ec 43 af 3d
       -0.07829159 0.33545703 -0.080384634 0.08557877
000150 49 e5 9f be e3 3a 63 3d 10 36 ba 3c 47 fc 96 3e
       -0.31229618 0.05547608 0.022730857 0.29489347
000160 94 57 15 be 15 32 3e 3e 3b c5 c6 3d 47 eb 20 bd
       -0.1458419 0.18573792 0.097055875 -0.039286878
000170 b8 c8 e8 3c 17 31 a7 bd c5 e1 2f bd 52 61 ad bd
       0.028416023 -0.0816366 -0.04293992 -0.08465828
000180 79 a8 05 3c 67 f8 b1 bc 15 92 7e bd 13 98 c3 be
       0.008157843 -0.021724893 -0.062151033 -0.3820196
000190 a7 43 bc bd e3 50 21 3e 1a bc 9a 3e bf 3d 56 3e
       -0.09192591 0.15753512 0.30221635 0.20921992
0001a0 ce 93 97 3c fa 87 76 3e 0b 7a 5b 3e 32 da 92 bd
       0.018503096 0.24075308 0.21433274 -0.07170524
0001b0 f0 8c b0 be 70 4c 4b bd e3 ed ba 3d e3 97 52 3e
       -0.34482527 -0.049633443 0.091274045 0.20565753
0001c0 6d fb 9a 3c 15 5e 45 3e ca 61 02 3e ea bc 9c bd
       0.018918717 0.1927417 0.12732616 -0.0765322
0001d0 dc fa 0f bf 8d 6f 9c 3e 2b 45 18 3e 86 80 54 3e
       -0.56242156 0.30553856 0.14870135 0.20752153
0001e0 a9 fd c9 be 17 e4 d7 be e1 3a f3 3d c9 6a 8e be
       -0.3945134 -0.42166206 0.11876465 -0.27815846
0001f0 d7 6c 04 be 12 37 28 3d a9 dc b9 bc c0 d7 6d 3d
       -0.12932144 0.041068144 -0.022688227 0.058067083
000200 e1 7f b5 bc 37 26 40 be af 86 0b be 34 df 42 3e
       -0.022155704 -0.18764578 -0.13625596 0.19030458
000210 7a 45 a2 3e 5d 1f 10 3e 66 a0 34 3e 5a a7 30 bd
       0.3169363 0.14074464 0.17639312 -0.04312835
000220 00 16 ab bd 6b ad 79 3e ff 16 d2 3d 18 85 cd bd
       -0.083538055 0.2438256 0.102582924 -0.10035151
000230 83 30 ac bd 44 eb 65 3c 29 9b 7c 3e 45 85 a5 be
       -0.084076904 0.0140331425 0.24668564 -0.3232824
000240 1d 0c 64 be 63 d8 19 be fd f2 78 3e fc b8 70 3c
       -0.22270246 -0.15023951 0.24311443 0.014692541
000250 70 67 f9 bd e7 18 13 3e ef e9 01 bf 87 8a 37 be
       -0.12177932 0.14364968 -0.5074758 -0.17923938
000260 b3 1b b1 be e4 0a 3f be 85 b2 69 be 9e d4 19 be
       -0.34591445 -0.18656498 -0.22822006 -0.15022513
000270 f8 94 26 bd ec 99 7b 3d e2 94 4c be 86 06 43 3c
       -0.04066941 0.06142609 -0.1997867 0.011903411
000280 47 e4 9c bd d9 df 2c be d6 14 8b be bf ef d9 bc
       -0.07660728 -0.16882266 -0.27164334 -0.026603578
000290 db 7f 82 be 07 7b 85 bd 61 3f 5b bd 48 e3 b3 be
       -0.2548817 -0.06517606 -0.05352724 -0.3513434
0002a0 5c e2 6d 3d 7c f2 85 be 28 2f a0 3e a3 93 6d 3e
       0.0580772 -0.26161563 0.31285977 0.2320085
0002b0 24 f2 95 3d a2 77 e4 3e d4 6c 09 3f 9f 99 80 3e
       0.07321575 0.44622523 0.53681684 0.25117204
0002c0 82 ec f6 3d 57 06 38 be 40 ce d4 3d 84 62 ca 3d
       0.12056829 -0.17971168 0.103909016 0.098820716
0002d0 d3 6d 76 3d e7 e6 81 be 84 1a a0 bb 45 46 cd bc
       0.06016333 -0.25371477 -0.0048859734 -0.025057921
0002e0 c8 dc 54 3e 2d 72 0b bd 46 6b b4 be 75 70 d7 3c
       0.20787346 -0.034044433 -0.35238093 0.02629874
0002f0 d8 73 cd 3d a2 31 b0 3d f5 53 01 3d 3d 06 0e 3c
       0.10031861 0.08603217 0.03157421 0.0086684795
000300 a3 f7 0a be 5d b5 eb 3d bd 8b 42 be db 5e 4d be
       -0.13571028 0.11509202 -0.18998618 -0.20055716
000310 c1 88 9f be 58 de 63 3d a7 bf 99 3e d2 7d a1 bd
       -0.31159022 0.055631965 0.30029032 -0.078853264
000320 de 7a 80 3d b2 dc 52 bd 60 4c 72 bc 4a 42 b0 bd
       0.06273435 -0.051480003 -0.014788717 -0.08606394
000330 1c 1c 5e bc 48 40 21 bb fc 39 38 bd 8b b2 92 bd
       -0.0135565065 -0.0024604965 -0.044977173 -0.071629606
000340 15 5a 06 3d 18 03 7b bd 94 5d 30 be 76 7e 17 be
       0.032800753 -0.061282247 -0.17223197 -0.14794335
000350 6a cc 82 bd e3 4b 40 3d d7 4c 63 bd 26 58 05 be
       -0.06386645 0.04694737 -0.055493202 -0.13021907
000360 e8 9f 0a be 27 b8 e8 bd 15 6a 0b be a1 43 81 bd
       -0.13537562 -0.11363249 -0.13614686 -0.06311727
000370 72 ae 6f 3d 23 46 16 be 3f d4 83 bd 0b aa 44 be
       0.058515973 -0.14675193 -0.06436967 -0.19205491
000380 c6 b6 1e be 8d bb 88 bd 0a 85 cb bb 41 a8 1f 3e
       -0.1549941 -0.066763975 -0.006210928 0.15591528
000390 22 25 2c 3e d3 b0 82 3d 1d 25 f4 bc 93 76 fc bd
       0.1681104 0.06381383 -0.029802853 -0.12327304
0003a0 b7 d6 e5 3d 03 8d 88 3e 8a 2b 26 be 8b d6 e7 bd
       0.11222594 0.26670083 -0.16227546 -0.11320218
0003b0 a5 c4 68 be 9e 23 c3 bd c8 9b f9 3c 75 34 9c 3c
       -0.22731264 -0.09528278 0.03046979 0.019067982
0003c0 33 2a e5 bd d4 37 59 be 6e 00 8a 3d 12 30 e0 3b
       -0.111896895 -0.21212703 0.06738363 0.006841668
0003d0 00 fd 88 bc 01 74 43 bc 0a fb 11 be d9 66 7c 3e
       -0.016722202 -0.011929513 -0.1425592 0.24648608
0003e0 6a cf 88 3e cf 07 18 bd 11 47 d0 3d 60 2c ba 3c
       0.26720744 -0.03711682 0.10169805 0.022726238
0003f0 f4 0f d0 bd 17 f0 9b 3d 4a 55 8a be f1 0c ce 3d
       -0.10159293 0.07614153 -0.27018195 0.10061062

upsample.3.bias f4 [16]
000000 1b 38 f5 3d 8e 5d 0f be 9c 21 9a bd 58 1d d5 bb
       0.11973592 -0.14000532 -0.07525942 -0.006503742
000010 a7 88 07 3e 29 f2 40 3e d2 6d cd 3d 94 54 8a 3d
       0.13235722 0.18842377 0.10030712 0.06754413
000020 f7 d1 c2 3d f8 ae 8e 3d ea cd c4 3d 86 3b f2 bd
       0.09512704 0.069669664 0.096095875 -0.118277594
000030 5b 6c da bb ff e2 b4 bd 05 95 02 3e 1c 4c a5 3a
       -0.006665749 -0.088323586 0.12752159 0.0012611183

upsample.4.weight f4 [16]
000000 62 f9 56 3e e8 10 df 3e ff 99 f4 3e 42 ad e3 3e
       0.2099357 0.43567586 0.4777374 0.44468123
000010 4f 81 85 3e 6e 21 f3 3e f4 8b 34 3f 1b 46 20 3f
       0.26075217 0.47486442 0.7052605 0.6260697
000020 b9 dd 42 3f c9 51 22 3f de d1 f4 3e a6 59 47 3f
       0.7611957 0.63406044 0.47816366 0.7787117
000030 a0 ce ab 3e 6e bc 11 3f f9 f7 17 3f 87 0f df 3e
       0.3355608 0.56928146 0.5936275 0.43566534

upsample.4.bias f4 [16]
000000 45 62 b1 3b b7 54 7b be 87 04 fd bd f9 2f 95 bd
       0.005413326 -0.24544035 -0.12354379 -0.07284541
000010 29 67 8e bd b2 e6 3c be e0 8a 97 be 6a c2 be be
       -0.0695327 -0.18447378 -0.2959814 -0.372577
000020 48 45 b6 bd 49 4d 81 be 4a ed 55 be fa 74 0b be
       -0.08899933 -0.25254276 -0.208913 -0.13618842
000030 c5 fd 33 be b2 78 54 be ba ff 68 be 0b 8c 84 be
       -0.17577274 -0.20749167 -0.22753802 -0.25888094

upsample.4.running_mean f4 [16]
000000 24 c0 ba bd a2 ad f6 be 5e 27 a1 be 84 1a 94 be
       -0.09118679 -0.48179346 -0.31475347 -0.2892648
000010 9f 80 03 be 56 72 1a bd 18 48 d4 be 22 2e b8 be
       -0.12842034 -0.037706695 -0.41461253 -0.35972697
000020 a2 dc 7c be 5d 70 5a be bb 8b 83 be d8 b4 e6 be
       -0.2469354 -0.21331926 -0.25692543 -0.45059848
000030 a8 4a 88 be 76 f8 ef be a6 ec 4c be 99 c9 0f be
       -0.26619458 -0.46869248 -0.20012149 -0.14041747

upsample.4.running_var f4 [16]
000000 7c 96 87 3e 90 3d b2 3e 94 ee ad 3e 13 92 04 3f
       0.26481998 0.34812593 0.33971083 0.5178539
000010 2c ec bc 3e 2c c8 a0 3e 7b e0 69 3f 9b 5c 10 3f
       0.36898935 0.3140272 0.91358155 0.56391305
000020 85 a2 c7 3e e2 2d b0 3e 76 bb d6 3e 0d e2 bb 3e
       0.3899118 0.34410006 0.41939896 0.366959
000030 df 95 a7 3e 7c 62 b4 3e 75 44 a4 3e 7c 49 ac 3e
       0.3273153 0.35231388 0.3208348 0.33649814

upsample.6.weight f4 [16, 4, 3, 3]
000000 d1 08 1f 3e 6b f9 6e 3e bf 07 10 3e 33 1b a9 3d
       0.15530707 0.23337333 0.14065455 0.08257141
000010 76 f6 ec 3d c4 73 5a 3d 8b 60 7e 3d bf cb 78 3d
       0.11570446 0.05333306 0.06210379 0.060741182
000020 35 4b 86 3d c5 55 1c bd b9 c2 2a 3d d1 c1 81 bd
       0.06557313 -0.038167734 0.04168961 -0.06335796
000030 c9 1e 19 bd fa 38 79 3e a8 29 53 3e c6 18 f3 3d
       -0.037382875 0.24338141 0.2062136 0.118699595
000040 3f 79 7e bc 89 f5 7c 3e 1d 2d 3b 3e 7c 85 8e 3e
       -0.015531837 0.24703039 0.18278928 0.27836215
000050 37 2b 3b 3e 17 ea ab 3d 60 61 66 3d 6c 20 49 3c
       0.18278204 0.083942585 0.056245208 0.012275796
000060 3c a9 90 3d bb 7a c9 3c a8 a8 29 3d 82 bf 35 3e
       0.07063529 0.024594655 0.04142061 0.17748836
000070 8b 78 7b 3e 61 07 8a 3e 2b b4 1e 3e 11 21 70 3d
       0.24557702 0.26958755 0.15498416 0.058625285
000080 d8 9e e1 3d 43 6d 1f 3e c5 41 9d 3d fa 68 58 3d
       0.11016625 0.15569024 0.0767856 0.05283449
000090 d6 77 48 bd 89 31 86 3d 9d 6a 08 3e ee 65 59 be
       -0.04894241 0.06552417 0.1332192 -0.2123029
0000a0 33 71 4e be da 5f aa bb 0a be d1 be a8 b7 98 be
       -0.2016037 -0.0051994147 -0.409653 -0.2982762
0000b0 0f f1 3d bd c7 4f e1 bc 57 c1 5f be c6 08 98 3d
       -0.04637247 -0.027503861 -0.21851097 0.074235484
0000c0 cc b9 52 be 3f 64 13 3e 03 e6 31 3e ea c7 f6 bd
       -0.20578688 0.1439371 0.17372899 -0.12049849
0000d0 5c 6f 27 be 20 ff a7 3d 71 f9 33 be b1 52 b4 bd
       -0.16351074 0.08202958 -0.17575623 -0.08804835
0000e0 f6 20 8a 3d 5e 2a ba bd 80 d4 04 3d 15 76 1b 3e
       0.06744568 -0.09090112 0.03242922 0.15181763
0000f0 1c 9b ec be 49 43 40 be d4 06 4d bd 4e 16 f6 bd
       -0.4621209 -0.18775667 -0.05005534 -0.12015973
000100 b4 57 50 bd 63 59 1a 3e f5 18 96 be e5 bf b4 3c
       -0.05086489 0.15073161 -0.29315916 0.022064159
000110 17 7d 0e 3e 4e 7d 17 bf 99 fe 34 bf 44 d9 59 be
       0.13914905 -0.59175575 -0.70700985 -0.21274287
000120 f4 c9 f8 bd ce e2 8c be 7f af b0 bd 3a d3 55 be
       -0.121478945 -0.27516788 -0.08627223 -0.20881358
000130 27 ab f5 be b4 7c f2 bd d8 fc 19 be 15 16 44 be
       -0.4798214 -0.118401915 -0.15037858 -0.19149049
000140 0a 50 e2 3c 4a 8e dd bc 08 76 d8 be 82 89 a9 3c
       0.027626056 -0.027045388 -0.4227755 0.020695452
000150 95 19 06 bf db f3 e4 3d 60 df 05 bf 47 ae 2b bd
       -0.52382785 0.11179324 -0.5229397 -0.04191425
000160 8c b6 8c be ad 6b 36 3d 47 06 d1 bd b2 79 d4 be
       -0.27483022 0.04453628 -0.102062754 -0.41499096
000170 7b 35 ff bd 04 04 03 bf d8 4b 97 3d 4b 0c 07 be
       -0.124613725 -0.51178 0.07387513 -0.13188283
000180 c4 a2 70 be e9 14 66 be e6 9b 98 3d 0d 85 ba bc
       -0.2349959 -0.22468914 0.0745161 -0.022768522
000190 11 cc 81 be 70 e6 04 be b6 a9 5d be a7 2e 4a 3d
       -0.25351003 -0.1297853 -0.21646771 0.049360897
0001a0 d2 a6 3b be 9e 09 83 be e4 fb d8 be b1 67 10 bd
       -0.18325356 -0.25593275 -0.42379677 -0.035255138
0001b0 c8 fc 78 3d 0d 4f 6e 3d d8 53 d0 3d f1 6b eb 3d
       0.060787946 0.058180857 0.10172242 0.114951976
0001c0 49 e3 c2 3d d9 34 fd 3d 4c 36 e2 3c bc 98 03 3e
       0.095160075 0.123635955 0.027613781 0.12851232
0001d0 da 8f 14 3d f0 5d e4 3d a9 ae b7 3b 7b 53 7c 3d
       0.03627 0.1115073 0.005605538 0.06160305
0001e0 5c ab 66 3e e6 22 1a 3e 24 cb c3 3e cf e1 2c 3e
       0.22526306 0.15052375 0.38240921 0.16883014
0001f0 e1 fd 9c 3e 84 36 85 3e d8 25 ed 3d 34 bf b8 3d
       0.30662444 0.26018155 0.11579484 0.09020844
000200 54 06 3a 3e 56 97 59 3e 41 a4 d1 3d a4 e1 95 3e
       0.18166476 0.21249136 0.10236407 0.29273713
000210 0d 08 3e 3d fe 8e 00 3e c8 f6 9a 3d 09 4d cb 3d
       0.046394397 0.12554547 0.07566601 0.09926803
000220 7e 29 ae 3d c5 a2 e4 3d 25 51 0e 3e 13 db 91 3d
       0.08504008 0.11163858 0.13898142 0.07121863
000230 0c ae 76 3e cf 3e c3 3d 25 3f d4 3d 15 34 3d 3e
       0.24089831 0.09533464 0.10363606 0.18476899
000240 a6 2c cb 3d da b3 41 3e fb 2c 7c 3d 59 34 81 3e
       0.099206254 0.18916264 0.061566334 0.2523525
000250 74 ee 52 3e 6c d6 32 3e f7 d0 9b 3d a0 8a f7 3d
       0.20598775 0.17464608 0.07608216 0.120869875
000260 a4 43 32 3b 4c ae 1c 3e 05 63 89 3e 07 5b 6b bc
       0.0027200961 0.15300864 0.26833358 -0.014364964
000270 8b 6e ba bd 5a 1b 69 bd 0c c7 88 3d 8e 21 08 be
       -0.09103116 -0.05691085 0.0667859 -0.1329405
000280 5b d5 c7 bd 0a 35 4a 3c 0a 48 ba 3d 0b 2f 19 3e
       -0.09757491 0.012341747 0.090957716 0.14959352
000290 f6 c6 3a 3d cb e4 8d 3d 80 64 a2 3d 37 66 c8 3d
       0.0455999 0.069284044 0.07929325 0.09785121
0002a0 34 44 d4 3d c7 9b c6 3d 4c 54 ca 3b 97 22 a0 3d
       0.10364571 0.09697681 0.0061745998 0.078190975
0002b0 7d 7f 29 3e 72 5a 05 3e cd 81 87 3e 5e c6 90 3d
       0.16552539 0.13022783 0.26466218 0.070690855
0002c0 04 48 fd 3d 16 3e 9a 3e 9b d2 95 3e 1a 77 22 3e
       0.123672515 0.30125493 0.29262242 0.15865746
0002d0 b4 82 23 bd b8 7c 01 be b5 d8 1d be 97 36 24 be
       -0.03991957 -0.12645233 -0.15414698 -0.1603645
0002e0 93 88 f5 be 7a 54 a8 be 25 fe 4d be a5 4a c5 be
       -0.4795576 -0.3287695 -0.2011648 -0.38533512
0002f0 17 12 9b 3c c3 0d 71 bd a7 e1 60 be 2c aa bf 3c
       0.018929524 -0.058851015 -0.2196108 0.023396574
000300 e4 5d 67 be 29 cf e0 3d 1d b1 df be 59 2a 83 3c
       -0.2259441 0.10977013 -0.43689814 0.016011404
000310 f3 ad 1e bf b5 35 63 3c 56 69 e2 3c 3e 71 0a bf
       -0.61984175 0.013867785 0.027638119 -0.54079044
000320 76 57 9b be d1 40 2d bf 00 6f 4b 3d 83 90 a8 bd
       -0.30340165 -0.67677027 0.049666405 -0.082306884
000330 83 14 a9 be 24 f8 62 be df 95 07 bd 1d 6f 5d bc
       -0.33023462 -0.2216497 -0.033101913 -0.013515261
000340 1a c3 50 be 91 c7 46 be c7 d7 35 be b5 15 13 3d
       -0.20386925 -0.19412066 -0.17758094 0.035909373
000350 34 e8 08 bf 06 d8 84 be 17 c3 e5 be 07 f6 9e be
       -0.53479314 -0.25946063 -0.44875404 -0.3104708
000360 e6 d0 e2 3d 89 b9 11 3d 9a d9 85 bd 59 79 28 3e
       0.110750005 0.03557733 -0.06535645 0.1645254
000370 bd 10 d9 bc 5f fc a2 bc 2d 98 fd 3c 53 11 1a bd
       -0.02649724 -0.01989573 0.030956352 -0.037614178
000380 a8 9c e6 bd 94 e7 74 3d 7f 6d aa 3e 08 50 bf bc
       -0.112603486 0.059791163 0.33286664 -0.023353592
000390 f8 86 08 be ef 3a aa 3d 15 e6 cd bd cf 2e 64 bd
       -0.13332736 0.08312022 -0.1005365 -0.055708703
0003a0 a6 4b 02 3e 7d c3 42 be 8c d1 4f 3e aa 27 0b 3e
       0.1272417 -0.19019885 0.2029478 0.1358935
0003b0 9c aa 0e be 50 16 a9 3e a8 ff fa bb a6 f6 64 be
       -0.1393227 0.33024836 -0.007659871 -0.22359714
0003c0 e0 c7 77 3d 8c 55 08 be 69 f0 a5 be 3c 33 54 3e
       0.06049335 -0.13313884 -0.3240998 0.2072267
0003d0 07 27 89 3e 0d 45 58 3d 13 4b 89 3e 9f 30 f4 3b
       0.26787588 0.052800227 0.2681509 0.007452085
0003e0 db c5 e7 3c f5 0b 26 3e d2 fb 0f 3e df af 67 bd
       0.028292587 0.16215499 0.14060906 -0.056564208
0003f0 fe 4f fc bd 5d 73 e6 bd 33 7a b8 bc d3 18 fe bc
       -0.12319945 -0.112524725 -0.022519207 -0.031017696

upsample.6.bias f4 [4]
000000 cc 64 cc 3d b9 04 21 be 54 4f 45 3b 27 e6 00 3e
       0.09980163 -0.15724458 0.0030107098 0.12587796

upsample.7.weight f4 [4]
000000 f1 0e 94 3f 09 e3 37 3f 27 5a c8 3f e4 fe c1 3f
       1.156706 0.71830803 1.5652512 1.5155911

upsample.7.bias f4 [4]
000000 5c 78 75 bf 73 44 05 3e 89 26 56 bf b1 32 58 bf
       -0.9588678 0.13014393 -0.8365255 -0.8445235

upsample.7.running_mean f4 [4]
000000 14 f4 a1 be 5b 05 d0 be fd c5 cf be 53 7b 96 be
       -0.3163153 -0.40629086 -0.4058074 -0.29390964

upsample.7.running_var f4 [4]
000000 fb b0 07 3e d2 d0 86 3e 8d 57 74 3e 3f 12 87 3e
       0.13251106 0.26331192 0.23861523 0.26381108

upsample.9.weight f4 [4, 1, 2, 2]
000000 1e 8b e5 3f d2 02 ab 3f 30 84 c1 3f 2c 44 40 40
       1.793308 1.3360236 1.5118465 3.004161
000010 21 12 d3 be d4 3b b7 be e5 78 ed be 9e 38 c0 be
       -0.4122477 -0.35787833 -0.46381298 -0.37543195
000020 62 54 af bf fe 96 93 be f5 37 34 be 82 49 3f 3f
       -1.3697627 -0.28826135 -0.17599471 0.7472154
000030 b8 ce 19 40 e4 31 89 3f 23 57 78 3f 85 d1 45 be
       2.403242 1.071835 0.9700796 -0.19318207
