Gcnn.ckpt (torch_old, 262321 bytes, 19 tensors)

upsample.0.weight f4 [64, 32, 5, 5]
000000 40 34 2b 3d a9 95 d2 3d d1 53 00 bd 76 b0 04 be
       0.041797876 0.10282452 -0.031329934 -0.1295794
000010 43 1a 0d be 41 7a d0 bd c0 1d 6b be 06 e9 17 3d
       -0.1377955 -0.10179568 -0.22960567 0.037087463
000020 62 53 7f bc 63 35 92 3c af 18 52 bd 33 11 95 3d
       -0.015583845 0.017847722 -0.05129307 0.07278671
000030 fb 22 58 bc 1f 5d 11 3d 20 ee 30 be bb 75 13 bd
       -0.013191934 0.035489198 -0.17278337 -0.03600095
000040 59 4d af 3c dd e2 b4 3d 93 d7 2a 3e 0d ae d5 3c
       0.021399187 0.08832333 0.16683798 0.02608397
000050 92 40 84 ba 2e 63 64 be c7 d8 6e bd 8f fb 0c bc
       -0.0010090044 -0.22303459 -0.058312204 -0.008604898
000060 d4 13 04 3d 5a e6 95 3d 8b 61 b6 3d 41 29 0d 3e
       0.032245472 0.07319327 0.089053236 0.13785268
000070 19 17 0a 3e 29 a4 9f 3c 89 43 9d bc fc 42 0c 3e
       0.13485374 0.019487457 -0.019197242 0.13697428
000080 c5 8c 06 3d 43 b8 fb bc 5f 2e 62 3d 0b 74 bb 3d
       0.032849092 -0.030727511 0.055220004 0.09152993
000090 8d 14 cd bd 45 5a c8 3d 9b 8e 8a 3d e3 ec f0 bb
       -0.100136854 0.097828425 0.06765481 -0.007352458
0000a0 8b 46 46 3d 3e 61 ab 3d bb 68 12 3e 97 98 4a 3d
       0.04840712 0.08368157 0.14297764 0.049461927
0000b0 d1 46 80 3c 5e 1b 91 3d 0f 66 96 3d c3 04 8f 3d
       0.015658768 0.07085298 0.07343685 0.0698333
0000c0 aa 90 ae 3c 22 b7 45 3d 1e 41 06 bc 93 22 c2 bc
       0.021309216 0.048270352 -0.008194236 -0.023698127
0000d0 c7 bd 18 bd 03 c9 9b 3d ef 09 2e bd c6 79 4c bd
       -0.03729036 0.07606699 -0.042489942 -0.04992082
0000e0 7e 83 ad bd ae 43 05 3e 9a 96 0d 3e 90 64 6e 3d
       -0.08472346 0.13014099 0.13826981 0.058201373
0000f0 05 39 da 3b db 4f b6 3d 06 5d 1d bd 05 ca 99 3d
       0.0066596293 0.0890195 -0.038418792 0.07509235
000100 f4 3a 13 3d a6 c7 d2 3d 80 81 62 3d 49 10 d8 3d
       0.035944894 0.10291986 0.055299282 0.10549981
000110 d2 12 33 3e 00 b1 95 3d 26 67 27 3e 60 88 79 3d
       0.17487648 0.07309151 0.16347942 0.060921073
000120 5e 6c 61 be 9e 0d b4 3d cf 22 10 bd 74 0a 93 bd
       -0.22013995 0.0879166 -0.035189446 -0.07179728
000130 7b a7 b3 bc 78 4b 42 bd 7c f5 80 bd 7c 60 d2 3c
       -0.021930447 -0.047435254 -0.062968224 0.025680773
000140 59 6d fd bc 95 08 9d 3d d7 c9 61 3d d3 1b 25 3d
       -0.03093593 0.076676525 0.05512413 0.04030974
000150 8b 3a ad 3d 91 71 0e 3d f4 43 ec 3d be 74 de 3b
       0.08458432 0.034776274 0.115363985 0.006788819
000160 fb fd a6 3c e9 23 ae bd 66 4c 60 3d 52 44 5c b9
       0.02038478 -0.08502943 0.05476036 -0.00021006286
000170 84 1a 9e 3c 68 09 16 be 7b 94 37 be 3f 0e 44 bb
       0.019299753 -0.14652026 -0.17927735 -0.0029915718
000180 9f 96 b4 bc 4f b3 f1 bd 74 e0 3a 3e a1 3b 8e bc
       -0.022044478 -0.118017785 0.18249685 -0.017362418
000190 26 2f 03 3c e7 3c cb bd c3 41 94 bc cc 3b bd bb
       0.0080068465 -0.099237256 -0.018097764 -0.0057749506
0001a0 a2 dd 4c 3c 43 20 23 bc 71 39 85 3d 0e 0a a0 bc
       0.012504013 -0.009956422 0.06505097 -0.019536044
0001b0 90 bd 9f 3c 44 6e ae 3d ea 4b 85 3b 86 70 5b bd
       0.01949957 0.08517125 0.0040678876 -0.053574108
0001c0 71 a5 0d 3d 6e a3 ea 3d f7 f3 69 3e e4 db 9c 3d
       0.034581605 0.11456953 0.22846971 0.07659128
0001d0 d3 cb e5 3c 21 1a 63 3d fa 56 67 bd 42 a0 b0 bc
       0.028051293 0.05544484 -0.05647943 -0.021560792
0001e0 71 a8 ab bd a3 da 1d bb f7 50 d5 3d 41 9b 3f 3d
       -0.08381737 -0.0024086616 0.104158334 0.04677892
0001f0 63 09 af 3c 90 05 dd 3d 71 d0 0f bd d3 a4 9f bd
       0.02136678 0.107920766 -0.035110895 -0.077951096
000200 59 a6 f0 bc 90 82 36 be 74 25 3e bd 06 22 71 3b
       -0.029376196 -0.17823243 -0.046422437 0.0036793961
000210 cd 6f 8d 3b 09 82 b8 bc ea b0 c9 3d 59 28 76 3d
       0.004316306 -0.022522943 0.09848197 0.060097072
000220 c4 93 50 bd 3a b3 1b 3d 94 da d8 3d 68 e9 10 be
       -0.05092217 0.03801272 0.105885655 -0.14151537
000230 d5 a7 a1 3d 2a ce 7d bd c2 57 82 3d 27 d2 00 3e
       0.078933395 -0.06196419 0.06364395 0.12580167
000240 23 85 f3 bd 1e b4 f0 bc 08 ca 36 be 6f e5 70 bd
       -0.11890628 -0.029382762 -0.17850506 -0.058812555
000250 c4 eb 93 3d 41 05 9f bc b1 f9 bb ba 66 a5 82 bc
       0.07222703 -0.019411685 -0.0014341382 -0.015948009
000260 c3 e4 f7 ba b5 a8 0a bd c7 3c 0b 3d f3 65 ad bb
       -0.0018912781 -0.033852298 0.03399351 -0.0052916943
000270 85 1b fb 3c 9f 43 85 bd f3 4e a2 bd 19 77 00 bd
       0.03065277 -0.06507038 -0.079252146 -0.03136358
000280 37 bf b1 3b d7 98 90 bd f5 cf e8 3c 5c e3 2c 3d
       0.005424406 -0.07060402 0.028419474 0.042209014
000290 e3 fe 28 3d 9c e9 93 3d b9 f1 b7 bc cf 7a 02 3d
       0.041258704 0.07222292 -0.02245413 0.0318554
0002a0 0a 4e 1d bd 19 7e 7a be c9 8e 05 3e db da 80 3e
       -0.038404502 -0.24462165 0.1304275 0.25166973
0002b0 dc dc 56 3d d0 ba 2e 3d d5 ad b7 3d 3b 27 46 be
       0.05245672 0.042658627 0.08968703 -0.19350903
0002c0 ca f7 c3 bc ff 42 9e bd 96 b8 1c be 72 e0 43 3e
       -0.023921866 -0.07727622 -0.15304789 0.19128588
0002d0 79 12 d2 3c 70 97 38 bd b2 2e 86 bc c9 6c 2c 3d
       0.025643574 -0.045066297 -0.016379688 0.042095933
0002e0 00 d9 85 3d 69 a1 34 b8 82 22 6a bd bf 87 36 3c
       0.0653553 -4.306567e-05 -0.057161815 0.011140763
0002f0 47 14 f6 3d 18 12 a7 bc c7 a0 cf bc 5e 1c a3 bb
       0.12015586 -0.02039437 -0.02534522 -0.004977747
000300 c7 b0 c3 3d c5 aa 0d 3e 94 d6 c6 bc ab 16 28 3e
       0.09555202 0.13834675 -0.02427224 0.16414897
000310 14 9f 63 bd 75 d0 da ba 1e 72 49 bd 28 31 ca 3d
       -0.05557163 -0.0016694205 -0.049181096 0.09872657
000320 18 37 91 3d e4 30 23 bc 2e 8c 29 3d fd 09 18 3e
       0.070905864 -0.009960387 0.04139345 0.1484756
000330 0c e5 f8 bd 0e 85 28 be 9a a6 44 3d 68 36 0c 3e
       -0.12153062 -0.16457006 0.048010446 0.1369263
000340 c7 fd 2c 3d 7b bf 14 3e d8 e0 7a 3d 6f 69 9a 3b
       0.04223421 0.14526169 0.061249584 0.0047122757
000350 47 57 df 3b f5 c2 37 be d6 65 b2 3c f6 37 cf bc
       0.006815824 -0.17945464 0.021777075 -0.025295239
000360 18 3a 9f 3d bb 26 25 3c 3e c3 40 3c 0b ac c0 3d
       0.077747524 0.010080035 0.011765299 0.094078146
000370 fc 2d d2 3b 1e 47 68 3e 05 d0 77 3d c0 17 6c 3d
       0.006414173 0.22683379 0.060501117 0.057639837
000380 a0 95 eb 3c c1 8e 89 bd 7c e8 93 3d bd 3f e8 3d
       0.02875787 -0.06716681 0.07222077 0.11340282
000390 a1 47 13 3e b3 f2 9e 3b 8b a2 e7 3d 10 e5 76 3c
       0.14382793 0.0048507093 0.113102995 0.015069261
0003a0 95 fd 2c be 36 8c 26 3d 96 27 cf bc 7b e0 a0 bc
       -0.16893609 0.04066106 -0.02528743 -0.01963829
0003b0 e0 f0 e5 3d 35 a2 2e bd 80 cd d6 3d 08 d6 28 bd
       0.11227584 -0.04263516 0.10488415 -0.04121974
0003c0 a6 93 8d bc bf 5b 99 bd 77 59 b9 3d d1 f0 07 3e
       -0.017282318 -0.07488202 0.09050267 0.13275458
0003d0 3b 54 12 be ed ba 67 3d 3d 10 e8 bc 4c 61 09 3e
       -0.14289944 0.05657475 -0.028328056 0.13416022
0003e0 28 aa 7f 3d 4c 24 46 3e 7b 2b 1f 3d 52 fa b2 3c
       0.062418133 0.19349784 0.038859826 0.021847878
0003f0 b6 a8 aa 3d f5 fb f2 bc e2 70 83 bd 1b 53 14 3d
       0.0833296 -0.029661158 -0.06418015 0.036212068

upsample.0.bias f4 [32]
000000 d8 77 ea bd 6d 02 9a 3d a6 70 57 bb 55 66 2d be
       -0.1144864 0.07519994 -0.003287354 -0.16933568
000010 d5 ce 75 bd 6b 71 ca 3c 00 2b 1d be 64 82 e2 3d
       -0.060011704 0.024712285 -0.15348434 0.11060026
000020 20 e6 a2 3d d7 3a 2e be 56 4e 95 3d d4 93 eb bd
       0.07954049 -0.17014633 0.07290332 -0.11502805
000030 4e 6a 4a bd 04 ae 00 3c c3 da 3b 3b 68 92 e1 3c
       -0.049417786 0.007853989 0.0028664328 0.027535632
000040 b0 2a 71 3d e4 16 cf 3d bf 3f 41 3c e5 3c 9a 3c
       0.0588786 0.10111788 0.011794983 0.018827865
000050 0b 4a 7a bd 49 23 98 bc ca 24 ee 3c 9b 84 97 3d
       -0.06110577 -0.018571513 0.029070277 0.07398339
000060 85 a2 cb 3c d3 ff 98 ba 20 f6 06 3e 1e cc d8 3d
       0.024857769 -0.0011672921 0.13179827 0.10585807
000070 c5 fb fa 3b f2 e1 96 bc 96 31 23 3d 10 4f 06 3e
       0.007659408 -0.018418286 0.03984221 0.13116097

upsample.1.weight f4 [32]
000000 10 4a b9 3e fb d3 a8 3e bc 9e a4 3e 18 5b f2 3e
       0.36189318 0.32974228 0.32152355 0.47335124
000010 d5 37 c1 3e 21 33 44 3f 96 aa b0 3e 57 b8 24 3f
       0.3773791 0.76640517 0.34505147 0.6434378
000020 8e ad aa 3e dd ce 86 3e b5 ba 20 3f 61 d6 a8 3d
       0.33335537 0.263297 0.6278489 0.082440145
000030 a6 d4 44 3f 41 74 1b 3f bf ca 2c 3e 3f 50 dc 3e
       0.76886976 0.60724264 0.16874216 0.43029973
000040 2c 91 8f 3d 86 4a 00 3f 52 b6 28 3f 64 33 cd 3e
       0.07010111 0.50113714 0.659032 0.4007827
000050 03 f6 02 3f 0f b5 e6 3e 2d 34 c1 3e 44 31 0a 3d
       0.51156634 0.45060012 0.3773512 0.03373839
000060 dd 74 b0 3e ee f2 c1 3e 11 20 35 3f 31 14 05 3f
       0.3446416 0.37880653 0.70752054 0.51983935
000070 5b 5d ff 3e f2 cb 7a 3e 65 fe bb 3e 45 17 97 3e
       0.49875912 0.24491861 0.36717525 0.2950994

upsample.1.bias f4 [32]
000000 aa 28 29 be c7 73 83 be 38 ed 52 be c2 6c 8e be
       -0.16519418 -0.2567427 -0.20598304 -0.2781735
000010 3f 60 54 be 68 4c 3f bf dd 92 8d be c1 8e 21 bf
       -0.2073984 -0.7472596 -0.2765111 -0.6310845
000020 6c 4c 86 be 8b bf 28 be aa c4 0a bf 6c e2 cd 3d
       -0.2623018 -0.16479318 -0.54206336 0.10052952
000030 36 b7 2a bf 80 f3 1c bf 24 29 74 bd 75 d9 e7 be
       -0.6668581 -0.6130905 -0.059609547 -0.45283094
000040 53 db cd 3d 3f 1b f6 be 23 f1 f2 be 72 d8 ad be
       0.100515984 -0.48067662 -0.47449598 -0.33954197
000050 92 aa 13 bf 59 bf c6 be 3d ed 9d be 45 94 46 3e
       -0.57682145 -0.38817862 -0.3084506 0.19392498
000060 45 80 25 be d4 ec 95 be 13 48 41 bf ba 87 e1 be
       -0.16162212 -0.29282248 -0.755006 -0.44048864
000070 55 1e f3 be c4 7b 89 bd bd 63 42 be 91 29 16 be
       -0.4748408 -0.067130595 -0.1898336 -0.14664294

upsample.1.running_mean f4 [32]
000000 12 1a ef bd e7 a1 93 3d 57 86 4b bc 00 60 26 be
       -0.116748944 0.07208615 -0.012422166 -0.16247559
000010 1e c3 81 bd ae 7a fd 3c 2a 89 19 be 05 22 f0 3d
       -0.06336044 0.030942287 -0.1499373 0.11725239
000020 10 bc aa 3d 24 c3 34 be d8 a9 91 3d 1e a1 ef bd
       0.08336651 -0.17652565 0.07112473 -0.117006525
000030 03 8e 28 bd 4d bd 36 3c 85 25 36 3b 4b 81 c2 3c
       -0.041151058 0.011153531 0.002779336 0.023743292
000040 23 44 66 3d 90 37 d6 3d f6 e8 73 3c a4 fe b9 3c
       0.056217324 0.104598165 0.014887085 0.02270443
000050 70 e2 7d bd fe 57 41 bc f5 02 11 3d b6 6c 8f 3d
       -0.061983526 -0.011800764 0.03540321 0.07003157
000060 5a cc c2 3c 0a 21 8a bb 4b cb 10 3e 99 9a d9 3d
       0.023779083 -0.0042153643 0.1414005 0.1062519
000070 cd 4b b7 3b 71 78 99 bc 97 77 29 3d 2b ee 02 3e
       0.005593753 -0.018734189 0.041373815 0.12786166

upsample.1.running_var f4 [32]
000000 0d 27 07 3f 17 12 00 3f f6 a8 0c 3f 4a bf 1b 3f
       0.5279396 0.500276 0.54945314 0.6083876
000010 39 67 03 3f ae b0 1b 3f ce 39 05 3f 2a 9e 1c 3f
       0.5132938 0.60816467 0.5204133 0.6117884
000020 74 4e 0a 3f fd 9c 0b 3f f8 cd 06 3f 99 c1 1e 3f
       0.5402596 0.5453642 0.52658033 0.62014157
000030 e5 e1 19 3f 97 97 ed 3e f2 76 19 3f c2 29 ed 3e
       0.6011031 0.46404716 0.5994712 0.4632092
000040 fc a0 27 3f 5f 2d 17 3f 4a 29 1d 3f 07 f3 02 3f
       0.6548002 0.59053606 0.6139113 0.5115208
000050 be aa ff 3e 88 8b 0d 3f c2 64 1a 3f 03 b9 31 3f
       0.49934953 0.5529103 0.60309994 0.6942293
000060 00 68 29 3f 51 ba 07 3f d9 02 16 3f 6b 71 01 3f
       0.66174316 0.5301867 0.58598095 0.5056369
000070 1c d5 04 3f 1a ba 07 3f e1 00 0e 3f 03 ff f6 3e
       0.5188768 0.53018343 0.5547009 0.48241434

upsample.3.weight f4 [32, 16, 5, 5]
000000 26 6d 96 bc 4d 37 83 bd fc 76 bb bd 86 3c 17 bd
       -0.018362593 -0.06407032 -0.09153554 -0.036922954
000010 89 ed 90 3c b3 d4 b0 bd 01 30 0d be 6a f9 4f be
       0.01769139 -0.08634319 -0.13787843 -0.20309988
000020 e7 aa 87 bc 59 79 9c 3c c6 ad 56 3d 09 be cf 3d
       -0.016560985 0.019100832 0.052411817 0.10143668
000030 b8 30 e2 3c 4e 46 69 bd 12 34 70 3c 44 d1 e1 3d
       0.027611122 -0.056951813 0.014660852 0.110262424
000040 59 de d8 3d 26 83 8c 3c cc 84 6e bc 1a b4 7f bc
       0.105892844 0.01715238 -0.014558028 -0.015606904
000050 bb ab d9 3c 54 31 9f bc 2c 60 04 bd 4b a3 b7 3c
       0.026571145 -0.019432701 -0.03231828 0.022416731
000060 8d af 9f 3c 73 fc 51 be ee 60 9e bd 72 e5 49 3c
       0.019492889 -0.20506458 -0.077333316 0.01232277
000070 8c 26 f6 ba 51 3e 0e 3d 83 c7 8f 3a eb 45 27 be
       -0.0018779798 0.0347274 0.0010969493 -0.16335265
000080 e3 a9 dd 3d 22 4f ec 3d 8b 0c 0b bb 00 ef 6f bd
       0.10823419 0.11538531 -0.0021217193 -0.058577538
000090 87 37 0d 3e fc 50 9e be 70 7f 0d 3e 4f b6 0a bd
       0.13790713 -0.3092116 0.13818145 -0.03386527
0000a0 95 38 c0 bd 1f c2 aa 3e 0b 9c 16 bd 68 b8 f1 bc
       -0.09385792 0.33351228 -0.036769908 -0.029506877
0000b0 8f 5b 5d bc 8e 86 73 bd 5d 59 e2 3d e4 8f 43 3c
       -0.013510599 -0.059454493 0.11052201 0.011936162
0000c0 97 bd 83 bb 60 49 af bc f1 26 7d 3c 8c fb 37 bd
       -0.0040204036 -0.021397293 0.015451179 -0.04491763
0000d0 84 aa 4c 3c 94 74 84 bc d4 05 7b bd 32 23 2d be
       0.012491826 -0.01616887 -0.061284855 -0.16907957
0000e0 e6 23 ce bd 16 5b 46 3e 50 22 42 ba 30 6c 03 bd
       -0.10065441 0.19370684 -0.00074056257 -0.032085598
0000f0 3d 3f 53 be a1 92 5d be 10 66 b2 3c 75 ab e4 3d
       -0.20629592 -0.21637966 0.021777183 0.11165515
000100 23 26 17 3d b8 86 01 3e 75 3a de 3d 64 aa 3d bd
       0.036901604 0.12649047 0.108509935 -0.046305075
000110 05 2d eb 3c a1 ef cd bd 62 30 60 3d f7 45 19 3e
       0.02870799 -0.10055471 0.05473364 0.14968096
000120 fc c9 3b bd da f5 cb 3b b0 81 a7 bc d3 d1 f9 3c
       -0.045846924 0.006224376 -0.020447582 0.03049556
000130 90 02 a9 bd 4d 89 b4 bd ef 47 a9 bd de 9c ee ba
       -0.08252442 -0.088152505 -0.08265673 -0.0018204709
000140 c7 f7 1b bc f3 8c db bd 69 cc 14 be 4d df 93 3d
       -0.009519524 -0.10720243 -0.14531101 0.072203256
000150 16 be 88 3d 5c b7 3a be 61 80 ae bd e2 ff f7 3d
       0.06676881 -0.18234009 -0.0852058 0.12109353
000160 fc 1b 1a 3e 1a 84 52 3c 80 1d 2b bd d4 aa 5b 3e
       0.15049738 0.012848878 -0.04177618 0.21451885
000170 d6 6f 65 3e 20 f1 46 3d c5 8e 39 bc 42 2b 27 3d
       0.22405943 0.0485698 -0.011325543 0.04081274
000180 51 10 0a 3e 1b 14 7d 3c 22 42 8f bc d3 47 00 3c
       0.13482787 0.015446688 -0.01748759 0.007829624
000190 0e 3f a4 3d 57 2c 74 bd 1b 18 ae bd 20 25 bd 3d
       0.08019839 -0.0596126 -0.085006915 0.09235597
0001a0 de 3d 1f 3e 87 09 4a bd af 17 2a bd c8 d7 27 3d
       0.15550944 -0.049325492 -0.041526493 0.04097727
0001b0 89 4e 31 be d1 20 db 3c 76 76 95 be 6e 34 21 3d
       -0.17315115 0.026749047 -0.2919194 0.03935664
0001c0 12 66 9a be 11 10 88 bd 4d fb 76 be 97 ad a3 bd
       -0.30155998 -0.066436894 -0.24119301 -0.07992094
0001d0 17 3f 60 be 37 bf f7 3d 7e ca 4d be 3a 85 48 3d
       -0.21899067 0.12097018 -0.20096776 0.04895518
0001e0 0c 80 49 be 34 f2 8f bc a9 f3 e1 bb 2f 39 00 bd
       -0.19677752 -0.017571546 -0.0068955016 -0.031304535
0001f0 68 31 28 3d 08 58 20 bc 5a b4 9b bd 6c 95 f8 bd
       0.041062742 -0.009786613 -0.07602759 -0.12137875
000200 a0 ed f1 3a 05 09 b3 3b 4b 5a 4f 3d f0 b7 04 3b
       0.0018457659 0.0054637217 0.05062322 0.0020251237
000210 d5 8e 25 be cb 2e 41 bc 38 ca 1a 3d a3 e1 d2 ba
       -0.16167767 -0.0117909415 0.037790507 -0.0016088973
000220 e8 8a 16 be 35 72 e1 bd 2e ae 8a 3c 51 a7 1c 3d
       -0.14701426 -0.110081114 0.016928758 0.038245503
000230 2b 89 20 be c3 fb 0a be 74 03 54 bd cb 03 82 3d
       -0.15677325 -0.13572602 -0.051761106 0.0634838
000240 6c ae fb 3b a5 8e 30 bc 68 f2 8e bd 28 19 01 bc
       0.007680705 -0.010776197 -0.06979829 -0.007879533
000250 19 77 88 3b d4 e1 f7 ba 53 2f aa 3d e1 c3 b1 3d
       0.004164588 -0.0018911907 0.08309808 0.08679939
000260 1a e6 b4 3d 31 6f 20 bd b6 df a2 bd c2 5d 43 3c
       0.08832951 -0.03916854 -0.07952826 0.011924209
000270 0b b1 6e 3e 8a d8 20 3c 32 18 41 be bf 3a 09 be
       0.23309724 0.009817252 -0.18856886 -0.13401316
000280 ec 5b 74 bb a3 f4 7b be 76 68 85 be 83 90 2b be
       -0.0037286235 -0.2460504 -0.2605626 -0.16754346
000290 f0 02 67 3d 83 be ee bd 7d 67 30 be ac 95 e9 bd
       0.056399286 -0.11657431 -0.17226978 -0.11405501
0002a0 07 56 c9 bb ac b1 32 bc ff 60 6f bc 40 f6 86 3d
       -0.0061442885 -0.010906618 -0.014610528 0.06589937
0002b0 34 19 03 3d a2 d0 18 bd 9a c9 a5 3a b2 20 ab bc
       0.032006457 -0.037308343 0.0012648583 -0.020889614
0002c0 90 1b e9 bd 85 cb d1 bc 82 71 d1 3d e4 56 8a 3d
       -0.1138221 -0.025609741 0.10226728 0.06754854
0002d0 47 5d 92 bd fe a0 c0 bc f8 d8 17 3d 27 f7 38 3e
       -0.071466975 -0.023514267 0.037072152 0.18063031
0002e0 e2 ef 8a 3d 95 4f ac bc 04 64 ce 3c 1a 34 2c 3e
       0.06784035 -0.021034041 0.025194176 0.1681675
0002f0 7e 54 f4 3d e3 a3 9b bd 9d 4a 2f be 06 d0 91 3b
       0.11930178 -0.07599618 -0.17118306 0.004449847
000300 ad 17 29 3c 1d ae 69 3d 22 64 b0 3c 99 88 d1 bc
       0.010320586 0.057050813 0.021532122 -0.02557783
000310 f6 ba 34 3d e0 b6 16 bd b3 7e 88 bd 22 9e 2e bd
       0.044123612 -0.036795497 -0.06664791 -0.042631276
000320 1c a3 be bc 08 ea 86 3c 52 69 16 bc ad 83 47 bd
       -0.023271136 0.016469017 -0.009180384 -0.04870956
000330 1a 43 23 3d ed cf 74 bd bb b2 48 be 0a cd 1a be
       0.039858915 -0.059768606 -0.1959943 -0.15117279
000340 3b a8 8e 3d 36 b1 c6 3d 41 d6 5c be ec 60 8c be
       0.06965681 0.09701769 -0.21566106 -0.27417696
000350 63 be a5 3c b0 11 36 3d d4 a2 15 3d 57 3c 7d bd
       0.020232385 0.044450462 0.036532238 -0.061825123
000360 0d b0 f1 3d 2d 34 d9 3d e4 8a a2 3d 53 2f 22 3d
       0.11801157 0.10605655 0.079366475 0.039595913
000370 c0 22 6b 3d 2d c2 71 3d 69 d0 86 3d 2a 0f 00 bb
       0.057406187 0.05902307 0.0658272 -0.0019540288
000380 0a 97 2f bd 5c 21 be bd 3d 4f ee 3d 32 af 3a 3d
       -0.04286865 -0.092837065 0.11636207 0.045577236
000390 c7 ad 23 bd 57 76 d0 3c 74 d1 8a 3d 5d 73 92 bd
       -0.03996065 0.025447054 0.06778231 -0.0715091
0003a0 fc 2d 09 be 81 57 ca bd 10 c2 66 3c d6 f1 c8 bd
       -0.13396448 -0.09879971 0.014084354 -0.098117515
0003b0 fb 44 b7 3d 9e 0f 81 bd 7b 0a 61 be 22 b0 0a be
       0.08948704 -0.06301807 -0.21976654 -0.13543752
0003c0 26 2b b9 bd b9 31 c2 bc b8 59 39 be 03 63 99 b9
       -0.09041433 -0.02370535 -0.18100631 -0.00029256204
0003d0 66 7a 2c 3d bc a7 79 be 6f 58 e9 bd f9 2c e6 bd
       0.042108916 -0.24380392 -0.113938205 -0.112390466
0003e0 ba 1a c4 bd dc 17 95 3b be c2 1d bd c7 a2 ee bd
       -0.0957541 0.0045499634 -0.0385158 -0.11652141
0003f0 e8 43 5b bd cc 38 15 3d 7f 18 1e 3d bb 9a 2b bd
       -0.053531557 0.03643112 0.03859758 -0.04189561

upsample.3.bias f4 [16]
000000 33 ff f6 bd 6f 1c cf bc 9f 62 de bd 93 92 99 3d
       -0.12060394 -0.025282113 -0.10858654 0.0749866
000010 8c 4e c1 3d 7a 03 99 3c 50 53 f2 bc 44 f5 67 bd
       0.0943881 0.018678416 -0.029580742 -0.056630388
000020 f3 41 17 3e 76 05 9a bd b5 d0 7a 3d 37 57 5a 3b
       0.14771251 -0.07520573 0.061234195 0.0033316144
000030 95 34 04 3e 87 c8 00 bc 5c 35 6b ba 40 17 90 3c
       0.12910683 -0.007860309 -0.000897249 0.017589211

upsample.4.weight f4 [16]
000000 e1 6d 3c 3f 38 f8 c2 3e ad 13 1d 3f 99 e3 d6 3e
       0.7360516 0.3808 0.6135815 0.41970518
000010 9a a1 0d 3f 1e c5 15 3f eb 03 c5 3e 0f e4 f8 3e
       0.5532471 0.585039 0.38479552 0.48611495
000020 a0 cd ce 3e 9a 2f 35 3f b9 d4 cd 3e 5f a0 f9 3e
       0.40391254 0.7077576 0.40201357 0.48755166
000030 72 41 ee 3e 55 53 70 3e 89 71 a2 3e 28 36 9c 3e
       0.46534306 0.23469289 0.31727245 0.30510068

upsample.4.bias f4 [16]
000000 7f b4 f8 be ab 58 73 be f7 a0 da bd 98 f5 57 be
       -0.48575208 -0.23764293 -0.10675233 -0.2108978
000010 68 3a 79 be 6a fd 93 be 9c 5e 10 be 8b 79 ec bd
       -0.24338686 -0.28904277 -0.1409859 -0.1154662
000020 d7 6a 54 be bd a5 3e be b8 b2 f2 bd 60 96 34 bd
       -0.20743881 -0.18617912 -0.11850494 -0.04408872
000030 ec 47 7b bd bf 1c 09 be a9 66 07 be fd 5d 36 be
       -0.061347887 -0.13389872 -0.13222755 -0.17809291

upsample.4.running_mean f4 [16]
000000 b1 6c 7f be 5c 20 2d be 76 2e 24 be 1a 37 8d bc
       -0.24943806 -0.16906875 -0.16033348 -0.017238189
000010 0d fa e0 bd ea 63 c3 bc 65 af 17 be ff 4c af bc
       -0.109851934 -0.023851354 -0.14813001 -0.02139902
000020 93 df d3 3d 30 7a 38 be 0a a9 42 bd 1c 21 fa 3c
       0.10345378 -0.18015361 -0.04752449 0.030533366
000030 38 f9 94 3d e8 6b 8c bd b9 44 8c bd 6a ef e6 bd
       0.07274097 -0.06856519 -0.06849045 -0.11276133

upsample.4.running_var f4 [16]
000000 f4 f9 d3 3d 4f 87 d3 3d 89 82 01 3e ce bd a1 3d
       0.10350409 0.103285424 0.12647451 0.078975305
000010 b0 53 76 3e b1 42 ab 3d 6f 42 b8 3d 7e d5 9c 3d
       0.24055362 0.0836233 0.08997046 0.07657908
000020 f0 92 0b 3e b0 0c bd 3d 53 35 d7 3d f3 e9 b8 3d
       0.13630271 0.092309356 0.10508218 0.09028997
000030 da 6a c7 3d 6d 0b 7f 3d c8 6d a2 3d d0 e2 c3 3d
       0.09737177 0.062266756 0.07931095 0.095647454

upsample.6.weight f4 [16, 4, 3, 3]
000000 8c cd d2 bd d2 66 2e bd 52 01 e1 bb fa 78 a6 be
       -0.10293111 -0.042578526 -0.0068666125 -0.32514173
000010 78 cd 00 bf 0b a1 2f be 81 35 25 bd d0 c6 be bd
       -0.5031352 -0.17151277 -0.04033423 -0.09315264
000020 3e 7e e3 bc 5f fc d9 bc 57 f7 9f bc 3a ff 3d 39
       -0.027770158 -0.026609598 -0.01952712 0.00018119524
000030 9f 62 61 bd ce 5c 66 bd c3 19 02 be 22 cb f9 bc
       -0.055025693 -0.05624085 -0.1270514 -0.03049237
000040 88 fd 06 bd 1f 40 ee bc c8 34 22 bb 8b 75 8f bd
       -0.03295663 -0.02908331 -0.0024750698 -0.070048414
000050 e9 cf 1a bd 4a 72 ff bd 48 a5 7f be 49 b0 61 be
       -0.037795935 -0.12472971 -0.24965394 -0.22039904
000060 8e 6d 26 bd f8 14 3c bd 2d f7 6e bc e6 94 c9 bd
       -0.040631823 -0.045918435 -0.0145852985 -0.09842853
000070 38 fd b6 bd a2 a0 7e 3d 3a 20 8e bd 8c 57 99 bd
       -0.089350164 0.06216491 -0.069397405 -0.07487401
000080 cd ef 17 bd 4a 8b b0 bc 7c 4f 1b bd 73 54 25 bd
       -0.037093926 -0.021550793 -0.0379176 -0.04036374
000090 00 e4 62 bd cf c7 3b be 85 38 fa bd 97 d2 4a be
       -0.05539322 -0.1833794 -0.122178115 -0.19806896
0000a0 5f 31 ab be 1d 12 d2 bd b1 c5 c1 bd 3e 6b ee bd
       -0.33436105 -0.10257361 -0.09461535 -0.116415486
0000b0 dd 1f 79 3c 18 aa 9e bd 1f 53 fe bd 2a db bc 3c
       0.015205351 -0.077472866 -0.12418198 0.023053724
0000c0 47 78 dc bd 4a 37 1a bf 66 79 d6 be 53 32 71 bc
       -0.107651286 -0.60240614 -0.41889495 -0.014721471
0000d0 11 32 86 bd 5d 99 06 3c 1f 6b 86 be 54 ef 9a 3d
       -0.06552518 0.008215276 -0.26253602 0.075651795
0000e0 86 ec 8c be f1 6a 8a be 64 41 a6 be 9d 4d 8a be
       -0.27524203 -0.27034715 -0.32471764 -0.2701234
0000f0 34 4b 85 bd 36 4d 68 bd 67 f1 05 bd 08 bf d0 be
       -0.065084845 -0.05671426 -0.032700922 -0.40770745
000100 61 14 a8 be 09 63 03 be 9b b5 b2 bd 56 12 05 be
       -0.32828048 -0.12830748 -0.08726045 -0.12995276
000110 a2 b7 3e bd 7d e2 f7 bd 70 af 8a bd 95 f4 ef bc
       -0.046561845 -0.12103746 -0.06771743 -0.02929143
000120 6a 65 3e 3d 04 24 ce 3d ac 5f 90 3d 21 8c b3 3d
       0.046483435 0.10065463 0.07049498 0.08766962
000130 a5 62 1b 3e 6e f8 a3 3d af 03 4f 3d 1a 80 8c 3d
       0.15174349 0.080063686 0.050540622 0.06860371
000140 e9 9e 19 3d 1c b7 cc 3d 60 5f 1b 3e d0 56 6e 3d
       0.037505064 0.09995863 0.15173101 0.05818826
000150 87 4b 2a 3e 42 7f de 3d 5a 11 d5 3d ab 32 d3 3c
       0.16630374 0.10864116 0.104037 0.025780996
000160 cb a4 96 3d 80 88 d4 3c 1e ec 34 3d a4 1b 4c 3d
       0.073556505 0.025943995 0.04417049 0.049831048
000170 96 e4 d7 3d 48 44 64 3d 07 4c b8 3d bd 1f c0 3d
       0.10541646 0.05572918 0.08998876 0.093810536
000180 f9 ef 2e 3c cc 61 83 3c af 1d f4 3c 2b 12 dc 3d
       0.010677331 0.016037844 0.02979931 0.10745653
000190 e3 a3 e5 3d 9d 44 82 3d 44 a7 cb 3d 7e 70 ce 3d
       0.112128995 0.06360743 0.09944013 0.1008005
0001a0 63 f8 05 3d b8 09 c1 3d c7 68 45 3d d1 fa a7 3c
       0.032707583 0.09425682 0.048195627 0.02050534
0001b0 1b d9 ab bd 78 50 df bd 96 fd 50 bd 71 10 aa bd
       -0.08391019 -0.1090402 -0.05102309 -0.08303917
0001c0 3e b7 04 3d 71 5c 43 3d dd 09 66 3d e7 09 f3 3d
       0.032401316 0.04769558 0.05616175 0.11867123
0001d0 c2 14 26 3d cf 48 59 3d 69 2e a2 3d cf 92 30 bc
       0.04054714 0.05304795 0.07919008 -0.010777189
0001e0 04 90 54 be a9 cc e6 3c 93 4e a6 3d a0 82 0f bd
       -0.20758063 0.028173761 0.081204556 -0.035036683
0001f0 1f d4 0a 3d 77 d8 5e bb 2c 7e b2 bd 79 a2 b2 3d
       0.0338937 -0.0034003535 -0.087154716 0.087223954
000200 1c 46 1b 3d 47 48 a3 3d fd 9c 6f 3e 19 e2 2a 3e
       0.03790866 0.0797277 0.2339973 0.16687812
000210 f6 ca 22 3e 76 53 f8 3b 79 f6 b3 3d a9 70 b9 bd
       0.15897736 0.0075783087 0.08787245 -0.09054691
000220 a8 c7 81 bd c2 84 20 3d 05 1f a7 bc ac 22 50 3d
       -0.063369095 0.039189108 -0.020400533 0.050814316
000230 a8 92 8d 3d 5b c8 12 3e 71 0e 0b 3e bd 34 8f bd
       0.06912738 0.14334242 0.13579728 -0.06992481
000240 1f f6 d9 3c d4 b1 25 3d 82 0b 23 3d fb 61 ca 3c
       0.026606617 0.040452793 0.039805897 0.024704924
000250 70 b5 71 3d 11 cf a7 3c 5c f6 10 3d be fe a4 3c
       0.059010923 0.02048448 0.035391197 0.020141002
000260 3d d0 98 3c 97 76 cb 3d 90 ba 7c 3e 31 26 17 3e
       0.018653983 0.099347286 0.24680543 0.14760663
000270 8e 52 74 3d eb 7b 28 3e f5 82 84 3d 4e 88 a3 3d
       0.059649043 0.16453521 0.064702906 0.079849824
000280 65 78 3b 3e da 21 ac 3d 4b 37 07 bd 6c 99 87 bd
       0.18307646 0.08404894 -0.033011716 -0.0662106
000290 1e 4f ad bc e6 d0 15 be 50 eb 02 be 56 b0 04 be
       -0.02115589 -0.1463047 -0.12785077 -0.12957892
0002a0 2f 4b d3 bd 8e f3 29 bc d1 a6 1a bd 04 04 b4 bb
       -0.103170745 -0.010373009 -0.037756745 -0.0054936428
0002b0 1e ea fa 3c 21 3d a8 3d 6d 86 35 3a 4e 89 88 bc
       0.030629214 0.082147844 0.0006924633 -0.016667034
0002c0 42 6b ad 3c 10 90 80 bb 17 b5 14 bd cb f3 32 3c
       0.021169309 -0.0039234236 -0.036305513 0.010922383
0002d0 ea 6a b6 bc dd 13 3c bd bf 5a cc bd 62 38 b4 3c
       -0.022267777 -0.04591738 -0.09978246 0.021999542
0002e0 d8 cb 27 be f5 0a 63 be 59 e7 92 3c 7d db f9 bd
       -0.16386354 -0.22172149 0.01793258 -0.12200067
0002f0 9e fb 1b be af 92 f3 bd cb 92 0d bf be d8 67 3d
       -0.15232703 -0.11893212 -0.55302113 0.056603186
000300 0e 61 3a 3e 91 65 a5 3c 20 16 26 be b3 92 02 be
       0.18201086 0.020190032 -0.16219378 -0.12751274
000310 96 5b c1 be 35 07 2f 3d b0 46 59 3d 33 6f a8 3c
       -0.37765187 0.042731483 0.05304593 0.020560836
000320 34 b9 03 be 1d 07 b8 3d 49 05 8d 3c 11 57 1c be
       -0.12863618 0.08985732 0.017214434 -0.15267588
000330 77 61 8c 3c 1a dc d9 bc 63 53 cc bd 99 71 97 3d
       0.017136319 -0.02659421 -0.09976842 0.07394714
000340 85 48 89 bd 65 da 80 be d9 d4 21 3d 7b 2a a7 bd
       -0.06703285 -0.25166622 0.039509628 -0.081623994
000350 4e d0 2c be 66 84 62 3d cb fa a1 bd 9e e3 f9 bd
       -0.16876337 0.055302046 -0.07909163 -0.12201618
000360 7e bc 87 bc 38 d6 48 bd 03 4a ff bc 07 b3 b2 bd
       -0.016569372 -0.04903242 -0.031163221 -0.08725553
000370 49 4b 2f be 8f 55 b9 bd 6d b1 2e be 81 df 9d be
       -0.17118563 -0.09049522 -0.1705987 -0.30834582
000380 37 39 fa bd 60 69 73 be 04 3d 2d be 0d e7 a2 bc
       -0.12217944 -0.23770666 -0.16917807 -0.019885564
000390 11 a6 02 be 54 97 22 bd 04 70 f3 be 7e aa 2f 3d
       -0.12758662 -0.0396951 -0.475464 0.042887203
0003a0 10 14 17 be 19 9b f2 bc 7e 07 a6 3c d3 5a 90 bd
       -0.14753747 -0.029614972 0.020267244 -0.07048573
0003b0 c8 b8 c7 bd 5d b8 09 be 2b 49 37 be 15 27 22 be
       -0.09752041 -0.13449235 -0.17899005 -0.15835221
0003c0 29 48 e1 be b7 27 3e 3d 82 1c 62 be 66 2f 87 be
       -0.44000366 0.046424594 -0.22081187 -0.2640335
0003d0 2b 76 af bd a2 2f 85 be e3 8c dd bd 3d ef f2 bd
       -0.085674606 -0.26012903 -0.10817888 -0.11862037
0003e0 89 90 50 be ea 26 9f be 0f 3f d0 be d3 2c cf bd
       -0.20367636 -0.31084377 -0.4067311 -0.101159714
0003f0 c7 2a 1c 3b 35 07 fc 3c 3d 2b 09 3d 5e 71 32 bc
       0.0023829208 0.030765155 0.0334885 -0.010891287

upsample.6.bias f4 [4]
000000 b9 b3 00 3b b4 48 6b 3e 2b 56 16 3e c0 5f f1 3d
       0.0019638373 0.22976953 0.14681308 0.11785841

upsample.7.weight f4 [4]
000000 74 f5 b8 3f 17 1f 81 3f d6 a4 4c 3f 2e a6 b1 3f
       1.4449906 1.0087613 0.7993902 1.3878839

upsample.7.bias f4 [4]
000000 7f e5 8e bf ed 3d 00 bf 17 09 e2 be f2 5e 62 bf
       -1.1163787 -0.5009449 -0.4414756 -0.88426125

upsample.7.running_mean f4 [4]
000000 ef 71 d3 bd 6a 45 0e 3e a2 6e 9a 3d aa 0e 87 3b
       -0.103244655 0.13893667 0.07540633 0.004121621

upsample.7.running_var f4 [4]
000000 0b 36 df 3c 15 e0 33 3d 9a 6c 0a 3d e9 f8 2b 3d
       0.02724745 0.043914873 0.033794977 0.041985426

upsample.9.weight f4 [4, 1, 2, 2]
000000 78 9e e8 3d 9d 71 46 40 54 ed 83 be 6b cf 45 bf
       0.113583505 3.1006844 -0.25767004 -0.7726962
000010 c0 77 ca 3d 12 b3 1e bf c8 0f a1 3d 68 49 57 bf
       0.09886122 -0.6199199 0.07864338 -0.84096384
000020 6f 3b 32 3f 8a bc 6c 3f b3 cb 09 3f aa cf ae 3f
       0.6962194 0.9247519 0.53826445 1.3657124
000030 be 65 12 3d ae f1 54 3f 35 33 72 3e 1e a8 e3 3f
       0.03574156 0.83181274 0.23652346 1.778568
